full_project/controllers/continuous_controller/weights/pretrained_medium.pt (torch, 13248 bytes, 8 tensors)

module.0.module.0.0.weight f4 [32, 3]
00000000: 5a8a 83bd f064 7f3e 4a70 063f 47cb 113f
00000010: 3437 f0be 6a6c c13c bb5a d4be b1c1 b33e
00000020: c851 cb3e 6a92 cfbe 5ca0 5bbd fac0 c43e
00000030: 077c c33e 6c0d d2be 5ab8 bc3e 7855 d1bd
00000040: 0e3d ffbe 160b 083e ddb5 893e 2f99 bf3e
00000050: c084 c8be b119 d6be aea2 bfbe 5c50 a93e
00000060: 062d 01bf 1863 0cbb bf39 3ebe d10f 813e
00000070: 6af4 1c3e c77c 86be 3687 ce3d 4d73 073f
00000080: 6fd1 af3d 077c 92be c0eb 2e3b 7ac8 04bf
00000090: 6fa8 bdbe 10f5 f2bd 2419 b4be 4352 fa3e
000000a0: 670d 663d 4bb9 da3e 809f 06be 79f3 92bd
000000b0: 9bee 0f3e 04ca 2fbe 67a5 5abe 8d2f 0cbf
000000c0: 1bb1 de3e 8688 053f 7e76 0abf 119b 43be
000000d0: 16bb cdbe e57d 5abe c50b e13e 488e 9a3e
000000e0: 2b56 68bd 6181 7c3e 146e 123e 6061 ac3e
000000f0: 048c edbe 43db 3b3e c344 05bf 7a68 c2be
00000100: 3c1c 74be 3b2e 49bd 2b7b 0bbf af4c ddba
00000110: 5529 dc3d 3fa1 6abe 826c 2f3e 68e5 013f
00000120: 37f9 c9bd 2914 98be ef2d 05bf b2d9 d7be
00000130: e2b5 b2be 1b88 cebe df6e 68be 7b0a 933e
00000140: bd60 183e 9a37 053f 52e8 163f 08d7 5cbe
00000150: 1f87 67be decf 9b3d 6b76 dabe c5c8 a03e
00000160: 8c83 d1bd 62da e9be d32c dfbe 3dd7 cbbe
00000170: be06 2c3e cd99 e23e a2fe df3e 75e9 27be
-0.06422873 0.24940848 0.5251509 0.569508 -0.46917117 0.023611266 -0.41475472 0.35108712
0.39710832 -0.40541393 -0.053619727 0.3842848 0.38180563 -0.41025865 0.368594 -0.1022138
-0.4985127 0.13285479 0.26896563 0.37421557 -0.3916378 -0.41816476 -0.37428802 0.33069122
-0.50459325 -0.002142137 -0.18576716 0.2520738 0.15327612 -0.26267073 0.10084383 0.5291031
0.08584868 -0.2861025 0.002669081 -0.518684 -0.37042567 -0.11863148 -0.3517543 0.48890886
0.056165125 0.42719492 -0.13146782 -0.07175345 0.14055865 -0.17166907 -0.21352158 -0.54760057
0.43494496 0.52161443 -0.54087055 -0.19102122 -0.40181798 -0.21337087 0.43954292 0.30186677
-0.0567228 0.24658729 0.14299804 0.3366804 -0.46395886 0.1834536 -0.5205805 -0.37970334
-0.23838896 -0.049116354 -0.54484814 -0.0016883815 0.10750071 -0.22913073 0.17131236 0.5074067
-0.09861987 -0.2970288 -0.52023214 -0.42158276 -0.3490439 -0.40338215 -0.22698544 0.28718933
0.14880653 0.52037966 0.5894824 -0.21566403 -0.22610138 0.07608007 -0.4266847 0.31403175
-0.10230169 -0.45674425 -0.43588886 -0.3981265 0.16799447 0.44257966 0.43748957 -0.1639765

module.0.module.0.0.bias f4 [32]
00000000: f625 adbe 6a7c 89be 07af ccbe 2529 15be
00000010: ffbe fabe abf2 943e 612d 09bf ac9b b3be
00000020: ba38 ce3e d2dd c5be 654f fa3d 4da4 d93e
00000030: d6db 0d3f 71f4 803e b064 24be 8830 ab3e
00000040: 02f7 8abc cd80 35be a45c 733c a69d ed3d
00000050: 1f17 c63e e6f7 793e f4b5 903e 869e c43d
00000060: cabb 01bd da5b 543e 5802 b63d 8b9e 0ebf
00000070: bfaf 953d 6937 7abe 7752 95be 2c8b 3d3e
-0.33818024 -0.26852733 -0.39977285 -0.14566477 -0.48973843 0.2909139 -0.5358487 -0.35079706
0.40277654 -0.38645798 0.122221746 0.42508164 0.5541357 0.25186494 -0.16054034 0.33435464
-0.016963486 -0.17724915 0.01485363 0.11602335 0.38689515 0.24410972 0.2826382 0.096005484
-0.03167323 0.20738164 0.08887166 -0.5571067 0.073089115 -0.244352 -0.29164478 0.18510121

module.0.module.0.2.weight f4 [32, 32]
00000000: 00fa 313b 88f9 c83d 2840 13be 8a09 fbbd
00000010: f0d0 86bd 66a7 8a3d 25e5 71bc 4054 133e
00000020: 354c 80bc e2d0 1c3d 40cf 72bd 2d87 1fbd
00000030: 6796 2dbe 33d0 e0bd e3d3 8cbd 3e6a 683b
00000040: 23b9 5f3d 5e64 de3d e9cf 09be 4c34 93bd
00000050: b159 713d 0d29 1c3e 1261 07bd 30ad 0e3e
00000060: 34e6 febc 562e 963c 6dc0 223e bb7a 36be
00000070: c4ee f4bd 692e 55bd 634e 87bd 94f6 153e
00000080: 1622 d0bd 0541 abbd 61d0 ebbd e417 1dbe
00000090: 1345 d1bd c66f 283e f247 8b3d 6924 b33d
000000a0: 4076 163c 592e cfbd e94a 113d bda6 2fbe
000000b0: af87 04be 840f 9dbd fc44 e93d 81fa bd3d
000000c0: 9365 bfbd ed0f 69bc 155c de3d 1e52 423e
000000d0: bf1e 833d 9482 ca3c eb40 013e ccc4 b3bd
000000e0: 2bf1 9a3c 33e2 18be 2f8b e7bd 3bfb ccbd
000000f0: 9324 843d 3e20 6b3d aa40 d8bd c095 573d
00000100: da05 a83d 8d74 02bd 6f31 c9bb 8dcf d63c
00000110: 3a59 c83d adf1 283e 636b 0dbe 4dd4 9dbd
00000120: 39da a33d 36ac 133e 39f3 233e 536a 2d3e
00000130: 96e1 3c3d 3cf5 1fbe 7c0e 943b dc0a c5bd
00000140: bfba 17be 7273 1c3e fae3 173e 75f7 36be
00000150: 4b07 3e3d d365 adbc 0904 c7bc 8dad b1bd
00000160: f1f8 953d 2f0e bebd 2681 8a3d 879f b03d
00000170: 65aa 113e b3d6 8a3d fdcc 3dbe 8df1 d3bd
00000180: 95d6 833d 62b9 c63c e85c 20be 4984 04be
00000190: 2480 193e 61d7 c53d db9d 89bd 6158 81bd
000001a0: e063 1ebe 138d 6d3b a9ab fdbd 8bb4 e7bd
000001b0: 7904 bc3b e4e1 7a3c 664b bcbd 159a 043e
000001c0: fe3b 91bd 634c 213e d04f 183e c2a3 23be
000001d0: 67a1 9fbc 012f 483c 8dcb d63c 6ba3 d73c
000001e0: 1d53 ac3d 0018 f53c bcbf afbd 724d bf3d
000001f0: 880a 0ebe 721d bebd 786f 72bd 0544 88bd
00000200: f401 51bd dc49 fbbd 0393 e4bc e5b5 683d
00000210: efec c0bd 6359 0a3c 0a55 013e 02b3 b63b
00000220: 5177 48bc 8cef 37bc 22ae 413c 7943 b93d
00000230: 7505 1a3e 5146 dc3d ce21 443e 2d2e f1bc
00000240: ba8f 43be bbb9 89bd fab7 9f3d 883f f2bb
00000250: aed0 e6bd 83f3 0ebe a99a 34be 2f03 1bbe
00000260: d23f 0bbd b6b0 b63d a921 a33d b94d 33be
00000270: b55c b83d 3f2f 0bbe 478c 73bc f404 cebd
00000280: 72f7 3ebd e74a 19bd f58f 2fbe a9a0 24be
00000290: ab4c 0cbd 604c 8d3c 7182 b4bd 18f6 793d
000002a0: 698d 1abe ef65 91bc 1cde 1b3e 1530 82bd
000002b0: 44bb 2c3e 5ffd 813d 6220 29be 9e8f fd3d
000002c0: a741 9bbc 908d 9cbd e022 0d3e ce08 15be
000002d0: 244b d23c 760c bdbc ebd2 053e 7f20 373d
000002e0: 73e1 bd3d 1312 9d3d aeeb 39bd b822 4dbd
000002f0: 8fdb 0cbe f491 c53d cb56 0b3e fd75 fb3d
00000300: 9451 e7bd 1b65 473c 1b13 f1bd dfb3 a9bd
00000310: 2391 c7bd a93c af3d da40 f1bd b9cd 563b
00000320: 09e6 993b 3e60 d43d 2efc 0cbe 156a 05be
00000330: e963 d9bd dcbc 0a3e bdb8 67bd 2265 0e3e
00000340: 4922 283d 1f20 b73c 7417 8fbc eb71 d0bc
00000350: 0031 4b3c 5242 15bd a23e 713b 8a08 0e3d
00000360: e30f 15be 7e8d cbbd 9f35 143e 4137 21be
00000370: 5e58 ecbc 996c 283e 3866 8c3d d8d4 4ebb
00000380: a8c5 06be 9177 c13d 3b0b d9bd 40cf 00bd
00000390: aac9 42bd bc6d 06bd 6714 a43b 453d 213e
000003a0: 7b17 193c ad7e 243e cc82 de3d df0d 03be
000003b0: dc19 853d 92b0 f0bd 1c0c 80bd 6378 023d
000003c0: 2cc6 323d cbcc 053e 5422 7fbd 057f 273c
000003d0: 11c2 9b3d 7439 3fbe 5aed fc3d 049d 06be
000003e0: 6c8f 62bc cb8a 56bd 3b0d b6bd 21dd 043d
000003f0: 34b6 013e 67d6 72bd f508 c4bd 6c06 97bd
0.0027157068 0.09813219 -0.14379942 -0.12257679 -0.065828204 0.0677021 -0.014764105 0.14387608
-0.015661338 0.038285144 -0.05927968 -0.038947273 -0.16951905 -0.10977211 -0.06876352 0.0035463716
0.05461992 0.10858987 -0.13458218 -0.07187709 0.058923427 0.15250035 -0.033051558 0.13933253
-0.031115629 0.018332642 0.15893717 -0.17820255 -0.119596034 -0.052046213 -0.06606748 0.14644843
-0.101627514 -0.08362011 -0.115143545 -0.15341145 -0.10218253 0.16448888 0.06800832 0.08747179
0.009183466 -0.10116262 0.03547183 -0.1715345 -0.12942384 -0.07668975 0.11390111 0.092762955
-0.093455456 -0.014224988 0.10857407 0.18976638 0.06402349 0.024720468 0.1262242 -0.087777704
0.018913826 -0.14930038 -0.11305844 -0.10008856 0.064522885 0.057403795 -0.10559209 0.052633047
0.08204241 -0.031849433 -0.006139926 0.026222015 0.097826436 0.16498442 -0.13810496 -0.07706509
0.08000607 0.14421162 0.16010751 0.1693509 0.046113573 -0.15620893 0.0045183282 -0.09621212
-0.14817332 0.15278414 0.1483306 -0.17867835 0.046393674 -0.021166718 -0.024293916 -0.0867568
0.073228724 -0.09280049 0.06762914 0.086241774 0.14225157 0.06779232 -0.18535228 -0.103488065
0.06437413 0.02425832 -0.15660441 -0.12941088 0.14990288 0.09660221 -0.06719562 -0.06315685
-0.15467787 0.0036247417 -0.12386257 -0.11313733 0.005737838 0.015312646 -0.091940686 0.12949403
-0.07091521 0.15751795 0.14874196 -0.15980437 -0.019486142 0.012218238 0.026220107 0.026323041
0.0841429 0.02991867 -0.08581492 0.093409434 -0.13871205 -0.0928296 -0.059188336 -0.06653599
-0.051027253 -0.12269947 -0.027902132 0.056814093 -0.094201915 0.008444163 0.12630096 0.0055755386
-0.0122354785 -0.011226546 0.011821302 0.090460725 0.15041144 0.10755599 0.1915352 -0.029440964
-0.19097796 -0.067248784 0.077987626 -0.0073928274 -0.11270271 -0.1396008 -0.17637123 -0.15137933
-0.03399641 0.08920424 0.079654045 -0.17510118 0.090020575 -0.13592242 -0.014864988 -0.100595385
-0.0466227 -0.037424948 -0.17144759 -0.16076912 -0.034252804 0.017248333 -0.08813942 0.06102571
-0.15093006 -0.017748801 0.15221447 -0.06356827 0.16868311 0.06347155 -0.1651626 0.123809084
-0.018952204 -0.076441884 0.13782835 -0.1455414 0.025670595 -0.02307723 0.1306874 0.044708725
0.09271517 0.07669463 -0.045390777 -0.05008194 -0.1375563 0.09646979 0.13607328 0.12278364
-0.11294857 0.0121701015 -0.11771222 -0.08286261 -0.097444795 0.08556492 -0.117799476 0.003277643
0.004696612 0.10369919 -0.13768074 -0.13028748 -0.106147595 0.13548607 -0.056572665 0.13905767
0.041048322 0.022354184 -0.017467238 -0.025444945 0.012401819 -0.0364402 0.0036811014 0.034676112
-0.14556842 -0.09939097 0.1447358 -0.15743734 -0.02885073 0.16447677 0.06855434 -0.003155997
-0.13161337 0.094466336 -0.10597845 -0.03144765 -0.047555603 -0.032819495 0.005007315 0.15746029
0.009343977 0.16063948 0.10864791 -0.1279826 0.06499073 -0.11752428 -0.0625231 0.03185309
0.043646023 0.13066404 -0.062288597 0.010223155 0.076053746 -0.1867426 0.12349959 -0.13145834
-0.01382814 -0.052378457 -0.08889242 0.032437447 0.12667161 -0.0592865 -0.09572021 -0.07374272

module.0.module.0.2.bias f4 [32]
00000000: b0b3 25bc f01b 26be 1af6 c1bd 9c21 9e3d
00000010: d9ac 95bd 2a79 033e 0e5c 113e 37a6 8e3c
00000020: 5fd5 69bc 8b0a 6fbd a456 e4bc 0ace 4a3c
00000030: 9f87 febd 1bd9 0ebd 8155 00be eb24 d53d
00000040: 47bb d7bd a050 183e 0290 20bd 8e70 e1bd
00000050: 63dc 953d 0a2a c43c da47 cc3d f622 843d
00000060: 5dbf 23be 22d5 cc3d f17b bebc 737b 8bbd
00000070: bac4 0c3e 3df7 e63d 6e73 2abe 59aa dcbc
-0.010113642 -0.16221595 -0.09470768 0.07721254 -0.07308359 0.12839189 0.14195272 0.017413242
-0.014272063 -0.058359664 -0.027873345 0.012378225 -0.124282114 -0.034875017 -0.12532617 0.10407432
-0.10533767 0.14874506 -0.039199837 -0.11007796 0.07317426 0.023945827 0.09974642 0.06451981
-0.15990968 0.10001589 -0.02325246 -0.068106554 0.1374692 0.11277626 -0.16645595 -0.026936697

module.0.module.0.4.weight f4 [32, 32]
00000000: d8c7 1c3e a67d 873d e392 083e 5aa9 7abd
00000010: a40d bbbd e704 283e c556 ba3d 2bec 303e
00000020: 6dea 61bd dfbb f7bd 706f f0bb 5a79 10be
00000030: f990 9e3d 7f67 db3d 79c1 013d 2103 10bb
00000040: 6e7e 8c3d 0366 bcbd bba5 353e 0db9 3ebe
00000050: 94db 07be 8199 11bd 81f2 203e c79a 623c
00000060: 3f37 7e3d 7fb1 c4bd 9d17 8e3d bc91 72bc
00000070: 8c36 673d df00 043e 16fb 893d 3ed0 cfbc
00000080: 1689 41bc cca0 b1bd 331a 8ebd 4702 cd3d
00000090: c259 94bd d51f ea3d e3f1 6dbd b1bc aabc
000000a0: a6b4 5c3c c8d8 10be f70e 89bb 69e3 07bd
000000b0: 1816 84ba 6973 3ebd f6a0 053e 1031 073e
000000c0: 63bf 0bbe 382e a03d de85 17be abd9 30be
000000d0: 4fed 793d 96ce 5a3b c3df 91bd 3f96 25be
000000e0: 1ab2 81bd 1c03 543d 32fc 1bbe 4625 29be
000000f0: 4ad0 693c 856e 13be 905a 1abe 00b2 bbbd
00000100: 7096 05bd 4e1a 12be 7230 e3bd 0b2d cbba
00000110: 0d48 2dbe 2a9f e0bc 4858 efbd 8c3e dfbd
00000120: 6fde 743d 4b74 e4bd c794 11be 4a08 813d
00000130: 54ee 2a3d d0fd 2e3e 1c97 45bd 7bb3 c0bd
00000140: 860b 7abc 0bc5 81bc f39e fb3d ee48 3dbe
00000150: 24ee 23bd b07e 9f3d 2097 c8bd 4d1a 9abd
00000160: 0b95 b83d 1b42 51be a2a7 513d 7cbe 06be
00000170: a319 bd3d fac2 2ebe 355a f43d d9b6 35be
00000180: 7261 14be 61e7 8ebc 2fe6 073e 4e59 0ebe
00000190: fef0 9bbd 0303 223e f7ac e0bc 4673 713d
000001a0: ff27 25be 54ac a4bd 32c8 a6bd 52f1 3c3e
000001b0: f394 853d 30ca 0cbe 7eae ef3c 9da2 d93b
000001c0: 86c4 95bd aca2 abbd d0db 3fbd 7d62 183e
000001d0: 9882 cfbd 3046 ffbd cd48 5dbd ef9d 23bc
000001e0: bc40 2e3d 013b 1e3d 6aae 50bd de72 e4bd
000001f0: 7263 14bd 7c42 53bd 90c5 073e 7e82 24be
00000200: 3fec dabd d977 2cbe f859 16bd 2101 183e
00000210: 5917 233e 6c7a 18be a9a0 d6bb 11bf b23d
00000220: c2ae a93d 8a17 f53d c2d8 093b f150 b7bd
00000230: 64ae e13d 1aa8 86bd 3773 ba3d 7d86 10bd
00000240: 4710 9d3d 2628 343e 72ab 333e 9ec3 18be
00000250: 60b0 cbbd 7116 8bbd 3fb3 e6bd 704d 233e
00000260: 712d d5bc ab93 b0bd fbed adbd 9579 c9bd
00000270: ea93 8c3d c51c 0bbe b93c 32be 6639 23be
00000280: f060 9e3d 6cec 823d d578 d8bd b362 753d
00000290: 30de 053e 055b bc3c f2eb 3dbd b27b b9bb
000002a0: ff2b aabc 4d97 803d f8f0 eebd b50c e83d
000002b0: 8272 b03d 6778 cebd 3fdb 1a3e d5d9 313e
000002c0: cc64 6dbd 2070 2bbd 03df c73d 7366 f7bd
000002d0: 2c7e 9b3d 8f22 273d 564a d23d 89b7 28be
000002e0: f10e 1cbe da4c ca3d 5c9b 583d 0452 2fbe
000002f0: a161 bfbd b13e 13be ad9a 06be 088e 76bd
00000300: b3a5 123e abd8 10bc 5267 df3d 018d 233e
00000310: 17b7 9e3d fbcb 29be 1886 ae3d cf7d ae3d
00000320: fb80 083e 8c58 1cbe c5b2 cf3d dbf2 ec3d
00000330: c9d1 21be 6d8d bd3c c8cc 1d3e cfb7 0ebe
00000340: bb1f 703d 3a83 6e3d 8286 093d 412e 273e
00000350: 3938 033e f263 133e 0d9b d0bc 88dc 213e
00000360: be83 1bbe 97b0 02be f04a ffbc 6b87 5abd
00000370: 4864 2e3e b5db 7f3d a0f1 ff3d e522 d53d
00000380: aa49 0ebe 4233 4dbc 80e4 243d 8ede 3b3d
00000390: 4db5 b13d b566 a9bd 0392 8dbd 252d 173e
000003a0: e87d 88bd 6b48 e5bd b88d e03d 6960 be3d
000003b0: 36c9 7abd b387 79bc 3f39 f5bd 4262 26be
000003c0: abc9 aa3d c74b c6bd ba70 0a3e f79d 09be
000003d0: 1992 7abd a893 8cbb 036b a03d 6057 153e
000003e0: 8155 043e d858 1d3d 8a34 aebd 6084 06be
000003f0: 70e4 12be 02bc 0b3a aea5 383e 38d0 e6bc
0.1531061 0.066157624 0.13337283 -0.061196662 -0.09133461 0.1640812 0.09098581 0.17277591
-0.055155206 -0.120963804 -0.007337503 -0.14108792 0.07742495 0.107131 0.03167865 -0.0021974521
0.06860052 -0.09199145 0.17739002 -0.18625279 -0.13267356 -0.035546783 0.15717508 0.013830847
0.062064406 -0.09604167 0.069380976 -0.014805254 0.056448504 0.12890957 0.06737344 -0.025367852
-0.011812469 -0.08673248 -0.06938591 0.100102 -0.072436824 0.11431853 -0.05809201 -0.020841928
0.013470804 -0.14145195 -0.004182692 -0.03317586 -0.0010077385 -0.046496782 0.13049683 0.1320231
-0.13647227 0.078213155 -0.1479716 -0.17270534 0.06101733 0.0033387295 -0.07122757 -0.16170596
-0.06332798 0.051760778 -0.15232924 -0.16518125 0.014270851 -0.14397629 -0.1507361 -0.0916481
-0.03261417 -0.14267847 -0.110932246 -0.0015501095 -0.16922016 -0.027419645 -0.1168676 -0.10900602
0.05978244 -0.111549936 -0.1421691 0.06300409 0.041731194 0.1708901 -0.048239812 -0.09409233
-0.015261536 -0.015841028 0.122861765 -0.18484852 -0.04002203 0.077878356 -0.0979445 -0.07524548
0.09012803 -0.20435373 0.051185258 -0.13158602 0.092334054 -0.17066565 0.11931268 -0.17745532
-0.14490297 -0.017444314 0.13271402 -0.13901255 -0.07614325 0.15821461 -0.027426226 0.058947824
-0.16128539 -0.080406815 -0.08143653 0.18451431 0.065225504 -0.13749003 0.029258009 0.0066416995
-0.073128745 -0.083806366 -0.04684049 0.1488132 -0.10132331 -0.12464559 -0.054024506 -0.009986385
0.042542204 0.03863049 -0.050947584 -0.11154722 -0.03622765 -0.051577076 0.13258958 -0.16065404
-0.106895916 -0.16842593 -0.036706895 0.1484418 0.15926875 -0.1489045 -0.006549914 0.08727849
0.082852855 0.1196738 0.0021033739 -0.08950985 0.110195905 -0.065750316 0.09104007 -0.035284508
0.0766912 0.1759344 0.1754587 -0.14918372 -0.0994575 -0.0679139 -0.11264657 0.15947509
-0.026022645 -0.086219154 -0.08492657 -0.09837643 0.0686415 -0.13585193 -0.17405976 -0.15939865
0.07733333 0.0639275 -0.10569922 0.05990858 0.13073039 0.02299262 -0.046367593 -0.0056604976
-0.020772932 0.06278858 -0.11667055 0.11330549 0.08615591 -0.10081559 0.15122698 0.17368253
-0.057957456 -0.041854978 0.09759333 -0.120800875 0.07592425 0.040804442 0.10268085 -0.16476263
-0.15240075 0.098779395 0.052882537 -0.1712113 -0.09344793 -0.14379384 -0.13144942 -0.060194045
0.14321022 -0.00884072 0.10908379 0.15971757 0.07749765 -0.16581719 0.0852167 0.0852009
0.13330452 -0.15268153 0.101415195 0.115697585 -0.15802683 0.023138726 0.15410149 -0.13937305
0.05862401 0.058230616 0.033575542 0.16326238 0.12814416 0.14393595 -0.025464559 0.15806782
-0.15186974 -0.12762676 -0.031163663 -0.0533518 0.17030442 0.06246539 0.12497258 0.10407046
-0.13895288 -0.012524428 0.040256977 0.04586654 0.086771585 -0.08271543 -0.06912615 0.14763315
-0.0666464 -0.11195453 0.10964531 0.092957325 -0.061227046 -0.015230107 -0.119738095 -0.1624842
0.08339246 -0.09682422 0.13519564 -0.13439165 -0.061174486 -0.004290063 0.07832911 0.14584112
0.12923242 0.038414806 -0.08506115 -0.13136435 -0.14344954 0.00053304445 0.18031952 -0.028175458

module.0.module.0.4.bias f4 [32]
00000000: 00bc 54bd 5669 eabd 4f74 1fbe e106 193e
00000010: 968f 60bc 1ca4 bbbb 8b97 ccbd 55d3 d83d
00000020: 65a6 efbd e7af 95bd c016 16be de79 06be
00000030: 57bd 0b3e e380 f1bd 863f 75bc 4d6c 26bd
00000040: 2607 663d ebce 343d ad9a 01be 8b62 103e
00000050: 179c 2bbe e692 ea3c 652a c6bc eb1a 13bd
00000060: 6439 fb3d 04c1 093e a6ba 123d 5f4b 40bd
00000070: 57fd e73d a340 e13d baef fb3c d669 79bd
-0.051937103 -0.114458725 -0.15571712 0.1494403 -0.013706109 -0.0057263505 -0.09989842 0.105871834
-0.11701659 -0.07308941 -0.14657116 -0.13132426 0.13646446 -0.11792161 -0.014968758 -0.040630627
0.05615916 0.044142645 -0.1265666 0.14100091 -0.16758762 0.0286345 -0.024190137 -0.035914343
0.12266806 0.13452536 0.035822533 -0.04694688 0.113276176 0.109986566 0.030753959 -0.06089195

module.0.module.0.6.weight f4 [2, 32]
00000000: 0059 d83c ec34 183e 80a0 5c3c 54ca a1bc
00000010: 724f 0ebe 1b87 88bd 79b5 eb3d 5fbd e3ba
00000020: d2ac 65bc a3a7 4f3d 52d2 eebd 551d 5bbc
00000030: 3733 48bd 95e8 c43d d3e9 fb3d ddca da3d
00000040: 271c 0a3e 5316 0bbe cc2c 26bd 2f75 d03c
00000050: 41da 16be deb3 233d 6105 e3bd 3917 a03d
00000060: 9827 073e 4b4b 05be 76a9 d23d dde8 a43d
00000070: 9514 b8bd 25ea 243e 5d7c 0abe 5491 dbbd
00000080: 550e 17bd 4be0 a1bb 70d8 2e3d 0d77 72bd
00000090: a03a 12be a3d4 35bd 6b0f 123e ad68 b33d
000000a0: 9f7f cf3d f4a4 4e3c 4a76 643d fdd5 f9bd
000000b0: 96da 3e3d 27ff 14be d473 67bd 19fd f7bc
000000c0: 187a f43d afd3 f03b a5d0 84bd f350 813c
000000d0: 57c6 05be 5247 61bd eeea 3d3d fbc4 a5bc
000000e0: 61ee 12bc 7d9c 9b3d 1610 d5bd 07cd 74bd
000000f0: 5395 133e cf75 873c 47aa 0fbd caf3 b33d
0.026409626 0.14863938 0.013466001 -0.019749798 -0.13897493 -0.06666394 0.115092225 -0.0017375163
-0.014018254 0.05069698 -0.11661209 -0.0133736925 -0.048876967 0.09614674 0.12300458 0.10683224
0.13487302 -0.13582735 -0.040570065 0.025446502 -0.14731695 0.039966457 -0.1108501 0.07816929
0.13198698 -0.13017003 0.10286228 0.08052228 -0.08988301 0.16104944 -0.13524003 -0.107210785
-0.036878902 -0.004940068 0.04268688 -0.059195567 -0.14280176 -0.04439224 0.14263694 0.087602
0.10131764 0.01261257 0.05577687 -0.12199018 0.04659518 -0.14550458 -0.056506947 -0.030272054
0.1193735 0.0073494534 -0.06485108 0.01578567 -0.13063942 -0.054999657 0.046366625 -0.02023553
-0.008967967 0.07598207 -0.10403459 -0.05976584 0.14412431 0.016535668 -0.0350745 0.087867334

module.0.module.0.6.bias f4 [2]
00000000: e6f3 df3d 704f 40bd
0.10935192 -0.046950758
