full_project/controllers/continuous_controller/weights/pretrained_simple.pt (torch, 13236 bytes, 8 tensors)

module.0.module.0.0.weight f4 [32, 3]
000000 5a 8a 83 bd 3b f3 86 3e 7f cd 09 3f 47 cb 11 3f
       -0.06422873 0.26357445 0.5382919 0.569508
000010 8d 82 f5 be df 34 fd 3c bb 5a d4 be ca f2 b1 3e
       -0.47951165 0.030909 -0.41475472 0.34755546
000020 02 cf cf 3e 6a 92 cf be 2b 19 77 bd 4e ee be 3e
       0.40587622 -0.40541393 -0.060326736 0.37291187
000030 07 7c c3 3e 9a 0a ce be 97 e2 bb 3e 78 55 d1 bd
       0.38180563 -0.40242463 0.36696312 -0.1022138
000040 ab 42 fd be 4c 6e ff 3d dd b5 89 3e bd 5c b9 3e
       -0.49464926 0.12472209 0.26896563 0.36203566
000050 33 09 bb be b1 19 d6 be 15 85 c3 be 00 62 9f 3e
       -0.36530456 -0.41816476 -0.3818747 0.31129456
000060 06 2d 01 bf f9 2f 0b 3b c7 5e 30 be d1 0f 81 3e
       -0.50459325 0.002123831 -0.17223655 0.2520738
000070 b6 67 12 3e 7d 54 96 be 36 87 ce 3d 13 57 07 3f
       0.14297375 -0.29361334 0.10084383 0.5286724
000080 1c 43 e1 3d 07 7c 92 be ab 23 b8 3b b8 9d 01 bf
       0.10999128 -0.2861025 0.0056194863 -0.50631285
000090 6f a8 bd be 98 39 ec bd 73 0a ac be 43 52 fa 3e
       -0.37042567 -0.11534423 -0.33601722 0.48890886
0000a0 bd 66 9a 3d 47 2b da 3e 80 9f 06 be 47 9c a6 bd
       0.07539127 0.42611143 -0.13146782 -0.08135276
0000b0 c2 f9 09 3e 04 ca 2f be f3 5f 51 be ee e1 11 bf
       0.13474181 -0.17166907 -0.20446758 -0.56985366
0000c0 1b b1 de 3e 30 d2 03 3f 85 1b 10 bf 11 9b 43 be
       0.43494496 0.51492596 -0.5629199 -0.19102122
0000d0 86 9b d8 be 50 29 61 be c5 0b e1 3e 90 0d a2 3e
       -0.42306155 -0.21988416 0.43954292 0.31650972
0000e0 89 f4 4b bd 61 81 7c 3e c4 ee 19 3e 8e a5 a0 3e
       -0.049793754 0.24658729 0.15032488 0.31376308
0000f0 04 8c ed be 9c 32 3d 3e 10 44 02 bf 7a 68 c2 be
       -0.46395886 0.18476337 -0.50885105 -0.37970334
000100 4c 73 6b be ca 90 6d bd 2b 7b 0b bf 5d aa 09 3c
       -0.22993201 -0.05799941 -0.54484814 0.008402434
000110 47 2b be 3d 3f a1 6a be 80 67 38 3e a9 bc fb 3e
       0.09285598 -0.22913073 0.18008232 0.49167374
000120 37 f9 c9 bd 41 24 9b be 41 46 fc be b2 d9 d7 be
       -0.09861987 -0.30301097 -0.4927235 -0.42158276
000130 ff 4f ae be 7e 8f d4 be df 6e 68 be 88 de 91 3e
       -0.34045407 -0.41515726 -0.22698544 0.2849009
000140 0c 67 28 3e 9a 37 05 3f 59 2d 14 3f 9a 93 44 be
       0.1644556 0.52037966 0.57881695 -0.1919693
000150 1f 87 67 be 0e e2 89 3d 21 d3 e5 be c5 c8 a0 3e
       -0.22610138 0.0673257 -0.4488764 0.31403175
000160 f9 15 b0 bd 59 27 f1 be d3 2c df be bb e8 ca be
       -0.08597941 -0.47100332 -0.43588886 -0.39630684
000170 e2 a1 1e 3e cd 99 e2 3e 3a 33 dc 3e e5 3f 12 be
       0.15491441 0.44257966 0.43007833 -0.14282186

module.0.module.0.0.bias f4 [32]
000000 e1 cf a9 be 52 d2 89 be ec fc cd be bb 3a 15 be
       -0.33166412 -0.26918274 -0.40232027 -0.14573185
000010 e1 f6 fd be 92 d7 94 3e 38 21 0b bf d7 70 b6 be
       -0.49602416 0.29070717 -0.5434756 -0.35632965
000020 46 19 cb 3e ee c9 cb be f5 81 f7 3d 7b 91 d9 3e
       0.3966772 -0.39802498 0.12085334 0.42493805
000030 f9 80 0d 3f 0a 28 87 3e e4 91 25 be 61 df ac 3e
       0.5527492 0.26397735 -0.16168934 0.33764175
000040 1a 8e 83 bc e6 e4 3e be 85 ac 8b 3c d3 58 fa 3d
       -0.01605897 -0.18642005 0.017050037 0.12223973
000050 43 a9 c6 3e be fd 7c 3e 6a 87 92 3e 5d 4a cc 3d
       0.3880101 0.2470617 0.28618938 0.09975121
000060 22 d5 19 bd ff 11 56 3e 4d 1c c7 3d 57 87 10 bf
       -0.037556775 0.20905302 0.09722195 -0.5645651
000070 f8 85 9c 3d 50 e8 77 be bf a2 92 be 32 e2 38 3e
       0.0764274 -0.24209714 -0.2863979 0.18055037

module.0.module.0.2.weight f4 [32, 32]
000000 3c 6e 5b bb 83 9d c0 3d a0 30 16 be 62 06 09 be
       -0.0033482453 0.09405043 -0.14666986 -0.13381341
000010 a5 27 8f bd be 9a 3f 3d 22 3b 34 bb bb 6a 0d 3e
       -0.069899835 0.046778433 -0.0027501066 0.13810246
000020 5e 3f 5d bc 01 c0 40 3d 33 55 5b bd 02 8e 01 bd
       -0.013503877 0.04705811 -0.05354805 -0.03162957
000030 5a 6e 2a be 73 5d f4 bd 9a 96 99 bd ad 4e 33 3c
       -0.16643658 -0.119318865 -0.07499428 0.010944051
000040 ae ff 94 3d f0 87 dc 3d f3 11 f7 bd 11 29 a5 bd
       0.072753295 0.107681155 -0.120639704 -0.080644734
000050 f3 80 8a 3d f4 7c 16 3e 6d 01 15 bd 75 d6 02 3e
       0.06762876 0.14696103 -0.036378313 0.12777121
000060 b0 0e aa bc a4 06 c4 3c 2b 9c 23 3e 6f 22 28 be
       -0.020758957 0.023928948 0.15977542 -0.16419385
000070 2a 26 d9 bd 05 b3 26 bd e1 57 91 bd 12 ac 1e 3e
       -0.10602982 -0.04069807 -0.0709684 0.15495327
000080 ba e9 ef bd 15 c8 a8 bd 65 6b 04 be 29 a3 2a be
       -0.11714502 -0.082412876 -0.12931593 -0.16663803
000090 e2 89 d5 bd 7d 7b 27 3e 1a 6a 9a 3d f3 47 ad 3d
       -0.1042669 0.16355701 0.075397685 0.08460989
0000a0 3c b9 6c 3c d6 b4 c1 bd 10 0f ea 3c fe 2d 24 be
       0.01444846 -0.0945832 0.028571635 -0.1603317
0000b0 b1 d4 f9 bd ba 5e b4 bd c5 67 de 3d 3f 2e e1 3d
       -0.12198771 -0.0880713 0.10859636 0.10995149
0000c0 3e ee 9f bd a6 50 dc bb b7 de dd 3d 10 d9 33 3e
       -0.07809113 -0.006723481 0.10833495 0.17563272
0000d0 aa 3b 97 3d fb ee 03 3d 74 4f fa 3d 36 41 d5 bd
       0.07384427 0.03221033 0.12222186 -0.104128286
0000e0 5a e0 21 3d d4 68 03 be 0a 95 fb bd a4 bd ca bd
       0.0395206 -0.12832958 -0.12284286 -0.09899452
0000f0 18 54 aa 3d 5d b7 93 3d d3 1b da bd d9 4f 5e 3d
       0.08316821 0.07212708 -0.10649838 0.054275367
000100 97 bb cc 3d 0c 8e f8 bc f8 df 33 3c f4 e4 29 3d
       0.099967174 -0.03034117 0.010978691 0.041478112
000110 f8 f6 d2 3d 97 29 27 3e 2f e5 11 be 89 e2 91 bd
       0.10301012 0.16324459 -0.14247583 -0.07123286
000120 7d 4c 92 3d d6 b6 0f 3e 77 0a 29 3e 86 2a 1f 3e
       0.07143495 0.1403459 0.16507898 0.15543565
000130 a9 2e 11 3d 68 cb 15 be db ca 4e 3c 6e 5f ed bd
       0.03544489 -0.14628375 0.012621607 -0.115904674
000140 6b 49 28 be 18 e9 16 3e 48 c8 16 3e da b0 29 be
       -0.16434257 0.14737356 0.14724839 -0.1657137
000150 e3 8a 0b 3d a1 0a 05 bd db 36 bd bc 12 ca 91 bd
       0.034068 -0.03248084 -0.023097446 -0.0711862
000160 c9 8b 58 3d 36 ad ec bd 0c dd 9a 3d 1f 27 b6 3d
       0.052867685 -0.11556475 0.075616926 0.088941805
000170 5e 53 fa 3d 0a 7b 60 3d b7 df 39 be 75 f5 db bd
       0.12222932 0.05480484 -0.18151747 -0.107401766
000180 e5 9e a4 3d 35 f9 fe 3c d1 60 0f be 83 3c ec bd
       0.08038119 0.03112469 -0.14001776 -0.11534979
000190 ba 81 22 3e fe a0 c4 3d 64 d0 8e bd 0f a2 5b bd
       0.158698 0.09601019 -0.06973341 -0.053621348
0001a0 8a 9f 2a be a1 24 47 3b 10 8b 00 be 5c 74 04 be
       -0.16662422 0.0030386823 -0.12553048 -0.12935013
0001b0 7b fd f8 bb 99 2e a4 3c 8b 8a a4 bd 4b bb e1 3d
       -0.0075985766 0.02004175 -0.080342375 0.110220514
0001c0 c0 71 b7 bd 97 3d 22 3e 26 c6 10 3e 86 78 1c be
       -0.08957243 0.15843807 0.14138088 -0.15280351
0001d0 ba ce 0e bd c9 9b cf 3a e7 f8 bf 3c b7 d6 13 3d
       -0.03486512 0.0015839274 0.023434116 0.03609344
0001e0 7c 3e 8f 3d 32 71 39 3c 5a 19 ad bd 56 e3 c3 3d
       0.0699434 0.011318492 -0.08452101 0.09564845
0001f0 e9 2f 22 be 6b b5 cd bd 77 bc 4f bd 3f 9d 9b bd
       -0.15838589 -0.10044368 -0.050716843 -0.07598352
000200 01 46 46 bd ba 8a fe bd 4a 01 cf bc 3b b7 64 3d
       -0.048406605 -0.12428804 -0.02526917 0.055838805
000210 e9 2a c2 bd 10 fb f0 3a 3a 78 05 3e 83 e8 85 3b
       -0.09480841 0.0018385369 0.13034144 0.0040865554
000220 f8 b0 42 bc c3 13 0e bc ce 7b 75 3c 8f 67 bd 3d
       -0.011883013 -0.008671704 0.014983131 0.09248268
000230 a6 83 1a 3e 73 27 d9 3d e8 6e 42 3e bf 29 e2 bc
       0.15089282 0.106032275 0.1898762 -0.027607797
000240 1d 47 3d be 30 c0 89 bd 15 da aa 3d 17 d9 03 bc
       -0.18484159 -0.0672611 0.08342377 -0.008047364
000250 c0 aa e1 bd 1f 5c 12 be 28 68 35 be ef 39 1b be
       -0.11018896 -0.14292954 -0.17715514 -0.15158819
000260 36 c3 00 bd 06 1b b8 3d 4c 1c a6 3d 81 db 2d be
       -0.031436168 0.08989529 0.08110866 -0.16978265
000270 55 42 c0 3d a2 9b 07 be c1 3d 87 bc 0f 53 c7 bd
       0.09387652 -0.13242963 -0.016508939 -0.09732639
000280 4f eb 1a bd 4a 26 33 bd 4c e9 26 be 49 ea 1f be
       -0.037822064 -0.043737687 -0.16299933 -0.15616716
000290 cd 6f 17 bd e7 c5 1c 3c 6c b5 b7 bd 6b d2 6d 3d
       -0.036971856 0.009568668 -0.0897015 0.058062
0002a0 8c 14 1b be 3a f7 ab bc fb 61 27 3e 4f d1 88 bd
       -0.15144557 -0.02099191 0.1634597 -0.066805474
0002b0 3e 7a 2a 3e bd 9a 91 3d e9 6c 2a be d4 90 ea 3d
       0.16648194 0.07109592 -0.16643108 0.11453405
0002c0 bb e8 9c bc 3f 16 b1 bd ca 00 18 3e 40 99 0a be
       -0.019153943 -0.08646821 0.14844051 -0.13535023
0002d0 b8 b3 c9 3c 16 1d fb bc a0 26 0a 3e b3 04 60 3d
       0.02462183 -0.030653518 0.13491297 0.05469198
0002e0 a9 c5 a0 3d b0 8f 7b 3d 26 70 0c bd be d1 3a bd
       0.07850201 0.061416328 -0.03428664 -0.045610182
0002f0 39 fb 13 be 2a 84 b2 3d a5 9b 06 3e f4 36 04 3e
       -0.14451303 0.087166145 0.13145311 0.12911588
000300 8a 49 08 be b4 bd e8 3b 81 52 0b be 17 bc d1 bd
       -0.13309303 0.0071026925 -0.13605691 -0.102409534
000310 eb 39 d8 bd 91 82 a2 3d 47 1f e1 bd ad a2 cb bb
       -0.10557922 0.0793506 -0.10992294 -0.006214461
000320 2a 62 77 3c 49 21 e0 3d b7 79 0d be 11 03 e7 bd
       0.015099088 0.10943849 -0.13815962 -0.11279882
000330 1a a0 bf bd 11 4b ff 3d 3a 00 8c bd 89 18 25 3e
       -0.09356709 0.1246549 -0.06835981 0.1612264
000340 72 03 86 3d 33 1e cb 3c 8f 7d 0a bc 18 e7 1d bd
       0.06543626 0.024794674 -0.008452787 -0.038550466
000350 14 22 ef 3c 24 b4 e3 bc f8 e6 32 3b 0a 3d 93 3c
       0.029191054 -0.027795859 0.0027298313 0.017973442
000360 f4 6d 00 be 39 14 9d bd 93 d2 0e 3e 25 7e 1e be
       -0.12541944 -0.07669873 0.13947515 -0.15477808
000370 a8 f5 78 bb fb ba 36 3e e7 bf 7a 3d 28 7f c7 3b
       -0.003798822 0.17844765 0.06121817 0.0060881563
000380 d6 d4 16 be af 31 c6 3d ea 35 f7 bd 00 9f 33 bd
       -0.14729628 0.09677445 -0.1207083 -0.043852806
000390 7d 28 4b bd eb 94 e9 bc 71 1d 30 3c 38 c5 1e 3e
       -0.04959916 -0.028513392 0.010749207 0.1550492
0003a0 1c ec 76 3c 62 96 2a 3e 65 7b cb 3d a8 7a f0 bd
       0.015070941 0.16658929 0.09935645 -0.11742145
0003b0 12 58 95 3d ba 1c 06 be 2a d3 89 bd 2e 2a 48 3d
       0.07292189 -0.13096896 -0.067297295 0.04886835
0003c0 f3 06 62 3d 76 1b 10 3e 38 5d 87 bd 1a 08 e9 bb
       0.05518241 0.14072976 -0.06609577 -0.0071115615
0003d0 a6 b1 ad 3d 8c 67 34 be cc ca f4 3d 34 7c 1a be
       0.084811494 -0.17617625 0.11952743 -0.15086442
0003e0 5c 90 32 3c 94 16 f1 bc 69 dd cf bd fe fc f0 3c
       0.010898676 -0.029429711 -0.101496525 0.029417511
0003f0 04 4d 13 3e 33 80 2d bd 59 bf c4 bd 27 28 97 bd
       0.14384848 -0.04235859 -0.09606809 -0.07380705

module.0.module.0.2.bias f4 [32]
000000 1e 69 36 bc 14 60 26 be 43 ef c7 bd 57 57 90 3d
       -0.01113346 -0.16247588 -0.097624324 0.07047909
000010 f0 66 96 bd ac 02 06 3e d9 40 15 3e 2c f0 90 3c
       -0.073438525 0.13086957 0.14575519 0.017692648
000020 ef b6 c1 bc 53 74 5c bd 62 a0 c9 bc 17 5f 27 3c
       -0.0236468 -0.053821873 -0.02461261 0.010215542
000030 8d 5b f4 bd 71 f6 19 bd 02 f4 f9 bd 17 bc e0 3d
       -0.119315244 -0.03758854 -0.12204744 0.10973375
000040 08 e5 d4 bd 83 53 1a 3e 45 fe 1a bd dd 56 d9 bd
       -0.10395247 0.1507092 -0.037840147 -0.10612271
000050 5b aa 89 3d 12 70 bb 3c 4c 3f cf 3d ac d3 8f 3d
       0.06721946 0.022880588 0.10119495 0.07022795
000060 ad 58 21 be 42 e1 ce 3d 24 c4 96 bc bb 34 7f bd
       -0.15756483 0.10101558 -0.018404074 -0.062306147
000070 c3 7b 11 3e c0 83 e5 3d 7e 23 31 be 2e a4 d7 bc
       0.14207368 0.1120677 -0.17298695 -0.026323404

module.0.module.0.4.weight f4 [32, 32]
000000 53 9b 18 3e 7a 04 88 3d da ee 05 3e cf f5 94 bd
       0.14903001 0.06641479 0.13079396 -0.07273447
000010 fb 19 ba bd 3a fa 2c 3e 29 6b bd 3d 3d bc 38 3e
       -0.09086987 0.16892329 0.09248955 0.18040557
000020 02 69 5b bd fa 8c e6 bd 3b bb 27 bc 62 35 1e be
       -0.05356694 -0.11257358 -0.01023751 -0.15450051
000030 25 01 a7 3d ef b9 e4 3d 21 19 c9 3c fb 66 2f bb
       0.08154515 0.111682765 0.024548115 -0.0026764262
000040 b0 44 87 3d 11 b4 be bd 59 b7 2d 3e 20 97 42 be
       0.06604898 -0.09311689 0.16964473 -0.19002962
000050 30 a8 0e be b6 26 d5 bc 37 95 29 3e c6 77 d4 3c
       -0.13931346 -0.026019435 0.16560827 0.025936019
000060 0c 25 4e 3d d8 c8 af bd c9 1e 9a 3d 5a 2b df bb
       0.0503283 -0.0858323 0.07525403 -0.006810588
000070 1c d6 45 3d 07 bd 01 3e fe ac 96 3d db 21 de bc
       0.048299894 0.12669764 0.073572144 -0.027115753
000080 c2 49 11 bc 2f f0 c1 bd 03 ff 9f bd a7 81 d1 3d
       -0.008867683 -0.094696395 -0.078123115 0.10229807
000090 c6 d3 87 bd 4f b7 dd 3d 41 4b 81 bd e8 65 20 bd
       -0.066321895 0.10825979 -0.06313182 -0.039159685
0000a0 f9 0c 9d 3a 6e 46 0b be 5b 99 00 bc 0d be d7 bc
       0.0011982016 -0.13601086 -0.007849063 -0.02633574
0000b0 38 36 76 bc f3 bf 29 bd 7a 58 0e 3e 58 ca 09 3e
       -0.015027575 -0.041442823 0.13900939 0.13456094
0000c0 d9 0b fb bd 87 9a a3 3d 60 ad 07 be 37 2f 1d be
       -0.12258119 0.07988458 -0.13249731 -0.15350042
0000d0 77 f3 36 3d 7b bd b1 bb d7 bb 94 bd 8d 96 2d be
       0.04466578 -0.005424199 -0.0726239 -0.16951962
0000e0 bb 9e 50 bd 8c 6c 21 3d e1 e8 2a be 41 1c 30 be
       -0.050932627 0.03941016 -0.16690399 -0.17198278
0000f0 e6 b4 39 3c 57 73 03 be 25 0e 23 be 4d a7 92 bd
       0.011334633 -0.12836967 -0.15923364 -0.07160816
000100 8e 84 db bc 17 6c 19 be da e3 eb bd 25 f9 33 3c
       -0.026796605 -0.14982639 -0.115180686 0.010984694
000110 f3 85 29 be d4 a5 15 bd 6a e2 fa bd 92 5b 03 be
       -0.16555004 -0.0365351 -0.12250216 -0.128279
000120 ce d7 4e 3d f6 aa ed bd 76 4f 15 be 20 36 a5 3d
       0.050498776 -0.11604874 -0.14581093 0.08066964
000130 d9 a5 da 3c 48 c4 2e 3e 48 08 10 bd 85 0e bb bd
       0.02669041 0.17067063 -0.035164148 -0.09133629
000140 a9 33 10 bb 0b ee 56 bc fc 55 0f 3e f3 d2 2b be
       -0.0022003448 -0.013118277 0.13997644 -0.1677969
000150 e7 a0 39 bd e8 67 81 3d 2d 90 da bd ef b8 ba bd
       -0.045319464 0.06318647 -0.106720306 -0.091173045
000160 7a 6e de 3d b7 88 62 be b5 b4 10 3d 4e d4 13 be
       0.108609155 -0.22122465 0.035328586 -0.14436457
000170 73 4e c9 3d 84 d5 21 be 1b 8e de 3d 6a f1 25 be
       0.09829416 -0.15804106 0.10866948 -0.16205373
000180 61 54 19 be 96 0d 0a bc b6 7d 0d 3e d0 62 1b be
       -0.14973594 -0.008426091 0.13817486 -0.15174413
000190 f5 19 a6 bd 35 d4 2b 3e 73 7d ae bc d6 ef a4 3d
       -0.0811042 0.1678017 -0.021300053 0.080535576
0001a0 2d 01 1a be c7 88 9b bd a7 cc a3 bd 51 24 2a 3e
       -0.15039511 -0.075944476 -0.07998019 0.16615416
0001b0 0f 53 a6 3d 98 0f 0d be fd bb 7b 3c d4 30 5a 3b
       0.08121311 -0.1377548 0.015364644 0.0033293264
0001c0 64 79 b2 bd 82 53 b2 bd af f4 87 bd 67 10 05 3e
       -0.0871456 -0.08707334 -0.066384666 0.12994538
0001d0 2d cc c1 bd 05 f2 df bd 32 44 39 bd ea 28 e7 3b
       -0.094627716 -0.109348334 -0.04523105 0.007054438
0001e0 9a 4b be 3c de 90 66 3d 54 87 0a bd 63 4c c9 bd
       0.023229409 0.0562905 -0.033820465 -0.09829023
0001f0 47 b2 2b bd dc b8 87 bd a2 4f 14 3e d4 7d 36 be
       -0.041918065 -0.06627056 0.14483503 -0.17821437
000200 4c 46 e6 bd 74 56 22 be ce ca eb bc ca f0 0d 3e
       -0.11243877 -0.15853292 -0.028783228 0.13861385
000210 66 f6 1b 3e 5a 5f 10 be 98 aa d3 ba 1f 27 e0 3d
       0.15230712 -0.14098874 -0.0016148863 0.10944962
000220 c8 a7 c0 3d 6a 41 f9 3d b2 1f b1 3b f9 af d7 bd
       0.09407002 0.1217068 0.0054053897 -0.10531611
000230 f0 40 01 3e bd 14 88 bd 09 f0 a0 3d bf 68 22 bd
       0.12622428 -0.066445805 0.07858283 -0.039650675
000240 d2 12 80 3d a1 c9 2f 3e 91 8f 1f 3e 0a 0e 2d be
       0.0625359 0.17166759 0.1558211 -0.16899887
000250 5b 96 b6 bd 7c 9f 5d bd 89 68 da bd 88 65 33 3e
       -0.08915397 -0.054107174 -0.1066447 0.175192
000260 fd 0c 35 bd 60 65 91 bd 20 b5 8a bd b8 64 b2 bd
       -0.04420184 -0.07099414 -0.06772828 -0.08710617
000270 c1 03 87 3d 4d 4a 1b be 4e 65 25 be 03 12 37 be
       0.06592513 -0.15165062 -0.16151926 -0.17877965
000280 e3 b2 98 3d d7 4a 96 3d 29 c1 c6 bd 07 fe 57 3d
       0.07455995 0.07338493 -0.09704811 0.052732494
000290 b2 ca fd 3d 77 4f ff 3c 4a 21 25 bd 70 85 7e 3c
       0.12392177 0.031165821 -0.04031495 0.015534744
0002a0 4b 46 0b bc c9 92 7b 3d f8 bc ea bd e7 6b cd 3d
       -0.008500646 0.061419282 -0.11461824 0.10030346
0002b0 86 cb d1 3d ad 07 d6 bd 2f ae 0e 3e da 7f 2e 3e
       0.10243897 -0.10450683 0.13933633 0.17040959
0002c0 bd a2 95 bd 7a 83 36 bd c7 3b a1 3d 5c 88 10 be
       -0.073064305 -0.04455898 0.0787273 -0.14114517
0002d0 8e 75 b6 3d e2 09 5b 3d 38 5c db 3d 87 bf 1b be
       0.089091405 0.05347622 0.10710949 -0.1520978
0002e0 1e 53 2d be e6 79 e8 3d 78 f7 8e 3d e6 b8 24 be
       -0.16926238 0.11351375 0.06980795 -0.16086158
0002f0 f6 46 c0 bd 0b 52 24 be c8 28 f6 bd 22 e1 a4 bd
       -0.09388535 -0.16046922 -0.12019497 -0.08050753
000300 9b 83 15 3e 3b 90 96 bc d8 2d d2 3d 58 c1 2b 3e
       0.14600985 -0.018379321 0.1026265 0.16772974
000310 e5 74 a4 3d 35 93 31 be 32 99 a3 3d ce 59 85 3d
       0.08030108 -0.17341311 0.07988204 0.065112695
000320 05 1d fd 3d d4 3d 1d be f7 66 c3 3d 2f 32 04 3e
       0.12359051 -0.15355617 0.09541123 0.12909769
000330 71 04 32 be 80 74 dc 3c f8 0e 29 3e f4 c0 0b be
       -0.17384507 0.02691102 0.16509616 -0.13647825
000340 5e 28 95 3d 15 4d 7c 3d a0 bf 4f 3d 8f 69 3a 3e
       0.0728309 0.06159695 0.050719857 0.1820433
000350 1c 9c f3 3d 51 f6 06 3e 99 29 fb bc 90 84 14 3e
       0.1189501 0.131799 -0.030659484 0.14503694
000360 92 f6 0a be e9 97 11 be eb a7 43 bd 1f d8 82 bd
       -0.13570622 -0.14218105 -0.04776756 -0.06388878
000370 53 7c 2e 3e cc ca a0 3d 47 f9 eb 3d 7d f8 fb 3d
       0.17039613 0.078511804 0.11522155 0.12303255
000380 98 ce 0a be cd 5a 89 bc d7 67 2a 3d 9a 81 71 3d
       -0.13555372 -0.01676693 0.041602936 0.05896149
000390 77 88 b4 3d b3 c9 b7 bd ac bd 95 bd a2 88 0a 3e
       0.08815091 -0.08974018 -0.07311568 0.13528684
0003a0 e3 a6 8e bd 05 da f8 bd 3a a8 e2 3d e6 2e df 3d
       -0.06965425 -0.12150959 0.11067243 0.10897617
0003b0 db 09 90 bd 4b a0 8d bc 8d ba e0 bd 7c fc 25 be
       -0.0703313 -0.017288348 -0.10973082 -0.16209596
0003c0 ce ec b8 3d e6 55 c3 bd 7f 12 16 3e ca 37 00 be
       0.09029542 -0.09537868 0.14655493 -0.12521282
0003d0 e9 38 67 bd 35 c4 81 bc 9a fe 8c 3d 12 0d 07 3e
       -0.056450758 -0.01584063 0.06884499 0.1318858
0003e0 9c 19 12 3e 6f 29 eb 3c 4d 2b c3 bd 47 58 11 be
       0.14267582 0.02870628 -0.09529743 -0.14193831
0003f0 e3 cd 0a be a7 76 02 3c bc 75 31 3e fd 67 a7 bc
       -0.13555102 0.007962859 0.17330068 -0.020435328

module.0.module.0.4.bias f4 [32]
000000 44 5b 44 bd 11 f6 ee bd 14 b2 24 be 50 41 1e 3e
       -0.0479386 -0.11668027 -0.16083556 0.15454602
000010 f8 70 2e bc f2 b3 15 bb f7 38 d3 bd 75 9b ce 3d
       -0.010647051 -0.0022842851 -0.103135996 0.10088245
000020 c6 c6 fb bd 6c bc 96 bd 46 5c 18 be d1 33 02 be
       -0.122937724 -0.07360157 -0.1487895 -0.12715079
000030 3b c5 09 3e 59 f2 e9 bd ee c8 64 bc 27 1e 27 bd
       0.13454144 -0.11423177 -0.013963921 -0.04080024
000040 ca 8e 58 3d 09 67 39 3d c5 6d fc bd 18 48 0c 3e
       0.05287055 0.045264278 -0.123256244 0.13699377
000050 ad d2 28 be 69 0c 03 3d 6a a8 d5 bc d0 d9 10 bd
       -0.16486616 0.031994257 -0.026081283 -0.035363972
000060 76 ff f9 3d cf 18 09 3e 43 37 1c 3d 1d 60 38 bd
       0.122069284 0.1338837 0.03813864 -0.045013536
000070 68 97 e1 3d fe 3b de 3d f6 88 08 3d 17 13 80 bd
       0.110152066 0.10851286 0.03333374 -0.06253641

module.0.module.0.6.weight f4 [2, 32]
000000 eb 6b 2d 3c 2b 34 16 3e 80 a9 7d 3c 4e 6f f4 bc
       0.010584812 0.14668338 0.0154823065 -0.02983823
000010 e3 5f f5 bd 67 55 88 bd 8c ce f4 3d ad b8 af bb
       -0.119811796 -0.06656914 0.11953458 -0.0053625912
000020 9c 57 6f bc a4 dd db 3c 08 08 dd bd 9a 18 11 3b
       -0.01460829 0.026839085 -0.107925475 0.0022139908
000030 36 75 59 bd 23 2b c2 3d ff 0d e0 3d 75 17 e1 3d
       -0.053090297 0.09480884 0.109401695 0.10990802
000040 01 98 f9 3d d6 60 1b be c4 79 52 bd 67 06 86 3c
       0.121871956 -0.15173659 -0.051385656 0.016360475
000050 e4 8e 12 be db 82 2a 3d 09 dd d1 bd 96 9b 85 3d
       -0.14312321 0.0416287 -0.10247237 0.06523816
000060 6b bf 09 3e 2d 9f 0f be e0 92 f1 3d ab 4f 80 3d
       0.13451926 -0.14025564 0.11795592 0.062651955
000070 d5 c4 df bd aa 8f 26 3e 84 0e 11 be c1 04 f3 bd
       -0.109262146 0.16265741 -0.14165694 -0.11866141
000080 3d 52 82 bd 2c db c5 3b 73 0f 4e 3d eb 8b 90 bd
       -0.06363342 0.00603809 0.050307702 -0.07057937
000090 cc a9 f6 bd 67 5b 1d bd cb e5 19 3e 6e 13 b4 3d
       -0.12044105 -0.038417246 0.15029065 0.087927684
0000a0 5e 4c d6 3d 2e d5 79 38 ba 2c 88 3d ab 01 c6 bd
       0.10463785 5.9564765e-05 0.06649156 -0.09668287
0000b0 43 99 28 3d ad 53 11 be 60 44 80 bd 80 26 b8 bc
       0.041161787 -0.14192076 -0.062630415 -0.022479296
0000c0 1f fc cf 3d a6 65 39 bc 9e d4 ac bd b6 00 06 3c
       0.1015551 -0.011315739 -0.08438991 0.00817888
0000d0 45 a8 fc bd d2 3a 62 bd 04 bf 63 3d 26 09 fe bc
       -0.12336782 -0.055231877 0.05560209 -0.031010222
0000e0 2d 15 5b bc 06 4f a1 3d 54 1a d8 bd 0d 67 93 bd
       -0.013371748 0.07876401 -0.10551897 -0.0719739
0000f0 18 b0 06 3e 36 31 37 3c 37 c9 3f bd cf 11 a6 3d
       0.13153112 0.011181166 -0.046822753 0.081088655

module.0.module.0.6.bias f4 [2]
000000 b0 6e dd 3d 68 31 55 bd
       0.108121276 -0.05204907
