full_project/controllers/continuous_controller/weights/pretrained_super.pt (torch, 13248 bytes, 8 tensors)

module.0.module.0.0.weight f4 [32, 3]
0	0xbd2ef319	-0.042712305
1	0x3eaafd53	0.33396396
2	0x3efd836c	0.4951433
3	0x3f19aa2e	0.600253
4	0xbf16af6c	-0.5886142
5	0x3cc5729b	0.0241025
6	0xbee870bb	-0.45398507
7	0x3efd0431	0.4941726
8	0x3ec495d8	0.38395572
9	0xbee9675e	-0.45586675
10	0x3df21ea5	0.11822251
11	0x3ec1cb47	0.378504
12	0x3ed90eaf	0.42394015
13	0xbeda2620	-0.42607212
14	0x3eb4c9ad	0.35310116
15	0xbd827735	-0.06370393
16	0xbf25ce1f	-0.6476764
17	0x3dee235e	0.116278395
18	0x3e9c7d75	0.30564466
19	0x3ed96e38	0.42466903
20	0xbee70cec	-0.45127046
21	0xbec73114	-0.3890463
22	0xbe6d458b	-0.2317106
23	0x3eb1a8b4	0.34699023
24	0xbf096e73	-0.5368416
25	0x3e014e4f	0.12627529
26	0xbe4ef52f	-0.20210718
27	0x3e9680ad	0.29395047
28	0x3d6dc791	0.05805165
29	0xbe57af26	-0.21062908
30	0x3dbcdd88	0.09221941
31	0x3f14bf39	0.5810428
32	0x3d9fdc02	0.07805635
33	0xbe87f312	-0.26552635
34	0xbe36fcb6	-0.17869839
35	0xbee04ab3	-0.4380699
36	0xbeadbebe	-0.33934587
37	0xbe90c706	-0.28276843
38	0xbe9d882f	-0.30767962
39	0x3ee4837c	0.44631565
40	0x3e2ac96f	0.16678403
41	0x3ed00822	0.40631205
42	0xbe00ef3e	-0.12591264
43	0xbd78195a	-0.060571052
44	0x3d5cbb9e	0.053889863
45	0xbe500577	-0.20314585
46	0xbec63710	-0.38713884
47	0xbefd1e17	-0.4943702
48	0x3ee8e3a6	0.45486182
49	0x3f0642ed	0.5244587
50	0xbf0e9910	-0.55702305
51	0xbe23d836	-0.16000447
52	0xbef16a0d	-0.47151223
53	0xbe375040	-0.17901707
54	0x3ee61dbf	0.4494457
55	0x3ecb8334	0.39748538
56	0xbd786586	-0.060643695
57	0x3e67cd4e	0.22636911
58	0x3e95a3e8	0.29226613
59	0x3e9f6f77	0.31139728
60	0xbeebdcfd	-0.46067038
61	0x3c8f3758	0.017482445
62	0xbee92802	-0.45538336
63	0xbed94451	-0.42434934
64	0xbe63588d	-0.22201748
65	0xbb8e8855	-0.004349748
66	0xbf14a42b	-0.58063
67	0x3cc43b64	0.0239541
68	0x3e1433d1	0.14472891
69	0xbe843a74	-0.25825846
70	0x3e9a9e05	0.30198684
71	0x3ef964c2	0.48709685
72	0xbd6b05d5	-0.05737861
73	0xbee29417	-0.4425361
74	0xbf03b649	-0.5145002
75	0xbec5c121	-0.38623908
76	0xbf01134d	-0.50420076
77	0xbebe8d19	-0.37217024
78	0xbe86daad	-0.2633871
79	0x3eb99a60	0.3625059
80	0x3da2927c	0.07938096
81	0x3f0b89a9	0.5450693
82	0x3f3d842c	0.74029803
83	0xbe3988b4	-0.18118554
84	0xbe5e94c3	-0.21736436
85	0xbc664079	-0.014053457
86	0xbeb81104	-0.35950482
87	0x3eb42896	0.35187215
88	0xbe753187	-0.23944674
89	0xbedaad3d	-0.42710295
90	0xbef4bd97	-0.47800896
91	0xbea0b004	-0.3138429
92	0x3e4bb117	0.19891773
93	0x3eeee3a3	0.46658048
94	0x3ea2672b	0.31719336
95	0xbe612e99	-0.21990432

module.0.module.0.0.bias f4 [32]
0	0xbea2e631	-0.31816247
1	0xbe7c7001	-0.24652101
2	0xbeb4e2c6	-0.35329264
3	0xbda698b0	-0.081345916
4	0xbed085d6	-0.4072711
5	0x3e8516d0	0.25993967
6	0xbf090826	-0.5352806
7	0xbe34c0b7	-0.1765164
8	0x3ecb32e9	0.3968728
9	0xbeb354d0	-0.35025644
10	0x3d9b45ab	0.075816475
11	0x3eb2c5df	0.3491659
12	0x3f03da08	0.51504564
13	0x3e6ac2b3	0.22925834
14	0xbd32bbf6	-0.043636285
15	0x3e804d53	0.25058994
16	0xbd85f2e3	-0.065404676
17	0xbde693ed	-0.11258683
18	0xba518e4a	-0.000799392
19	0x3de64b8d	0.11244879
20	0x3e7f8d82	0.24956325
21	0x3e7d37c8	0.2472831
22	0x3e87087d	0.26373664
23	0x3dd633df	0.104591124
24	0xbd102256	-0.035188995
25	0x3e397346	0.1811038
26	0x3d149b19	0.036280725
27	0xbeed892b	-0.46393713
28	0x3cb61cb7	0.02223049
29	0xbe7a6a5a	-0.24454632
30	0xbe66ad2f	-0.22527002
31	0x3ca51423	0.020151203

module.0.module.0.2.weight f4 [32, 32]
0	0xbce0908e	-0.027412679
1	0x3de4823e	0.11157654
2	0xbe40dc58	-0.18834054
3	0xbe03bb68	-0.12864459
4	0xbd8c4054	-0.06848207
5	0x3e5d12be	0.21589181
6	0xbd4ef2c9	-0.050524507
7	0x3e17c39e	0.14820716
8	0xbba2639e	-0.004955723
9	0x3c8b2e27	0.01698978
10	0xbdd2139e	-0.10257648
11	0xbcd67d85	-0.0261829
12	0xbe155559	-0.14583339
13	0xbddfb52a	-0.10923226
14	0xbda7d138	-0.08194202
15	0x3cf75472	0.030191634
16	0x3bec7f16	0.0072172983
17	0x3e08b099	0.13348617
18	0xbe541f90	-0.20715165
19	0xbdb052bc	-0.0860953
20	0x3d7f7383	0.06236602
21	0x3e46f30d	0.19428654
22	0xbcc04693	-0.023471152
23	0x3e02c132	0.1276901
24	0xbc47fb84	-0.012205962
25	0x3d8c18cb	0.068406664
26	0x3df66633	0.12031212
27	0xbe7faa87	-0.24967395
28	0xbdfcc7f3	-0.12342825
29	0xbd65e7e5	-0.056129355
30	0xbd6e47ad	-0.058173824
31	0x3dd00ff1	0.101592906
32	0xbe07462a	-0.13210359
33	0xbd92af50	-0.071623445
34	0xbe26996b	-0.16269462
35	0xbe2bb432	-0.16767958
36	0xbdd81041	-0.10549975
37	0x3ea6f144	0.32605946
38	0x3caa65ef	0.020800559
39	0x3db3f918	0.08787745
40	0x3c7b3795	0.015333076
41	0xbe06195f	-0.13095616
42	0xbb9db5e4	-0.004812943
43	0xbe270742	-0.16311362
44	0xbddfe012	-0.1093141
45	0xbd8418fc	-0.06450078
46	0x3dd3de45	0.10345129
47	0x3de97bc3	0.11400559
48	0xbe156adf	-0.1459155
49	0x3ac57d18	0.0015067188
50	0x3d356bd1	0.044292275
51	0x3e3f4559	0.18678798
52	0x3d81492c	0.063127846
53	0x3d692946	0.056924127
54	0x3e0ca7ac	0.13735837
55	0xbdc546a4	-0.09632614
56	0x3cc13a68	0.02358742
57	0xbdd8ea92	-0.10591616
58	0xbe192933	-0.14957123
59	0xbe38e95f	-0.18057774
60	0x3d60fb26	0.054927014
61	0x3d1e92e6	0.038714312
62	0xbdd38768	-0.10328561
63	0x3c5c2183	0.013435724
64	0x3d966d7a	0.073451
65	0x3ccab9f5	0.024746874
66	0xbd0fa36e	-0.035067968
67	0x3d27115e	0.040788047
68	0x3e0a83e7	0.13526879
69	0x3eb5e4a8	0.35526013
70	0xbe289770	-0.16464019
71	0xbd0e6750	-0.034766495
72	0x3d64210e	0.055695586
73	0x3e100e3f	0.14067934
74	0x3d8f2c4d	0.069908716
75	0x3e18ec00	0.14933777
76	0x3d1abb26	0.037776135
77	0xbe28af30	-0.16473079
78	0x3ce22c0b	0.027608892
79	0xbdb5a3a9	-0.08869106
80	0xbe68456c	-0.22682732
81	0x3e5ad287	0.21369372
82	0x3d2f60a1	0.042816762
83	0xbe55a2d5	-0.20862897
84	0x3c382f91	0.011241809
85	0x3bbeeef8	0.005826827
86	0xbd302e60	-0.043012977
87	0xbdeb479b	-0.11488267
88	0x3ddeca94	0.108784825
89	0xbd3efe23	-0.046629082
90	0xbc898521	-0.016787114
91	0x3c904310	0.017610103
92	0x3de644c8	0.11243588
93	0x3db0fd7a	0.08642097
94	0xbe0fc60b	-0.14040391
95	0xbe3ac2ba	-0.18238345
96	0x3cdb57b6	0.026775222
97	0x3d14c7bb	0.03632329
98	0xbe613da8	-0.21996176
99	0xbe1289ff	-0.14310454
100	0x3e10c25c	0.14136642
101	0x3e97686c	0.29571855
102	0xbdffcb03	-0.12489893
103	0xbd877190	-0.06613457
104	0xbe0a04fb	-0.13478462
105	0xbd116f82	-0.035506733
106	0xbe334dc5	-0.17510135
107	0xbdbcfeee	-0.092283115
108	0x3d2b1311	0.04176623
109	0x3d0110a8	0.031510025
110	0xbdeb88b7	-0.11500686
111	0x3e2e7052	0.17035034
112	0xbdf8ac24	-0.12142208
113	0x3e3ac336	0.1823853
114	0x3daac5c0	0.08338499
115	0xbe2abe49	-0.1667415
116	0xbc4e244f	-0.012581899
117	0x3d9b5b42	0.075857654
118	0x3d3b8516	0.045781218
119	0x3c609bd5	0.013709028
120	0x3de8a991	0.11360467
121	0x3dc7c004	0.09753421
122	0xbe0b977a	-0.13632002
123	0xbc318ff8	-0.0108375475
124	0xbe119119	-0.14215507
125	0xbdcbe070	-0.099549174
126	0xbd78621c	-0.06064044
127	0xbdd7acba	-0.10530992
128	0xbd875360	-0.066076994
129	0xbde21200	-0.110385895
130	0xbd3a63aa	-0.045505203
131	0x3d2bc4cc	0.041935727
132	0xbdb892e5	-0.09012393
133	0x3df5ea01	0.12007523
134	0x3dc85edc	0.09783718
135	0x3c3c1310	0.011479154
136	0xbc8c617f	-0.017136334
137	0xbcce4d2a	-0.025183279
138	0xbcbc57dc	-0.022991113
139	0x3db91244	0.09036687
140	0x3e1ce608	0.15322125
141	0x3dd26446	0.10273032
142	0x3e4310e4	0.19049412
143	0xbc7dc436	-0.015488675
144	0xbe59c3bb	-0.21266071
145	0xbd3fc1f1	-0.046815816
146	0x3cba7b38	0.022763833
147	0xbcc4250e	-0.02394345
148	0xbde7c7de	-0.113174185
149	0xbe08bb82	-0.13352779
150	0xbe33dffb	-0.1756591
151	0xbe2e33cd	-0.17011948
152	0xbc8b1f71	-0.016982766
153	0x3dfd6956	0.12373607
154	0x3d424aba	0.047434546
155	0xbe6a1143	-0.22858147
156	0x3dc55b14	0.096365124
157	0xbe119036	-0.14215168
158	0xbba2374f	-0.004950441
159	0xbe0620c0	-0.1309843
160	0xbd76c80b	-0.06024937
161	0x3c7e9f29	0.015540876
162	0xbe50e320	-0.20399141
163	0xbe1dcef2	-0.15410975
164	0xb9ed0475	-0.00045207483
165	0x3e47d7c3	0.195159
166	0xbdd77e76	-0.105221674
167	0x3dc6d0b7	0.09707778
168	0xbe3417b8	-0.17587173
169	0xbc747cf1	-0.0149223665
170	0x3d8b30df	0.06796431
171	0xbda04c83	-0.078270935
172	0x3e268d14	0.16264755
173	0x3d48675c	0.048926696
174	0xbe10c4a1	-0.14137508
175	0x3e0dfd15	0.13866074
176	0xbdba87f3	-0.091079615
177	0xbc893c62	-0.016752426
178	0x3d0c1f63	0.03420962
179	0xbe3527f1	-0.17691018
180	0xbb1aaf3f	-0.002360299
181	0xbc0becd4	-0.008540351
182	0x3dd64a44	0.10463384
183	0x3c46b695	0.012128492
184	0x3e06db69	0.13169636
185	0x3e085062	0.13311914
186	0xbdffe7c4	-0.12495378
187	0xbde7d302	-0.113195434
188	0xbe1fbb84	-0.15598875
189	0x3df02e73	0.117276095
190	0x3e330021	0.17480518
191	0x3d45be53	0.04827721
192	0xbdc6636b	-0.09686931
193	0xbcdfb48b	-0.02730777
194	0xbdade39e	-0.0849068
195	0xbdbd1d0c	-0.09234056
196	0xbdf9596f	-0.12175261
197	0xbd4dba38	-0.05022642
198	0xbdbcf637	-0.09226649
199	0xbcdd45b9	-0.027010785
200	0x3c89d95d	0.01682728
201	0x3de6df9f	0.11273121
202	0xbd989636	-0.074505255
203	0xbdf33fc5	-0.118773974
204	0xbdd83bcb	-0.105582796
205	0x3e0b2a3a	0.13590327
206	0xbd89f00a	-0.06735237
207	0x3e04f9e3	0.12985949
208	0x3dd40f2c	0.10354456
209	0xbc893ffa	-0.01675414
210	0x3d6ecf3f	0.058303114
211	0xbc0d0d8a	-0.008609185
212	0x3d1f554b	0.0388997
213	0xbd903632	-0.07041587
214	0x3c241930	0.010015771
215	0x3d523242	0.05131746
216	0xbe2b7706	-0.16744623
217	0xbe0a9918	-0.13534963
218	0x3e4f16c5	0.2022353
219	0xbdd6b612	-0.10483946
220	0xbb33313a	-0.0027342574
221	0x3e1f5b61	0.15562202
222	0x3d166b01	0.03672314
223	0x3d6d4b5c	0.057933196
224	0xbe0afc35	-0.13572772
225	0x3df37278	0.118870676
226	0xbe1285f0	-0.14308906
227	0x3b46c4c5	0.0030329686
228	0xbd038c37	-0.03211614
229	0x3e51cbf8	0.20487964
230	0xbd904786	-0.07044892
231	0x3e405e7c	0.18786043
232	0x3c40f794	0.011777777
233	0x3ddd3560	0.10801196
234	0x3d5948c6	0.053047918
235	0xbe0dee7e	-0.13860509
236	0x3da298fa	0.07939334
237	0xbd9d319c	-0.07675478
238	0xbd6893b6	-0.056781493
239	0x3d13a72f	0.03604811
240	0xbd6a4ed2	-0.057204075
241	0x3e17e886	0.14834794
242	0xbe258b4e	-0.16166422
243	0x3ce58984	0.028019674
244	0x3d4c150a	0.049824752
245	0xbdf73887	-0.120713286
246	0x3e1a29cb	0.15055005
247	0xbddc3023	-0.10751369
248	0xbca24f99	-0.019813346
249	0xbc97fa83	-0.01855207
250	0xbe051a39	-0.12998284
251	0xbdb7893c	-0.08961722
252	0x3da0aada	0.07845087
253	0xbdb65859	-0.0890357
254	0xbd94a1d2	-0.07257427
255	0xbe1695eb	-0.14705627

module.0.module.0.2.bias f4 [32]
0	0x3af90764	0.0018999395
1	0xbe163f7f	-0.1467266
2	0xbde3be21	-0.111202486
3	0x3dd4c59a	0.10389252
4	0xbd969596	-0.0735275
5	0x3de17501	0.11008645
6	0x3e17f28e	0.14838621
7	0x3d186d9e	0.037213914
8	0xbc0e4eea	-0.008685807
9	0xbd8c3d2a	-0.068476036
10	0xbcb86b05	-0.022511968
11	0x3c9e21ee	0.019303288
12	0xbe052420	-0.13002062
13	0xbd1c3e7f	-0.03814554
14	0xbdc45caa	-0.09587987
15	0x3db466b6	0.08808653
16	0xbdbf7afe	-0.09349631
17	0x3dee5898	0.11637992
18	0xbbebe009	-0.007198338
19	0xbdf1330f	-0.11777317
20	0x3da15385	0.07877258
21	0x3c6a912e	0.01431684
22	0x3da0ff85	0.078612365
23	0x3d5c18c8	0.05373457
24	0xbe1d9a03	-0.15390782
25	0x3dde48cf	0.10853731
26	0xbcc66789	-0.024219291
27	0xbda276b9	-0.07932801
28	0x3e05d68b	0.13070123
29	0x3dd918a2	0.106004015
30	0xbe5b27a2	-0.21401837
31	0xbd0450cb	-0.032303613

module.0.module.0.4.weight f4 [32, 32]
0	0x3e704910	0.23465371
1	0x3e2363b9	0.1595601
2	0x3e1ec4c7	0.15504752
3	0x3d38681e	0.04502117
4	0xbdf0ac97	-0.11751669
5	0x3e5973eb	0.21235625
6	0x3d9b3425	0.07578305
7	0x3e85fbd8	0.26168704
8	0xbd045bb7	-0.03231403
9	0xbe1d91b8	-0.15387619
10	0xbd7346f8	-0.059393853
11	0xbdbc2972	-0.091875926
12	0x38d7b72c	0.00010286117
13	0x3d9946f4	0.07484236
14	0xbd2f8d9b	-0.042859655
15	0x3d2f7c5b	0.042843204
16	0xbcd1ad83	-0.025595432
17	0xbcd340bd	-0.025787706
18	0x3e0ece30	0.13945842
19	0xbe9c5b63	-0.30538473
20	0xbd79b12e	-0.060959987
21	0x3bb20c6b	0.0054336092
22	0x3e5659e1	0.20932724
23	0xbdcf1b27	-0.10112601
24	0xbd011e70	-0.031523168
25	0xbdbd8f89	-0.09255893
26	0x3de55131	0.11197127
27	0x3c7e8609	0.015534886
28	0x3b851c8f	0.0040622423
29	0x3d30b69d	0.043142904
30	0x3dc5ae07	0.09652334
31	0xbd470023	-0.048584115
32	0x3d884b7c	0.066550225
33	0xbd05492f	-0.032540496
34	0xbd81b7c7	-0.06333881
35	0x3e768a1d	0.24076124
36	0xbcf85c0a	-0.030317325
37	0x3e1cb271	0.15302445
38	0xbd11f193	-0.035630774
39	0x3d143528	0.036183506
40	0x3d34a0a4	0.04409851
41	0xbe4fe160	-0.20300817
42	0xbcfef765	-0.031123826
43	0x3c8a52a8	0.016885117
44	0xbc62a9bd	-0.013834414
45	0xbe126570	-0.14296508
46	0x3e075b7b	0.13218491
47	0x3e3a8a45	0.18216808
48	0xbe934e94	-0.28770888
49	0x3e41c1d6	0.18921599
50	0xbe31b843	-0.17355447
51	0xbea20123	-0.31641492
52	0x3df9bb31	0.12193907
53	0xbd226029	-0.039642487
54	0xbd1ded9e	-0.038556688
55	0xbe85379c	-0.2601899
56	0xbd4c1b54	-0.04983075
57	0x3c72338a	0.014782796
58	0xbdd63d6c	-0.10460934
59	0xbe2b7ae0	-0.16746092
60	0xbbff0ccf	-0.0077835093
61	0xbe846706	-0.2585985
62	0xbe1c4683	-0.15261273
63	0xbe27e037	-0.16394125
64	0xbcc92b73	-0.024556851
65	0xbe0338ab	-0.12814586
66	0xbd99ed6b	-0.07515987
67	0x3d4f9518	0.050679296
68	0xbe1b9041	-0.15191747
69	0xbcb7c000	-0.02243042
70	0xbdf8c592	-0.121470585
71	0xbdc76715	-0.09736458
72	0x3cc2109d	0.023689562
73	0xbdcddfd6	-0.10052459
74	0xbde45dd8	-0.11150712
75	0x3db52c10	0.08846295
76	0x3df4005e	0.119141325
77	0x3dfaf0d1	0.12252963
78	0xbd5cd706	-0.053916
79	0xbdc016e2	-0.093793646
80	0xbd88d853	-0.066818856
81	0x3b23803a	0.0024948255
82	0x3d9ba44a	0.07599695
83	0xbe562024	-0.20910698
84	0xbcc5c3ee	-0.024141278
85	0x3d12d4b5	0.035847384
86	0xbdb265d8	-0.087108314
87	0xbdab461e	-0.08362983
88	0x3df98f2a	0.121855095
89	0xbe6f60db	-0.23376791
90	0x3da6a305	0.08136562
91	0xbdf8c05a	-0.12146063
92	0x3dac0765	0.08399848
93	0xbe753d78	-0.2394923
94	0x3e16d6ec	0.14730424
95	0xbe50da7f	-0.2039585
96	0xbe397161	-0.18109657
97	0xbd53c46d	-0.051700998
98	0x3dbc789a	0.092026904
99	0xbe61cf33	-0.22051696
100	0xbdd1b1d4	-0.10238996
101	0x3e0e1105	0.1387368
102	0xbcc29389	-0.02375199
103	0x3cbd01a2	0.023072068
104	0xbe172a95	-0.14762338
105	0xbd7d3d54	-0.061826065
106	0xbdf7d6b6	-0.121015
107	0x3e1bfdeb	0.15233581
108	0xbc4bf90d	-0.012449515
109	0xbd6e3609	-0.058157
110	0x3d350ea8	0.04420343
111	0xbc2a3d7f	-0.010390638
112	0x3c9b5b93	0.018964564
113	0xbe04bc27	-0.129624
114	0x3b7a9daf	0.003824096
115	0x3e5ca1d8	0.21546113
116	0xbe0b9f94	-0.13635093
117	0xbdce44e1	-0.10071731
118	0xbd76bb99	-0.0602375
119	0x3cdec0c7	0.027191533
120	0x3c4439f2	0.011976706
121	0x3d768163	0.060181987
122	0xbdcd4010	-0.100219846
123	0xbdf65f7d	-0.12029932
124	0xbd18b02c	-0.037277386
125	0x3d4ad258	0.049517006
126	0x3dd2ae4f	0.10287153
127	0xbde6f6cf	-0.11277544
128	0xbe44d4ef	-0.19221853
129	0xbe6c24bc	-0.23060888
130	0xbdb63321	-0.08896471
131	0x3bb15f62	0.005412982
132	0x3de03678	0.10947889
133	0xbe2ee120	-0.17078066
134	0x3c508b28	0.01272849
135	0x3c9565c5	0.018237004
136	0x3d81b034	0.06332436
137	0x3e40a76f	0.18813871
138	0xbd42ac32	-0.0475275
139	0xbe27e621	-0.16396381
140	0x3d57aef8	0.052657098
141	0x3d888894	0.06666675
142	0x3dd1f1b6	0.10251181
143	0xbda4f62b	-0.08054765
144	0x3e6908f1	0.22757317
145	0x3da581b9	0.08081383
146	0x3e6e8b09	0.23295225
147	0xbc29df70	-0.010368213
148	0xbe2e5e1d	-0.17028089
149	0xbd3a20a7	-0.045441296
150	0xbddf33a1	-0.10898519
151	0x3e7e5e67	0.24840699
152	0xbd7aa974	-0.06119676
153	0xbd86f529	-0.06589729
154	0xbe2cc90b	-0.16873567
155	0xbdd67d51	-0.10473121
156	0x3d521ab8	0.051295012
157	0x3c74fe51	0.014953212
158	0xbe5845eb	-0.21120422
159	0xbd9f6bf5	-0.07784263
160	0x3ce1be5b	0.027556589
161	0x3ced9fd1	0.02900687
162	0xbe0c2ed5	-0.1368974
163	0xbd394ad1	-0.045237366
164	0x3db1402c	0.08654818
165	0x3cbe80fa	0.02325486
166	0xbd200481	-0.039066795
167	0xbd410a4d	-0.047128964
168	0xbcbf58f1	-0.02335784
169	0x3dc60a4e	0.09669934
170	0xbe1bd735	-0.15218814
171	0x3d4fe28a	0.050753154
172	0x3d206f20	0.039168477
173	0xbc201423	-0.009770426
174	0x3e169694	0.14705878
175	0x3e1deb2e	0.15421745
176	0x3d4bbb9b	0.04973946
177	0xbdd896fa	-0.105756715
178	0x3e0b4f21	0.13604404
179	0xbd0fba58	-0.03508982
180	0x3d279f7b	0.040923577
181	0x3db42de6	0.08797817
182	0x3dd560d7	0.10418861
183	0xbdda6d0b	-0.106653295
184	0xbe48b0d1	-0.195987
185	0x3df93400	0.12168121
186	0x3bda0fae	0.006654701
187	0xbe2e4147	-0.17017089
188	0xbdd54314	-0.10413185
189	0xbd2d6d81	-0.04234076
190	0xbe1f540b	-0.15559404
191	0xba3b1de0	-0.00071379356
192	0x3e3b0229	0.18262543
193	0x3c8f7a8d	0.017514491
194	0x3e1f650a	0.15565887
195	0x3e8541b8	0.26026702
196	0x3dd74f13	0.10513129
197	0xbe2836d5	-0.16427167
198	0x3d8d6afd	0.06905172
199	0x3df8d364	0.121496946
200	0x3dee1a4f	0.11626112
201	0xbe30a658	-0.17250955
202	0x3df27ce4	0.11840227
203	0x3e330156	0.17480978
204	0xbdc937e4	-0.098251134
205	0xbd76f59f	-0.060292836
206	0x3e1cdd33	0.15318756
207	0xbe06467c	-0.13112825
208	0xbd170b25	-0.036875863
209	0x3ddd584e	0.108078584
210	0xbcc33f9c	-0.023834042
211	0x3dab0833	0.08351173
212	0x3e312248	0.17298234
213	0x3db8f9a7	0.090319924
214	0xbc94970d	-0.018138433
215	0x3dedb5fe	0.11606978
216	0xbe06c099	-0.13159408
217	0xbe28cd34	-0.16484529
218	0x3cd15b82	0.02555633
219	0xbd1be2b5	-0.038058
220	0x3e25d26e	0.16193554
221	0xbd35298a	-0.044229068
222	0x3e2482ce	0.16065523
223	0x3d5f513a	0.054520823
224	0xbda5e6f0	-0.081006885
225	0xbcec33ce	-0.028833296
226	0x3d6cf53b	0.057851057
227	0x3d95b248	0.07309395
228	0x3ded52c5	0.11588053
229	0xbda6c438	-0.081428945
230	0xbd9fc0c6	-0.078004405
231	0x3e1419ed	0.14463015
232	0xbd18a076	-0.037262402
233	0xbe2593a7	-0.16169606
234	0x3e10a8c3	0.14126877
235	0x3dcccc97	0.0999996
236	0x3b026454	0.0019896226
237	0xbdd38e82	-0.103299156
238	0xbdc42a99	-0.09578437
239	0xbdec09f3	-0.11525335
240	0x3d8ceae6	0.06880741
241	0xbd92ceb4	-0.07168332
242	0x3e038838	0.12844932
243	0xbe4e947a	-0.20173827
244	0xbcdf0474	-0.027223803
245	0x3c873f72	0.016509745
246	0x3cb3910d	0.021919752
247	0x3dd38bb1	0.103293784
248	0x3e1483f8	0.14503467
249	0x3d35007c	0.044189915
250	0xbcecbac3	-0.028897649
251	0xbdadd01a	-0.08486958
252	0xbda63d74	-0.0811719
253	0xbd5b187a	-0.05349014
254	0x3e343312	0.17597607
255	0xbdc73edd	-0.09728787

module.0.module.0.4.bias f4 [32]
0	0xbd2a5980	-0.04158926
1	0xbde0f787	-0.10984712
2	0xbe4c73ad	-0.19966002
3	0x3e403999	0.18771972
4	0x3d0d40f1	0.03448576
5	0x3d1e3254	0.038622215
6	0xbe1c1141	-0.15240957
7	0x3dd97f81	0.106200226
8	0xbe374885	-0.17898758
9	0xbdd0e24f	-0.10199415
10	0xbe22c6dc	-0.15896171
11	0xbd835473	-0.06412592
12	0x3dd9c407	0.106330924
13	0xbd8602ca	-0.06543501
14	0xbbc760d7	-0.0060845423
15	0xbcff17e9	-0.031139331
16	0x3c7d6e47	0.015468187
17	0x3d02d6ce	0.031943135
18	0xbdefd7a4	-0.11711052
19	0x3de0a85f	0.10969614
20	0xbdfb78f3	-0.122789286
21	0x3d56982e	0.052391224
22	0xbcf6604a	-0.030075211
23	0xbd046062	-0.03231848
24	0x3df2f92e	0.118639335
25	0x3dd581f2	0.10425176
26	0x3d9def05	0.07711605
27	0xbd15760a	-0.036489524
28	0x3d53629e	0.05160772
29	0x3dd924c8	0.106027186
30	0x3d274736	0.040839396
31	0xbdd28081	-0.102784164

module.0.module.0.6.weight f4 [2, 32]
0	0x3d3a88b9	0.045540545
1	0x3e597992	0.21237782
2	0x3cb5d83e	0.022197839
3	0xbd0d0d41	-0.034436468
4	0xbe1f3a78	-0.15549648
5	0xbd0c8d3a	-0.03431437
6	0x3e03b8f6	0.12863526
7	0x3c1d4ec9	0.009601303
8	0x3b965a6c	0.004588416
9	0x3d6fae7d	0.058516014
10	0xbe135d71	-0.14391114
11	0xbc123f31	-0.008926199
12	0xbe010551	-0.12599684
13	0x3d843a8c	0.064564794
14	0x3e2e6cc9	0.17033686
15	0x3e0b04cf	0.13576053
16	0x3e17dfd8	0.14831483
17	0xbe33b3d9	-0.17549075
18	0xbdd2bd17	-0.10289972
19	0x3de7cb1c	0.11318037
20	0xbe4fd629	-0.2029654
21	0x3d77d1d7	0.060502853
22	0xbe3852e9	-0.18000378
23	0x3de611c3	0.112338565
24	0x3e18ff4e	0.14941141
25	0xbdd1fcd3	-0.102533005
26	0x3e032a5e	0.1280913
27	0x3e05c790	0.13064408
28	0xbd319717	-0.04335698
29	0x3e1bfbe1	0.15232803
30	0xbe51a471	-0.20472886
31	0xbda7c7f3	-0.08192434
32	0xba804f85	-0.0009789324
33	0x3d864b0c	0.06557283
34	0x3dbeca6f	0.09315955
35	0xbdb243b5	-0.0870432
36	0xbe395b7a	-0.18101302
37	0xbdb2eb13	-0.08736243
38	0x3e40b101	0.18817522
39	0xbd0d7ea7	-0.034544613
40	0x3e1d5df4	0.15367872
41	0x3d902bc3	0.07039597
42	0x3dd6ffbc	0.10497996
43	0xbdea4d91	-0.11440576
44	0xbcc7d146	-0.024391782
45	0xbdee7e1a	-0.11645146
46	0xbd24c58a	-0.04022745
47	0x3c86dfff	0.016464232
48	0x3e0c0a70	0.13675857
49	0x3d2339d0	0.039850056
50	0x3cbb5793	0.022868907
51	0xbc87ee9e	-0.016593274
52	0xbdaa45bd	-0.08314083
53	0xbd9d624e	-0.07684766
54	0x3b59a644	0.0033210674
55	0x3ce7afe9	0.028282123
56	0xbd0fb972	-0.035088964
57	0x3c7eaa93	0.015543598
58	0xbda20a5f	-0.079121344
59	0x3c81f882	0.015865568
60	0x3e049ada	0.12949696
61	0xbcdaf634	-0.026728727
62	0xbd7c6ae2	-0.06162537
63	0x3e1ba550	0.1519978

module.0.module.0.6.bias f4 [2]
0	0x3dd2acdf	0.10286879
1	0xbdfd6629	-0.12373001
