full_project/controllers/custom_controllers_dev/robot_supervisor_controller_original/best_model.pth (torch, 140070 bytes, 12 tensors)

fc.0.weight f4 [128, 4]
-0.31510562 -0.38471437 -0.036085557 0.4828025 0.19513398 0.0413218 0.28486806 0.17469268
0.3192907 0.38313386 0.8204299 0.6393137 -0.2962362 -0.10501032 -0.011266432 -0.48952404
0.19595319 0.26253578 -0.15861294 0.24353968 0.30440652 -0.4739251 0.26639643 -0.10459044
-0.041767813 0.34317452 0.8082819 -0.26118913 -0.23807918 0.011761659 -0.13511571 0.3306179
0.0324321 0.24360873 0.867084 0.6105862 0.23108865 0.11416091 0.073254354 0.18877299
0.14796391 0.14964825 0.28393522 0.037349712 -0.16613397 -0.26727915 -0.31149483 -0.6248544
-0.20180677 -0.25666404 0.58656883 0.39907148 0.6481258 0.023930173 -0.27587625 -0.55271465
-0.34615725 0.1082379 0.027113186 -0.3396109 0.41453236 0.4234064 -0.74807596 -0.06622526
0.56051725 0.33327508 -0.54172534 -0.4640051 0.09062165 -0.24234469 -0.12369488 -0.28987145
0.30828905 0.45096052 -0.1701633 -0.35327503 0.15331565 0.043444525 0.59615654 0.12584274
-0.007987589 -0.041244566 0.43943542 -0.07028887 0.09252316 0.32886603 -0.23000038 0.24188845
-0.634761 0.23779574 0.30311903 -0.38168845 0.07176607 -0.050814155 -0.2809788 0.15528637
0.10999967 -0.24340309 -0.052614562 0.006141142 -0.25415632 -0.36246067 0.21378593 -0.13367322
-0.4665315 0.27090526 0.32579482 -0.36774737 0.33194625 -0.20323433 -0.15542924 0.049234707
-0.0056030154 0.30684707 0.02319139 0.12517618 -0.4197114 0.03505703 -0.069268785 0.17881185
-0.14098267 0.12989768 0.37219504 -0.2969642 0.2189248 -0.16612686 0.060937263 -0.12445394
-0.14333335 0.28896713 -0.48882893 0.19487268 -0.47532547 0.1614131 0.105301134 -0.07111404
0.2922695 -0.1157965 -0.15423852 0.17382587 0.4114091 0.30289495 0.66681707 0.4369709
-0.45126057 -0.2049969 -0.43503833 0.21740048 0.0024992926 0.16217147 0.44197994 0.5213656
-0.6295067 0.24403583 -0.11349245 -0.20271754 0.48355392 -0.4004833 0.330535 0.05698501
-0.14124127 0.30158907 0.52618605 0.41197878 -0.5956421 0.22635517 -0.6488268 -0.3817442
-0.3310272 -0.12570098 0.4647256 -0.3423171 0.7387382 0.33442795 -0.62446904 -0.09158553
-0.44490033 0.19795498 0.667572 0.4054565 0.50419444 0.49064153 0.05525225 -0.3096033
0.22914517 0.16616859 0.60390705 0.076461315 -0.5011234 0.2677476 0.38429806 -0.28451806
-0.4327988 -0.4499277 0.2681331 -0.0035922527 0.66439945 -0.5082824 -0.36575845 -0.5783589
-0.21469077 -0.2689106 0.39253902 -0.027368024 0.2630939 -0.2741515 -0.14812711 -0.13821429
0.5921391 0.5549176 0.2921888 -0.004108798 0.50219566 0.2283457 -0.7931178 0.07930455
-0.4609841 0.25219002 0.05952588 -0.20030798 -0.015172553 -0.29937983 -0.69500756 -0.5759673
0.14533572 -0.24230874 -0.19963239 0.27218372 -0.3433426 0.4833856 0.49545166 0.3457715
-0.02698885 -0.41962907 0.08485964 -0.24306336 0.5571692 -0.30111024 -1.0072868 -0.64259845
0.10540846 0.08704709 -0.9794771 -0.46964273 0.20017022 0.22736038 0.055916224 0.58840734
-0.16884024 -0.2888839 -0.07244062 0.3445091 0.29891568 0.3547943 -0.46041176 -0.44098097
00000000: 8655 a1be 48f9 c4be 73ce 13bd e431 f73e
00000010: 34d1 473e 0c41 293d 3ada 913e a3e2 323e
00000020: 127a a33e 1f2a c43e b207 523f 10aa 233f
00000030: 45ac 97be a70f d7bd d796 38bc e5a2 fabe
00000040: f4a7 483e 176b 863e 6e6b 22be 7762 793e
00000050: 2cdb 9b3e 50a6 f2be 1d65 883e 8333 d6bd
00000060: ba14 2bbd 92b4 af3e 90eb 4e3f 95ba 85be
00000070: 07cb 73be f9b3 403c c65b 0abe c046 a93e
00000080: 86d7 043d 9174 793e 38f9 5d3f 614f 1c3f
00000090: 81a2 6c3e 32cd e93d 6106 963d b54d 413e
000000a0: da83 173e 643d 193e f55f 913e 03fc 183d
000000b0: 061f 2abe d0d8 88be 407c 9fbe 75f6 1fbf
000000c0: 6fa6 4ebe 7869 83be 6029 163f 1953 cc3e
000000d0: 93eb 253f 3609 c43c a73f 8dbe b57e 0dbf
000000e0: 863b b1be d5ab dd3d 791c de3c 7be1 adbe
000000f0: 963d d43e b9c8 d83e e881 3fbf 1ca1 87bd
00000100: 0f7e 0f3f 08a3 aa3e 83ae 0abf 1492 edbe
00000110: d897 b93d 3529 78be be53 fdbd 086a 94be
00000120: 10d8 9d3e 4ce4 e63e 4a3f 2ebe 77e0 b4be
00000130: c7fe 1c3e e3f2 313d b79d 183f ebdc 003e
00000140: 60de 02bc 10f0 28bd aefd e03e 9cf3 8fbd
00000150: c87c bd3d 2161 a83e 3885 6bbe 9bb1 773e
00000160: b27f 22bf ba80 733e 6b32 9b3e ab6c c3be
00000170: 17fa 923d 8122 50bd 74dc 8fbe 6403 1f3e
00000180: 8247 e13d a93e 79be 5e82 57bd a23b c93b
00000190: c720 82be 7294 b9be b3ea 5a3e a2e1 08be
000001a0: 37dd eebe 18b4 8a3e 94ce a63e 6249 bcbe
000001b0: dcf4 a93e a91c 50be d828 1fbe 55aa 493d
000001c0: 8099 b7bb 0f1b 9d3e dffb bd3c 2f2e 003e
000001d0: 6ae4 d6be f697 0f3d cbdc 8dbd 741a 373e
000001e0: c35d 10be e603 053e 5990 be3e b10b 98be
000001f0: d32d 603e 291d 2abe 5a99 793d b5e1 febd
00000200: fac5 12be 80f3 933e c947 fabe b48c 473e
00000210: dc5d f3be 7a49 253e 1fa8 d73d 3da4 91bd
00000220: 59a4 953e b726 edbd b4f0 1dbe 69ff 313e
00000230: 37a4 d23e 0c15 9b3e 86b4 2a3f a6ba df3e
00000240: a00b e7be b5ea 51be 58bd debe 3b9e 5e3e
00000250: 2ccb 233b 4710 263e 324b e23e 3778 053f
00000260: 5a27 21bf 87e4 793e bb6e e8bd 3095 4fbe
00000270: 6194 f73e 260c cdbe e23b a93e 1d69 693d
00000280: 8da1 10be e269 9a3e 21b4 063f e2ee d23e
00000290: 007c 18bf a6c9 673e 8319 26bf fa73 c3be
000002a0: 667c a9be c2b7 00be 84f0 ed3e 3044 afbe
000002b0: f21d 3d3f 243a ab3e 34dd 1fbf 3291 bbbd
000002c0: fac9 e3be b6b4 4a3e 00e6 2a3f ff97 cf3e
000002d0: e312 013f 5e35 fb3e 2f50 623d 5384 9ebe
000002e0: 08a5 6a3e 1928 2a3e a799 1a3f c097 9c3d
000002f0: a049 00bf 3716 893e b7c2 c43e 5aac 91be
00000300: ce97 ddbe ec5c e6be be48 893e 006c 6bbb
00000310: 1516 2a3f cc1e 02bf b144 bbbe 540f 14bf
00000320: e6d7 5bbe a6ae 89be e0fa c83e e832 e0bc
00000330: 3eb4 863e 965d 8cbe a2ae 17be 0c88 0dbe
00000340: 6e96 173f 140f 0e3f c599 953e 19a3 86bb
00000350: e58f 003f 75d3 693e c509 4bbf 6d6a a23d
00000360: 1c06 ecbe 0d1f 813e 69d1 733d 891d 4dbe
00000370: 4d96 78bc 5048 99be 04ec 31bf 9872 13bf
00000380: e3d2 143e c81f 78be 6f6c 4cbe aa5b 8b3e
00000390: 9aca afbe 517e f73e d7ab fd3e f608 b13e
000003a0: b917 ddbc 9fd9 d6be e4ca ad3d 9ae5 78be
000003b0: a4a2 0e3f 1f2b 9abe c6ee 80bf 5581 24bf
000003c0: 64e0 d73d bf45 b23d 03bf 7abf 0375 f0be
000003d0: 6cf9 4c3e 29d1 683e 6908 653d dda1 163f
000003e0: 75e4 2cbe 97e8 93be bf5b 94bd 7f63 b03e
000003f0: 7a0b 993e 99a7 b53e 17bb ebbe 42c8 e1be

fc.0.bias f4 [128]
0.59345675 0.55561095 -0.097861856 0.048399307 0.64243776 -0.1984128 0.4605306 0.27878568
-0.14126405 0.3552522 0.26539811 -0.1343386 0.6115043 0.006104773 0.7085941 -0.062027995
-0.13621998 0.6482806 0.048095938 0.44572568 -0.3020246 0.2648437 0.60001475 -0.13443619
0.5266663 0.4878153 0.53851926 0.40047708 -0.36882564 0.22263141 0.64144915 0.19709638
-0.311147 0.22971773 0.2544073 -0.12456248 -0.13509193 -0.12589072 0.5905265 0.17069678
-0.052317116 0.25564003 -0.4301181 -0.06804993 0.48220614 -0.1633975 0.2978912 0.70606095
-0.13594599 -0.019611228 0.58491933 -0.48099616 -0.33678344 0.025297355 0.38438702 0.028433744
-0.2730942 0.53054595 0.2934532 0.029666554 0.065189585 -0.1827396 -0.37526757 -0.043718982
0.5120727 0.4133166 0.08482411 0.5934354 -0.045558337 -0.20561756 0.6260841 -0.27086926
0.49712533 0.19108774 0.0898376 0.41871318 0.4480276 0.43350902 0.4986906 -0.049465325
-0.31543416 0.5140542 -0.19534911 -0.362322 0.48373294 0.5235605 0.32573748 -0.32777745
-0.17065996 0.2947768 0.24270709 -0.32113728 0.6436997 -0.22227374 0.060770676 -0.13896008
-0.099456966 0.12613 0.4776539 0.43599454 0.42934346 0.1405299 -0.05784493 0.4505814
0.22635747 -0.043784395 -0.3545773 0.040212255 -0.13542 -0.1842933 -0.28649518 0.61183363
0.18308608 0.6524646 0.2012905 0.2300554 -0.24791946 -0.21382692 -0.3552673 0.613469
-0.36285672 0.5394697 0.6768941 0.5003996 0.5641846 -0.06048325 -0.22701864 0.21989769
00000000: c8ec 173f 853c 0e3f cc6b c8bd 5a3e 463d
00000010: cd76 243f ba2c 4bbe abca eb3e ffbc 8e3e
00000020: 86a7 10be 9ee3 b53e 43e2 873e 0f90 09be
00000030: 8c8b 1c3f 8c0a c83b 6c66 353f 1111 7ebd
00000040: 407d 0bbe b8f5 253f 3f00 453d 2836 e43e
00000050: f8a2 9abe 9899 873e 919a 193f a4a9 09be
00000060: 9ad3 063f edc2 f93e 66dc 093f 550b cd3e
00000070: b7d6 bcbe 7df9 633e 0336 243f a2d3 493e
00000080: a94e 9fbe 203b 6b3e ac41 823e 9d1a ffbd
00000090: 8a55 0abe 7fe9 00be bf2c 173f 23cb 2e3e
000000a0: 794a 56bd 40e3 823e 7138 dcbe c35d 8bbd
000000b0: b9e3 f63e ad51 27be 3285 983e 69c0 343f
000000c0: 6d35 0bbe baa7 a0bc 46bd 153f 2145 f6be
000000d0: e16e acbe 663c cf3c 60ce c43e e2ed e83c
000000e0: 01d3 8bbe dcd1 073f 7f3f 963e 4607 f33c
000000f0: 1e82 853d 1720 3bbe 1223 c0be ad12 33bd
00000100: 3217 033f 3c9e d33e 43b8 ad3d 62eb 173f
00000110: 619b 3abd 698d 52be 0c47 203f 60af 8abe
00000120: 3687 fe3e 81ac 433e c7fc b73d 9361 d63e
00000130: e063 e53e e5f4 dd3e 6054 ff3e 279c 4abd
00000140: 9680 a1be 0e99 033f 9909 48be 4582 b9be
00000150: d8ab f73e 1008 063f 10c7 a63e 72d2 a7be
00000160: 7cc1 2ebe fcec 963e 3588 783e 1b6c a4be
00000170: 81c9 243f ba9b 63be acea 783d 8d4b 0ebe
00000180: 18b0 cbbd 3928 013e 0d8f f43e ad3a df3e
00000190: e8d2 db3e 12e7 0f3e ceee 6cbd 9bb2 e63e
000001a0: 41ca 673e 4457 33bd 288b b5be 9bb5 243d
000001b0: 8aab 0abe 62b7 3cbe 7faf 92be 21a1 1c3f
000001c0: eb7a 3b3e ec07 273f 191f 4e3e a593 6b3e
000001d0: 99de 7dbe 72f5 5abe 98e5 b5be 4e0c 1d3f
000001e0: 5bc8 b9be b01a 0a3f ef48 2d3f 301a 003f
000001f0: 676e 103f 49bd 77bd 9377 68be dc2c 613e

fc.2.weight f4 [256, 128]
0.14891465 0.18585236 -0.22462687 -0.117715076 0.16200633 0.15407269 0.22623539 0.08384218
-0.25628853 0.21577714 0.2140732 -0.1844863 0.18138555 -0.06743526 0.17825238 -0.1934792
-0.030805256 0.11057418 0.05664167 0.11407439 -0.02412574 0.20588458 0.0834283 -0.02561198
0.10473927 0.120677575 0.04126975 0.14295684 0.034766704 -0.0042699655 0.1632711 0.04282829
0.019840786 0.10336835 0.033941854 -0.3308784 -0.037545793 -0.14623494 0.1640131 0.14968617
-0.22693391 -0.036056537 -0.16879901 -0.20565432 0.114942715 0.043520704 0.23842908 0.1520873
-0.009043007 -0.28038692 0.18276858 0.07866093 -0.12132923 -0.06920684 0.014382019 -0.28433207
-0.07410829 0.2742949 0.047235038 -0.19828217 -0.1706083 -0.22339289 -0.0826014 -0.053828206
0.2498786 0.21897024 0.07073465 0.20530078 -0.31863484 -0.023450395 0.13807765 -0.03512296
0.17458922 0.2317566 -0.015734531 0.2923034 0.087227054 0.19924642 0.16065986 -0.4582799
-0.0076927007 0.122002274 -0.31774917 -0.22258662 0.17967889 0.1999741 0.03680499 0.08944466
-0.023703137 0.058584455 -0.0017020495 -0.04837519 0.19239189 -0.081101894 -0.21730334 -0.014617736
-0.28253013 -0.058229618 0.12568155 0.19490522 0.15231852 0.10688251 -0.16066669 0.21840307
-0.013545627 -0.20405026 -0.13766024 0.1053755 0.016893908 -0.14423698 -0.0979255 0.20042148
0.043251872 0.24598125 0.14099787 0.13441089 -0.06839018 -0.08807396 -0.14277609 0.23379084
-0.092272244 0.097258076 0.11198606 0.20881093 0.17674221 0.07267087 -0.09514223 -0.073954046
0.12537524 0.11523963 -0.2010447 -0.05895027 0.095737495 0.21109061 0.072920665 0.15727066
-0.15472145 0.15412559 0.17192301 -0.13937141 0.121718146 -0.044641193 0.107712686 -0.13872212
-0.05567285 0.15204966 0.07397519 0.15583211 0.042859465 0.1624357 0.06423208 0.06364733
0.2367634 0.1394793 0.016476085 0.14138213 0.0573493 0.0894578 0.13626435 0.04523894
-0.0022972457 0.10385838 0.05397625 -0.40540054 -0.08259512 -0.20097055 0.11074415 0.09763095
-0.23730293 -0.043591324 -0.103437096 -0.047199134 0.16289112 0.01895167 0.26714674 0.22487395
-0.10485334 -0.20292869 0.21598949 -0.042920686 -0.18746227 -0.10662375 0.10111507 -0.2359176
0.017730733 0.27389744 0.09180123 -0.15238446 -0.12653913 -0.13722478 -0.06769046 0.0071184128
0.2768446 0.23444676 0.11290933 0.26412234 -0.26019683 -0.06539256 0.25422376 0.0040966673
0.23887445 0.21993119 -0.11390623 0.27282456 0.13567646 0.22573139 0.18488029 -0.49466088
0.075823866 0.08156646 -0.36632696 -0.23030442 0.13502622 0.17511064 0.16314043 0.019229531
-0.06274202 0.1193539 -0.07120935 -0.15813057 0.081798404 -0.0035082034 -0.13980906 -0.12169826
-0.2175973 -0.00040738497 0.11267851 0.20748515 0.21026182 0.07411512 -0.12155334 0.16498333
-0.07199925 -0.30040693 -0.1363733 0.12040936 -0.03137841 -0.046261333 -0.061964057 0.23896149
-0.01428687 0.25552014 0.13125664 0.042979505 -0.06776889 -0.021025652 -0.049237717 0.17924388
-0.22775303 0.072867475 0.1464153 0.25491607 0.2555969 0.036870558 -0.0007861106 0.05330497
00000000: 157d 183e 1550 3e3e 9604 66be 9a14 f1bd
00000010: fde4 253e 3bc5 1d3e 40aa 673e 73b5 ab3d
00000020: 4038 83be aff4 5c3e 0136 5b3e fae9 3cbe
00000030: 22bd 393e 7f1b 8abd cb87 363e 691f 46be
00000040: 4e5b fcbc b774 e23d 1901 683d d59f e93d
00000050: 58a3 c5bc 68d3 523e 75dc aa3d 37d0 d1bc
00000060: 8b81 d63d ce25 f73d 780a 293d 4763 123e
00000070: 8867 0e3d 11eb 8bbb 8a30 273e b86c 2f3d
00000080: 2589 a23c c9b2 d33d 9d06 0b3d e568 a9be
00000090: 9ec9 19bd 9dbe 15be 0df3 273e 5547 193e
000000a0: 5d61 68be 05b0 13bd a6d9 2cbe 0c97 52be
000000b0: 1667 eb3d c442 323d c126 743e c6bc 1b3e
000000c0: 1f29 14bc e08e 8fbe b027 3b3e fb18 a13d
000000d0: 767b f8bd 51bc 8dbd 8fa2 6b3c f993 91be
000000e0: 16c6 97bd 6270 8c3e 8779 413d 7b0a 4bbe
000000f0: f1b3 2ebe 1bc1 64be ec2a a9bd f77a 5cbd
00000100: 2de0 7f3e bc39 603e 54dd 903d 5e3a 523e
00000110: 1b24 a3be 0b1b c0bc 3a64 0d3e 18dd 0fbd
00000120: 84c7 323e 9a51 6d3e b4e5 80bc cba8 953e
00000130: 19a4 b23d 4107 4c3e 0584 243e aaa3 eabe
00000140: 0d13 fcbb 54dc f93d 05b0 a2be bfed 63be
00000150: befd 373e 03c6 4c3e d4c0 163d c32e b73d
00000160: 152d c2bc 41f6 6f3d 4e17 dfba 1025 46bd
00000170: 6102 453e c018 a6bd c484 5ebe 3b7f 6fbc
00000180: caa7 90be 2e82 6ebd aab2 003e 3c95 473e
00000190: 63f9 1b3e 38e5 da3d cf85 24be 0ea5 5f3e
000001a0: 7aee 5dbc 8df2 50be cef6 0cbe 1ccf d73d
000001b0: 1865 8a3c dcb2 13be 2a8d c8bd 4a3b 4d3e
000001c0: e028 313d 82e2 7b3e bf61 103e 02a3 093e
000001d0: 2710 8cbd 1f60 b4bd e533 12be de66 6f3e
000001e0: 3bf9 bcbd 3e2f c73d f358 e53d 88d2 553e
000001f0: e9fb 343e 77d4 943d eed9 c2bd 3875 97bd
00000200: 5e62 003e c102 ec3d a9de 4dbe d775 71bd
00000210: 0512 c43d 2328 583e 6e57 953d 8f0b 213e
00000220: 4d6f 1ebe 19d3 1d3e 960c 303e 61b7 0ebe
00000230: 5d47 f93d afd9 36bd 7898 dc3d 2c0d 0ebe
00000240: 3709 64bd e8b2 1b3e 4e80 973d 7492 1f3e
00000250: 688d 2f3d 8b55 263e 1c8c 833d 8859 823d
00000260: 1b72 723e a9d3 0e3e dbf8 863c 7ac6 103e
00000270: 19e7 6a3d a735 b73d e288 0b3e 774c 393d
00000280: 638d 16bb b4b3 d43d 3316 5d3d a990 cfbe
00000290: a127 a9bd 39cb 4dbe d4cd e23d bcf2 c73d
000002a0: 8aff 72be d18c 32bd d4d6 d3bd e153 41bd
000002b0: eecc 263e 8840 9b3c 75c7 883e 5b45 663e
000002c0: 59bd d6bd 8acc 4fbe 592c 5d3e 9acd 2fbd
000002d0: 1cf6 3fbe 8d5d dabd 6b15 cf3d 6294 71be
000002e0: 0b40 913c 493c 8c3e 4902 bc3d ac0a 1cbe
000002f0: 7993 01be a784 0cbe 4ca1 8abd 9341 e93b
00000300: 93be 8d3e d012 703e 023d e73d 0b3b 873e
00000310: 8538 85be 89ec 85bd 9e29 823e 563d 863b
00000320: 819b 743e a435 613e ab47 e9bd a9af 8b3e
00000330: c5ee 0a3e 2126 673e 4251 3d3e 3144 fdbe
00000340: 8b49 9b3d 510c a73d 358f bbbe ecd4 6bbe
00000350: 5044 0a3e 3450 333e 490e 273e 4087 9d3c
00000360: e37e 80bd d16f f43d 35d6 91bd fbec 21be
00000370: ec85 a73d e3e9 65bb 1b2a 0fbe f03c f9bd
00000380: d4d1 5ebe 4996 d5b9 fec3 e63d fd76 543e
00000390: e04e 573e abc9 973d f5f0 f8bd 64f1 283e
000003a0: 5874 93bd f0ce 99be 71a5 0bbe 2f99 f63d
000003b0: a686 00bd 867c 3dbd 06ce 7dbd 52b2 743e
000003c0: 7a13 6abc 89d3 823e 2468 063e 470b 303d
000003d0: 6aca 8abd fd3d acbc 7dad 49bd b58b 373e
000003e0: 1738 69be 8b3b 953d e4ed 153e 5c84 823e
000003f0: 99dd 823e 9505 173d fd12 4eba 5056 5a3d

fc.2.bias f4 [256]
0.13556339 0.2590047 -0.021093009 0.19295411 -0.07615763 0.10823018 0.22812542 0.15510863
-0.0748339 0.20558365 0.19407126 0.13978165 0.18869688 -0.020801513 0.17301956 0.0018748632
0.2541458 0.070731744 -0.021458426 -0.0728974 0.2569355 0.09385261 -0.047472533 0.22329158
-0.03557143 0.20930594 -0.033771805 0.003602136 -0.012237315 0.104296215 0.09733179 0.05670559
-0.04227378 0.18890771 -0.066896036 0.16857201 -0.08203958 -0.09533494 0.020102356 0.19715059
0.17330037 0.09784863 -0.008219952 -0.07178443 0.19563717 -0.02829101 0.24936308 0.1273606
0.09499544 0.23447274 0.27011085 0.0125693185 0.17008993 0.24759318 -0.05492901 0.22311965
-0.06983494 0.23054186 0.13404408 0.19137672 0.0038596292 -0.03523713 0.23996195 0.11340901
-0.095855586 -0.042138737 -0.011781313 0.17491366 0.253742 0.15519488 0.12125775 -0.062214117
-0.07040066 -0.07533991 0.057560917 -0.060619723 0.17817202 -0.017606094 0.007208819 0.21331331
0.26104593 0.17711514 0.014757141 0.21726428 0.17742838 -0.024955245 0.045142625 0.1573363
0.18686149 0.17484707 -0.07078799 0.025201371 0.25076866 0.16810225 0.07661379 0.26952824
-0.045697052 -0.06982496 0.2577874 -0.0154667655 0.06953417 -0.02858954 -0.0022718292 0.049026616
0.04967217 0.23020081 0.19912955 0.24886356 -0.053136718 0.21988788 -0.07658781 -0.08406103
-0.08040763 0.25255764 -0.037482332 0.21210793 0.0203393 0.0013856523 -0.026302319 0.21466674
0.26528877 0.2212341 0.106691 0.007838914 -0.08034122 0.2227063 -0.035944767 0.11400953
-0.032290448 -0.08448241 -0.123435855 -0.08916744 -0.019476349 0.19694151 -0.062143136 0.0983854
0.07059125 -0.024073904 0.06344374 0.25698552 -0.058389246 0.15957253 0.26714915 0.0056867343
0.12569009 -0.04674559 0.058821745 0.11221527 0.23698404 0.058156695 0.246137 0.23387273
0.12594837 0.2094295 0.22796576 0.10684521 -0.027569957 -0.018439967 0.04070673 0.13862404
-0.017390896 0.012156078 -0.014256121 0.22887647 -0.07191398 0.15475093 0.042860117 -0.079979576
0.22006437 -0.07201693 0.10623619 0.17397436 0.08748756 0.12999341 0.06547582 0.001240404
0.0322314 -0.04161654 0.14624801 0.18146281 -0.079055846 0.022667425 0.16015713 0.18859059
0.19065444 0.071923785 0.235165 -0.10057692 0.2169594 0.20869827 0.16787729 0.18945771
-0.03420413 0.110279374 -0.013075633 0.19055729 0.12474699 0.14423881 0.23542044 -0.01758692
0.1994384 -0.086763024 0.14043902 0.2225388 0.24021181 0.010086394 -0.08302854 0.23558486
0.03545316 0.13528503 0.22449335 0.23758908 0.12367038 0.05659417 0.2149783 0.22123528
0.070673764 -0.057088513 -0.046250604 -0.03592575 -0.06687968 0.1448949 0.10176863 0.053252827
-0.020085389 -0.019658605 0.16326232 0.012285801 -0.04571301 -0.05106592 0.21697454 -0.08293408
-0.013702964 -0.01670799 -0.017983053 -0.02314083 0.024789315 0.017547196 0.016929697 -0.07557398
0.19518563 0.23267774 -0.026056489 0.13870521 -0.066443935 0.048321918 0.20750289 0.055777945
0.16378844 -0.08276491 -0.06905133 0.007538665 0.22741519 0.06582643 0.2681123 -0.0060345866
00000000: 21d1 0a3e 449c 843e 3fcb acbc c395 453e
00000010: 88f8 9bbd c9a7 dd3d b699 693e ccd4 1e3e
00000020: 8442 99bd 8584 523e 9eba 463e ec22 0f3e
00000030: c139 413e ef67 aabc 0a2c 313e f8bd f53a
00000040: 661f 823e cedb 903d 95c9 afbc 3b4b 95bd
00000050: 0d8d 833e cc35 c03d 8f72 42bd 8ca6 643e
00000060: 59b3 11bd 4c54 563e 4e54 0abd d011 6c3b
00000070: 057f 48bc 4199 d53d e455 c73d 1f44 683d
00000080: 4527 2dbd 0671 413e ca00 89bd 249e 2c3e
00000090: 5e04 a8bd f73e c3bd b2ad a43c d8e1 493e
000000a0: a775 313e dd64 c83d faac 06bc b703 93bd
000000b0: 1c55 483e 8cc2 e7bc 0959 7f3e d16a 023e
000000c0: f88c c23d 9f19 703e f84b 8a3e 8bef 4d3c
000000d0: 0e2c 2e3e 1189 7d3e 3efd 60bd 7a79 643e
000000e0: 9f05 8fbd 2a13 6c3e da42 093e 42f8 433e
000000f0: d5f1 7c3b cf54 10bd 96b8 753e fc42 e83d
00000100: ef4f c4bd ab99 2cbd 6906 41bc 911c 333e
00000110: 79ea 813e 68eb 1e3e fc55 f83d 3bd4 7ebd
00000120: 392e 90bd d04b 9abd ffc4 6b3d 634c 78bd
00000130: ba72 363e a83a 90bc f537 ec3b ce6e 5a3e
00000140: d0a7 853e ac5d 353e efc7 713c 877a 5e3e
00000150: c9af 353e f16e ccbc 79e7 383d c41c 213e
00000160: 9e58 3f3e 1c0b 333e 4bf9 90bd 1b73 ce3c
00000170: c064 803e ff22 2c3e b1e7 9c3d 9bff 893e
00000180: d52c 3bbd 6300 8fbd b6fc 833e 5168 7dbc
00000190: ee67 8e3d 9c34 eabc f8e2 14bb 22d0 483d
000001a0: 0c75 4b3d c3b9 6b3e 9ee8 4b3e 17d6 7e3e
000001b0: e3a5 59bd 4a2a 613e 12da 9cbd 3028 acbd
000001c0: c1ac a4bd 3c4f 813e 1387 19bd d232 593e
000001d0: 9b9e a63c c79e b53a f677 d7bc 99d1 5b3e
000001e0: eed3 873e 318b 623e d080 da3d ca6e 003c
000001f0: f089 a4bd 1f0d 643e d23a 13bd d47d e93d
00000200: fd42 04bd 1d05 adbd f0cb fcbd 6b9d b6bd
00000210: dd8c 9fbc 09ab 493e cd89 7ebd 497e c93d
00000220: 2592 903d a336 c5bc cbee 813d 9b93 833e
00000230: 9029 6fbd fb66 233e c6c7 883e c957 ba3b
00000240: e7b4 003e 4e78 3fbd 12ef 703d 1fd1 e53d
00000250: f2ab 723e b735 6e3d 560b 7c3e 557c 6f3e
00000260: 9cf8 003e b074 563e db6f 693e a9d1 da3d
00000270: 64da e1bc 6a0f 97bc 1abc 263d 76f3 0d3e
00000280: 5a77 8ebc 492a 473c 8192 69bc 985e 6a3e
00000290: a347 93bd 0777 1e3e 178e 2f3d 55cc a3bd
000002a0: 8e58 613e 9d7d 93bd 5c92 d93d 5626 323e
000002b0: ae2c b33d fe1c 053e 3018 863d 0d95 a23a
000002c0: 1305 043d 1b76 2abd 0ac2 153e 63d1 393e
000002d0: 08e8 a1bd 09b1 b93c 3b00 243e e41d 413e
000002e0: eb3a 433e c74c 933d 18cf 703e 46fb cdbd
000002f0: 9b2a 5e3e 00b5 553e 06e8 2b3e 3401 423e
00000300: a119 0cbd 27da e13d 2e3b 56bc 7321 433e
00000310: 5a7b ff3d 57b3 133e 0e12 713e 7212 90bc
00000320: 9439 4c3e d0b0 b1bd 3fcf 0f3e 36e1 633e
00000330: 16fa 753e 6741 253c de0a aabd 283d 713e
00000340: 5537 113d 2988 0a3e 96e1 653e 8d4a 733e
00000350: e546 fd3d 4acf 673d 4523 5c3e 808b 623e
00000360: 68bd 903d a5d5 69bd 4671 3dbd e126 13bd
00000370: 37f8 88bd 545f 143e 126c d03d a31f 5a3d
00000380: 1d8a a4bc 150b a1bc 3d2e 273e 624a 493c
00000390: 913d 3bbd 802a 51bd 932e 5e3e 58d9 a9bd
000003a0: 6682 60bc 32df 88bc 3251 93bc d791 bdbc
000003b0: f612 cb3c 23bf 8f3c 26b0 8a3c 88c6 9abd
000003c0: bede 473e 1343 6e3e 6b74 d5bc bd08 0e3e
000003d0: c213 88bd 34ed 453d a37b 543e 6a77 643d
000003e0: 28b8 273e a680 a9bd c96a 8dbd e806 f73b
000003f0: 87df 683e 02d0 863d 0446 893e c8bd c5bb

fc.4.weight f4 [2, 256]
0.24113713 0.20579779 -0.025772922 0.20046832 0.008953065 0.24409392 0.26347876 0.24459131
0.024757968 0.19437255 0.19764443 0.23355728 0.1686375 -0.005255407 0.19743603 0.012789252
0.20360984 -0.010120049 -0.04300973 -0.043890037 0.14007661 0.2939682 0.027569853 0.21927944
-0.013774648 0.21620621 0.0006279619 -0.02555324 -0.040229503 0.18390572 0.23141764 0.017417528
0.022481922 0.23825446 -0.020472782 0.22937125 0.0073902607 0.024685752 -0.035989244 0.21027578
0.2009063 0.20070249 0.020375522 -0.039212316 0.2156217 0.000690681 0.24325423 0.22613826
0.24622865 0.2510166 0.1895391 0.044671435 0.16869998 0.15656638 -0.010581858 0.25303566
-0.00422194 0.21679437 0.19980054 0.17995246 -0.0027440265 0.0033689216 0.21352196 0.29798195
-0.014369424 0.0019440384 -0.0004298097 0.24740149 0.13998932 0.16077332 0.20023692 -0.048153207
0.026481079 -0.038711954 -0.043880723 0.05503498 0.24856237 -0.040167924 0.0033764818 0.22517218
0.23873065 0.2384937 -0.044727635 0.22629274 0.25570711 0.015813671 -0.018521614 0.24470846
0.26203448 -0.09646588 -0.03632135 -0.116990305 0.23614323 0.22917056 0.030957138 0.20258172
-0.009826187 -0.033577845 0.21483418 -0.026453521 -0.03775999 0.020163946 -0.0017252627 -0.041817013
0.023035996 0.2164437 0.18867704 0.24675599 0.05431523 0.15231624 0.007009635 -0.028289363
-0.025684869 0.16311604 -0.03962455 0.23512074 0.0006494781 -0.022805862 0.012927644 0.19122192
0.21615969 0.24769668 0.20595598 -0.042988867 -0.0019504987 0.21222717 0.05087197 0.16218361
-0.024979936 -0.012891419 0.02142358 -0.008690849 -0.033944782 0.1866174 -0.042914588 0.23988321
0.057064503 -0.013540229 0.0460687 0.20698945 0.028088387 0.19076511 0.2216048 -0.03464778
0.16274244 -0.012493808 -0.046214674 0.21456714 0.15588765 0.28339925 0.24148953 0.18584469
0.20723903 0.1991259 0.24451374 0.21382028 -0.030368041 -0.007965799 -0.022803184 0.31051183
-0.058262937 -0.045433823 0.0071822032 0.2190713 0.020727433 0.20491467 0.03022469 0.025063438
0.21462366 -0.01790996 0.21482761 0.22877002 0.030369386 0.237073 -0.008352078 0.03187056
0.05125036 -0.044724524 0.23822337 0.23204876 -0.026938535 -0.041763622 0.27520934 0.24487834
0.14973311 0.046598103 0.21455799 -0.026968908 0.19272281 0.21119577 0.12435093 0.19913359
-0.00324751 0.24743158 0.053627774 0.19241628 0.24385035 0.17252448 0.23068114 0.010511819
0.2130519 -0.02164163 0.2407152 0.24909866 0.25210682 0.009620543 0.050234616 0.21847528
0.013313182 0.19020109 0.24950148 0.17036426 0.26845652 -0.007936435 0.21252899 0.18166876
-0.012023909 -0.01913803 -0.014798548 -0.041522246 -0.046300255 0.24514979 0.18466376 -0.013383439
-0.010340903 -0.037297774 0.1988857 -0.047534537 0.03853747 -0.041103482 0.20039761 0.027241565
-0.047105808 -0.027073946 -0.058578715 -0.1368193 -0.03241392 -0.02673701 -0.05688358 -0.006127127
0.2284251 -0.18130203 0.10020711 0.16807187 0.050520808 0.045802224 0.23529701 0.014879147
0.21783951 0.008042073 -0.0083967745 -0.0442744 0.2514606 -0.00588801 0.24623951 -0.009920728
00000000: a7ec 763e a8bc 523e bc21 d3bc 9147 4d3e
00000010: e0af 123c c2f3 793e b0e6 863e 2576 7a3e
00000020: 39d1 ca3c 9909 473e 4d63 4a3e a429 6f3e
00000030: 4faf 2c3e 8d35 acbb ac2c 4a3e 038a 513c
00000040: 197f 503e 90ce 25bc f82a 30bd 0ac6 33bd
00000050: 3e70 0f3e 0083 963e 2cda e13c ca8a 603e
00000060: 10af 61bc 2965 5d3e cf9d 243a 0755 d1bc
00000070: b1c7 24bd c851 3c3e bff8 6c3e 34af 8e3c
00000080: 022c b83c faf8 733e 89b6 a7bc 4ce0 6a3e
00000090: 002a f23b c639 ca3c 7569 13bd 8952 573e
000000a0: 62ba 4d3e f484 4d3e 91ea a63c 189d 20bd
000000b0: efcb 5c3e d10e 353a a317 793e ca90 673e
000000c0: 5d23 7c3e 3f85 803e 8a16 423e 65f9 363d
000000d0: b0bf 2c3e f052 203e 885f 2dbc e48d 813e
000000e0: 3358 8abb 58ff 5d3e 8398 4c3e 7545 383e
000000f0: 20d5 33bb 20c9 5c3b 80a5 5a3e 1791 983e
00000100: bc6d 6bbc 1bcf fe3a 1558 e1b9 d156 7d3e
00000110: 5c59 0f3e c3a1 243e e80a 4d3e 4c3c 45bd
00000120: d9ee d83c 6d90 1ebd 46bc 33bd 5c6c 613d
00000130: 2287 7e3e 1f87 24bd f747 5d3b 8993 663e
00000140: cf75 743e b137 743e 5334 37bd 49b9 673e
00000150: 0bec 823e ac8b 813c a4ba 97bc db94 7a3e
00000160: 6229 863e e78f c5bd b2c5 14bd 9d98 efbd
00000170: 88cf 713e b0ab 6a3e d399 fd3c 9571 4f3e
00000180: 04fe 20bc ec88 09bd 7efd 5b3e 0eb5 d8bc
00000190: 38aa 1abd dc2e a53c 3622 e2ba 5148 2bbd
000001a0: fcb5 bc3c 6ba3 5d3e 8e34 413e 9aad 7c3e
000001b0: a679 5e3d caf8 1b3e 15b1 e53b 18bf e7bc
000001c0: 1369 d2bc e407 273e 5a4d 22bd 7ec3 703e
000001d0: bd41 2a3a 5cd3 babc 78ce 533c aecf 433e
000001e0: f758 5d3e 33a4 7d3e 20e6 523e 1815 30bd
000001f0: e0a7 ffba 1452 593e 205f 503d 7613 263e
00000200: b9a2 ccbc 8836 53bc 8180 af3c 1064 0ebc
00000210: af09 0bbd a218 3f3e 35c7 2fbd f2a3 753e
00000220: 78bc 693d d6d7 5dbc 88b2 3c3d 0bf5 533e
00000230: 9e19 e63c ee57 433e 5eec 623e d5ea 0dbd
00000240: f4a5 263e d4b2 4cbc 994b 3dbd 7db7 5b3e
00000250: 03a1 1f3e b519 913e 0849 773e 124e 3e3e
00000260: 7836 543e a9e7 4b3e cf61 7a3e b4f3 5a3e
00000270: 66c6 f8bc fc82 02bc becd babc 68fb 9e3e
00000280: 1ea5 6ebd d118 3abd b058 eb3b 3a54 603e
00000290: 94cc a93c 27d5 513e c599 f73c d751 cd3c
000002a0: 4ec6 5b3e e9b7 92bc c5fb 5b3e b042 6a3e
000002b0: 38c9 f83c 44c3 723e 27d7 08bc b48a 023d
000002c0: e6eb 513d 1031 37bd d4f0 733e 319e 6d3e
000002d0: 34ae dcbc 5510 2bbd 3de8 8c3e 63c1 7a3e
000002e0: a353 193e a7dd 3e3d 17b5 5b3e e6ed dcbc
000002f0: 2159 453e b443 583e b3ab fe3d ade9 4b3e
00000300: 2dd4 54bb b45e 7d3e cca8 5b3d c608 453e
00000310: e8b3 793e 42aa 303e ad37 6c3e c439 2c3c
00000320: 472a 5a3e ca49 b1bc 0c7e 763e b813 7f3e
00000330: 2514 813e 7b9f 1d3c d0c2 4d3d fcb7 5f3e
00000340: 881f 5a3c 13c4 423e 517d 7f3e f873 2e3e
00000350: 2273 893e d207 02bc 33a1 593e 6007 3a3e
00000360: eeff 44bc 5cc7 9cbc 9c75 72bc 3b13 2abd
00000370: 56a5 3dbd 8c08 7b3e 7f18 3d3e 3646 5bbc
00000380: e46c 29bc 8dc5 18bd b1a8 4b3e 93b3 42bd
00000390: 77d9 1d3d 205c 28bd 0835 4d3e b429 df3c
000003a0: 05f2 40bd 2eca ddbc 3cf0 6fbd 5c1a 0cbe
000003b0: 75c4 04bd 9307 dbbc c2fe 68bd 11c6 c8bb
000003c0: 45e8 693e 3da7 39be 6339 cd3d 081b 2c3e
000003d0: e8ee 4e3d 1d9b 3b3d b3f1 703e aac7 733c
000003e0: 5211 5f3e e6c2 033c a092 09bc 1359 35bd
000003f0: 72bf 803e 35f0 c0bb 3626 7c3e 8d8a 22bc

fc.4.bias f4 [2]
0.09231007 0.14201571
00000000: 100d bd3d 916c 113e

net.1.0.weight f4 [128, 4]
-0.31510562 -0.38471437 -0.036085557 0.4828025 0.19513398 0.0413218 0.28486806 0.17469268
0.3192907 0.38313386 0.8204299 0.6393137 -0.2962362 -0.10501032 -0.011266432 -0.48952404
0.19595319 0.26253578 -0.15861294 0.24353968 0.30440652 -0.4739251 0.26639643 -0.10459044
-0.041767813 0.34317452 0.8082819 -0.26118913 -0.23807918 0.011761659 -0.13511571 0.3306179
0.0324321 0.24360873 0.867084 0.6105862 0.23108865 0.11416091 0.073254354 0.18877299
0.14796391 0.14964825 0.28393522 0.037349712 -0.16613397 -0.26727915 -0.31149483 -0.6248544
-0.20180677 -0.25666404 0.58656883 0.39907148 0.6481258 0.023930173 -0.27587625 -0.55271465
-0.34615725 0.1082379 0.027113186 -0.3396109 0.41453236 0.4234064 -0.74807596 -0.06622526
0.56051725 0.33327508 -0.54172534 -0.4640051 0.09062165 -0.24234469 -0.12369488 -0.28987145
0.30828905 0.45096052 -0.1701633 -0.35327503 0.15331565 0.043444525 0.59615654 0.12584274
-0.007987589 -0.041244566 0.43943542 -0.07028887 0.09252316 0.32886603 -0.23000038 0.24188845
-0.634761 0.23779574 0.30311903 -0.38168845 0.07176607 -0.050814155 -0.2809788 0.15528637
0.10999967 -0.24340309 -0.052614562 0.006141142 -0.25415632 -0.36246067 0.21378593 -0.13367322
-0.4665315 0.27090526 0.32579482 -0.36774737 0.33194625 -0.20323433 -0.15542924 0.049234707
-0.0056030154 0.30684707 0.02319139 0.12517618 -0.4197114 0.03505703 -0.069268785 0.17881185
-0.14098267 0.12989768 0.37219504 -0.2969642 0.2189248 -0.16612686 0.060937263 -0.12445394
-0.14333335 0.28896713 -0.48882893 0.19487268 -0.47532547 0.1614131 0.105301134 -0.07111404
0.2922695 -0.1157965 -0.15423852 0.17382587 0.4114091 0.30289495 0.66681707 0.4369709
-0.45126057 -0.2049969 -0.43503833 0.21740048 0.0024992926 0.16217147 0.44197994 0.5213656
-0.6295067 0.24403583 -0.11349245 -0.20271754 0.48355392 -0.4004833 0.330535 0.05698501
-0.14124127 0.30158907 0.52618605 0.41197878 -0.5956421 0.22635517 -0.6488268 -0.3817442
-0.3310272 -0.12570098 0.4647256 -0.3423171 0.7387382 0.33442795 -0.62446904 -0.09158553
-0.44490033 0.19795498 0.667572 0.4054565 0.50419444 0.49064153 0.05525225 -0.3096033
0.22914517 0.16616859 0.60390705 0.076461315 -0.5011234 0.2677476 0.38429806 -0.28451806
-0.4327988 -0.4499277 0.2681331 -0.0035922527 0.66439945 -0.5082824 -0.36575845 -0.5783589
-0.21469077 -0.2689106 0.39253902 -0.027368024 0.2630939 -0.2741515 -0.14812711 -0.13821429
0.5921391 0.5549176 0.2921888 -0.004108798 0.50219566 0.2283457 -0.7931178 0.07930455
-0.4609841 0.25219002 0.05952588 -0.20030798 -0.015172553 -0.29937983 -0.69500756 -0.5759673
0.14533572 -0.24230874 -0.19963239 0.27218372 -0.3433426 0.4833856 0.49545166 0.3457715
-0.02698885 -0.41962907 0.08485964 -0.24306336 0.5571692 -0.30111024 -1.0072868 -0.64259845
0.10540846 0.08704709 -0.9794771 -0.46964273 0.20017022 0.22736038 0.055916224 0.58840734
-0.16884024 -0.2888839 -0.07244062 0.3445091 0.29891568 0.3547943 -0.46041176 -0.44098097
00000000: 8655 a1be 48f9 c4be 73ce 13bd e431 f73e
00000010: 34d1 473e 0c41 293d 3ada 913e a3e2 323e
00000020: 127a a33e 1f2a c43e b207 523f 10aa 233f
00000030: 45ac 97be a70f d7bd d796 38bc e5a2 fabe
00000040: f4a7 483e 176b 863e 6e6b 22be 7762 793e
00000050: 2cdb 9b3e 50a6 f2be 1d65 883e 8333 d6bd
00000060: ba14 2bbd 92b4 af3e 90eb 4e3f 95ba 85be
00000070: 07cb 73be f9b3 403c c65b 0abe c046 a93e
00000080: 86d7 043d 9174 793e 38f9 5d3f 614f 1c3f
00000090: 81a2 6c3e 32cd e93d 6106 963d b54d 413e
000000a0: da83 173e 643d 193e f55f 913e 03fc 183d
000000b0: 061f 2abe d0d8 88be 407c 9fbe 75f6 1fbf
000000c0: 6fa6 4ebe 7869 83be 6029 163f 1953 cc3e
000000d0: 93eb 253f 3609 c43c a73f 8dbe b57e 0dbf
000000e0: 863b b1be d5ab dd3d 791c de3c 7be1 adbe
000000f0: 963d d43e b9c8 d83e e881 3fbf 1ca1 87bd
00000100: 0f7e 0f3f 08a3 aa3e 83ae 0abf 1492 edbe
00000110: d897 b93d 3529 78be be53 fdbd 086a 94be
00000120: 10d8 9d3e 4ce4 e63e 4a3f 2ebe 77e0 b4be
00000130: c7fe 1c3e e3f2 313d b79d 183f ebdc 003e
00000140: 60de 02bc 10f0 28bd aefd e03e 9cf3 8fbd
00000150: c87c bd3d 2161 a83e 3885 6bbe 9bb1 773e
00000160: b27f 22bf ba80 733e 6b32 9b3e ab6c c3be
00000170: 17fa 923d 8122 50bd 74dc 8fbe 6403 1f3e
00000180: 8247 e13d a93e 79be 5e82 57bd a23b c93b
00000190: c720 82be 7294 b9be b3ea 5a3e a2e1 08be
000001a0: 37dd eebe 18b4 8a3e 94ce a63e 6249 bcbe
000001b0: dcf4 a93e a91c 50be d828 1fbe 55aa 493d
000001c0: 8099 b7bb 0f1b 9d3e dffb bd3c 2f2e 003e
000001d0: 6ae4 d6be f697 0f3d cbdc 8dbd 741a 373e
000001e0: c35d 10be e603 053e 5990 be3e b10b 98be
000001f0: d32d 603e 291d 2abe 5a99 793d b5e1 febd
00000200: fac5 12be 80f3 933e c947 fabe b48c 473e
00000210: dc5d f3be 7a49 253e 1fa8 d73d 3da4 91bd
00000220: 59a4 953e b726 edbd b4f0 1dbe 69ff 313e
00000230: 37a4 d23e 0c15 9b3e 86b4 2a3f a6ba df3e
00000240: a00b e7be b5ea 51be 58bd debe 3b9e 5e3e
00000250: 2ccb 233b 4710 263e 324b e23e 3778 053f
00000260: 5a27 21bf 87e4 793e bb6e e8bd 3095 4fbe
00000270: 6194 f73e 260c cdbe e23b a93e 1d69 693d
00000280: 8da1 10be e269 9a3e 21b4 063f e2ee d23e
00000290: 007c 18bf a6c9 673e 8319 26bf fa73 c3be
000002a0: 667c a9be c2b7 00be 84f0 ed3e 3044 afbe
000002b0: f21d 3d3f 243a ab3e 34dd 1fbf 3291 bbbd
000002c0: fac9 e3be b6b4 4a3e 00e6 2a3f ff97 cf3e
000002d0: e312 013f 5e35 fb3e 2f50 623d 5384 9ebe
000002e0: 08a5 6a3e 1928 2a3e a799 1a3f c097 9c3d
000002f0: a049 00bf 3716 893e b7c2 c43e 5aac 91be
00000300: ce97 ddbe ec5c e6be be48 893e 006c 6bbb
00000310: 1516 2a3f cc1e 02bf b144 bbbe 540f 14bf
00000320: e6d7 5bbe a6ae 89be e0fa c83e e832 e0bc
00000330: 3eb4 863e 965d 8cbe a2ae 17be 0c88 0dbe
00000340: 6e96 173f 140f 0e3f c599 953e 19a3 86bb
00000350: e58f 003f 75d3 693e c509 4bbf 6d6a a23d
00000360: 1c06 ecbe 0d1f 813e 69d1 733d 891d 4dbe
00000370: 4d96 78bc 5048 99be 04ec 31bf 9872 13bf
00000380: e3d2 143e c81f 78be 6f6c 4cbe aa5b 8b3e
00000390: 9aca afbe 517e f73e d7ab fd3e f608 b13e
000003a0: b917 ddbc 9fd9 d6be e4ca ad3d 9ae5 78be
000003b0: a4a2 0e3f 1f2b 9abe c6ee 80bf 5581 24bf
000003c0: 64e0 d73d bf45 b23d 03bf 7abf 0375 f0be
000003d0: 6cf9 4c3e 29d1 683e 6908 653d dda1 163f
000003e0: 75e4 2cbe 97e8 93be bf5b 94bd 7f63 b03e
000003f0: 7a0b 993e 99a7 b53e 17bb ebbe 42c8 e1be

net.1.0.bias f4 [128]
0.59345675 0.55561095 -0.097861856 0.048399307 0.64243776 -0.1984128 0.4605306 0.27878568
-0.14126405 0.3552522 0.26539811 -0.1343386 0.6115043 0.006104773 0.7085941 -0.062027995
-0.13621998 0.6482806 0.048095938 0.44572568 -0.3020246 0.2648437 0.60001475 -0.13443619
0.5266663 0.4878153 0.53851926 0.40047708 -0.36882564 0.22263141 0.64144915 0.19709638
-0.311147 0.22971773 0.2544073 -0.12456248 -0.13509193 -0.12589072 0.5905265 0.17069678
-0.052317116 0.25564003 -0.4301181 -0.06804993 0.48220614 -0.1633975 0.2978912 0.70606095
-0.13594599 -0.019611228 0.58491933 -0.48099616 -0.33678344 0.025297355 0.38438702 0.028433744
-0.2730942 0.53054595 0.2934532 0.029666554 0.065189585 -0.1827396 -0.37526757 -0.043718982
0.5120727 0.4133166 0.08482411 0.5934354 -0.045558337 -0.20561756 0.6260841 -0.27086926
0.49712533 0.19108774 0.0898376 0.41871318 0.4480276 0.43350902 0.4986906 -0.049465325
-0.31543416 0.5140542 -0.19534911 -0.362322 0.48373294 0.5235605 0.32573748 -0.32777745
-0.17065996 0.2947768 0.24270709 -0.32113728 0.6436997 -0.22227374 0.060770676 -0.13896008
-0.099456966 0.12613 0.4776539 0.43599454 0.42934346 0.1405299 -0.05784493 0.4505814
0.22635747 -0.043784395 -0.3545773 0.040212255 -0.13542 -0.1842933 -0.28649518 0.61183363
0.18308608 0.6524646 0.2012905 0.2300554 -0.24791946 -0.21382692 -0.3552673 0.613469
-0.36285672 0.5394697 0.6768941 0.5003996 0.5641846 -0.06048325 -0.22701864 0.21989769
00000000: c8ec 173f 853c 0e3f cc6b c8bd 5a3e 463d
00000010: cd76 243f ba2c 4bbe abca eb3e ffbc 8e3e
00000020: 86a7 10be 9ee3 b53e 43e2 873e 0f90 09be
00000030: 8c8b 1c3f 8c0a c83b 6c66 353f 1111 7ebd
00000040: 407d 0bbe b8f5 253f 3f00 453d 2836 e43e
00000050: f8a2 9abe 9899 873e 919a 193f a4a9 09be
00000060: 9ad3 063f edc2 f93e 66dc 093f 550b cd3e
00000070: b7d6 bcbe 7df9 633e 0336 243f a2d3 493e
00000080: a94e 9fbe 203b 6b3e ac41 823e 9d1a ffbd
00000090: 8a55 0abe 7fe9 00be bf2c 173f 23cb 2e3e
000000a0: 794a 56bd 40e3 823e 7138 dcbe c35d 8bbd
000000b0: b9e3 f63e ad51 27be 3285 983e 69c0 343f
000000c0: 6d35 0bbe baa7 a0bc 46bd 153f 2145 f6be
000000d0: e16e acbe 663c cf3c 60ce c43e e2ed e83c
000000e0: 01d3 8bbe dcd1 073f 7f3f 963e 4607 f33c
000000f0: 1e82 853d 1720 3bbe 1223 c0be ad12 33bd
00000100: 3217 033f 3c9e d33e 43b8 ad3d 62eb 173f
00000110: 619b 3abd 698d 52be 0c47 203f 60af 8abe
00000120: 3687 fe3e 81ac 433e c7fc b73d 9361 d63e
00000130: e063 e53e e5f4 dd3e 6054 ff3e 279c 4abd
00000140: 9680 a1be 0e99 033f 9909 48be 4582 b9be
00000150: d8ab f73e 1008 063f 10c7 a63e 72d2 a7be
00000160: 7cc1 2ebe fcec 963e 3588 783e 1b6c a4be
00000170: 81c9 243f ba9b 63be acea 783d 8d4b 0ebe
00000180: 18b0 cbbd 3928 013e 0d8f f43e ad3a df3e
00000190: e8d2 db3e 12e7 0f3e ceee 6cbd 9bb2 e63e
000001a0: 41ca 673e 4457 33bd 288b b5be 9bb5 243d
000001b0: 8aab 0abe 62b7 3cbe 7faf 92be 21a1 1c3f
000001c0: eb7a 3b3e ec07 273f 191f 4e3e a593 6b3e
000001d0: 99de 7dbe 72f5 5abe 98e5 b5be 4e0c 1d3f
000001e0: 5bc8 b9be b01a 0a3f ef48 2d3f 301a 003f
000001f0: 676e 103f 49bd 77bd 9377 68be dc2c 613e

net.1.2.weight f4 [256, 128]
0.14891465 0.18585236 -0.22462687 -0.117715076 0.16200633 0.15407269 0.22623539 0.08384218
-0.25628853 0.21577714 0.2140732 -0.1844863 0.18138555 -0.06743526 0.17825238 -0.1934792
-0.030805256 0.11057418 0.05664167 0.11407439 -0.02412574 0.20588458 0.0834283 -0.02561198
0.10473927 0.120677575 0.04126975 0.14295684 0.034766704 -0.0042699655 0.1632711 0.04282829
0.019840786 0.10336835 0.033941854 -0.3308784 -0.037545793 -0.14623494 0.1640131 0.14968617
-0.22693391 -0.036056537 -0.16879901 -0.20565432 0.114942715 0.043520704 0.23842908 0.1520873
-0.009043007 -0.28038692 0.18276858 0.07866093 -0.12132923 -0.06920684 0.014382019 -0.28433207
-0.07410829 0.2742949 0.047235038 -0.19828217 -0.1706083 -0.22339289 -0.0826014 -0.053828206
0.2498786 0.21897024 0.07073465 0.20530078 -0.31863484 -0.023450395 0.13807765 -0.03512296
0.17458922 0.2317566 -0.015734531 0.2923034 0.087227054 0.19924642 0.16065986 -0.4582799
-0.0076927007 0.122002274 -0.31774917 -0.22258662 0.17967889 0.1999741 0.03680499 0.08944466
-0.023703137 0.058584455 -0.0017020495 -0.04837519 0.19239189 -0.081101894 -0.21730334 -0.014617736
-0.28253013 -0.058229618 0.12568155 0.19490522 0.15231852 0.10688251 -0.16066669 0.21840307
-0.013545627 -0.20405026 -0.13766024 0.1053755 0.016893908 -0.14423698 -0.0979255 0.20042148
0.043251872 0.24598125 0.14099787 0.13441089 -0.06839018 -0.08807396 -0.14277609 0.23379084
-0.092272244 0.097258076 0.11198606 0.20881093 0.17674221 0.07267087 -0.09514223 -0.073954046
0.12537524 0.11523963 -0.2010447 -0.05895027 0.095737495 0.21109061 0.072920665 0.15727066
-0.15472145 0.15412559 0.17192301 -0.13937141 0.121718146 -0.044641193 0.107712686 -0.13872212
-0.05567285 0.15204966 0.07397519 0.15583211 0.042859465 0.1624357 0.06423208 0.06364733
0.2367634 0.1394793 0.016476085 0.14138213 0.0573493 0.0894578 0.13626435 0.04523894
-0.0022972457 0.10385838 0.05397625 -0.40540054 -0.08259512 -0.20097055 0.11074415 0.09763095
-0.23730293 -0.043591324 -0.103437096 -0.047199134 0.16289112 0.01895167 0.26714674 0.22487395
-0.10485334 -0.20292869 0.21598949 -0.042920686 -0.18746227 -0.10662375 0.10111507 -0.2359176
0.017730733 0.27389744 0.09180123 -0.15238446 -0.12653913 -0.13722478 -0.06769046 0.0071184128
0.2768446 0.23444676 0.11290933 0.26412234 -0.26019683 -0.06539256 0.25422376 0.0040966673
0.23887445 0.21993119 -0.11390623 0.27282456 0.13567646 0.22573139 0.18488029 -0.49466088
0.075823866 0.08156646 -0.36632696 -0.23030442 0.13502622 0.17511064 0.16314043 0.019229531
-0.06274202 0.1193539 -0.07120935 -0.15813057 0.081798404 -0.0035082034 -0.13980906 -0.12169826
-0.2175973 -0.00040738497 0.11267851 0.20748515 0.21026182 0.07411512 -0.12155334 0.16498333
-0.07199925 -0.30040693 -0.1363733 0.12040936 -0.03137841 -0.046261333 -0.061964057 0.23896149
-0.01428687 0.25552014 0.13125664 0.042979505 -0.06776889 -0.021025652 -0.049237717 0.17924388
-0.22775303 0.072867475 0.1464153 0.25491607 0.2555969 0.036870558 -0.0007861106 0.05330497
00000000: 157d 183e 1550 3e3e 9604 66be 9a14 f1bd
00000010: fde4 253e 3bc5 1d3e 40aa 673e 73b5 ab3d
00000020: 4038 83be aff4 5c3e 0136 5b3e fae9 3cbe
00000030: 22bd 393e 7f1b 8abd cb87 363e 691f 46be
00000040: 4e5b fcbc b774 e23d 1901 683d d59f e93d
00000050: 58a3 c5bc 68d3 523e 75dc aa3d 37d0 d1bc
00000060: 8b81 d63d ce25 f73d 780a 293d 4763 123e
00000070: 8867 0e3d 11eb 8bbb 8a30 273e b86c 2f3d
00000080: 2589 a23c c9b2 d33d 9d06 0b3d e568 a9be
00000090: 9ec9 19bd 9dbe 15be 0df3 273e 5547 193e
000000a0: 5d61 68be 05b0 13bd a6d9 2cbe 0c97 52be
000000b0: 1667 eb3d c442 323d c126 743e c6bc 1b3e
000000c0: 1f29 14bc e08e 8fbe b027 3b3e fb18 a13d
000000d0: 767b f8bd 51bc 8dbd 8fa2 6b3c f993 91be
000000e0: 16c6 97bd 6270 8c3e 8779 413d 7b0a 4bbe
000000f0: f1b3 2ebe 1bc1 64be ec2a a9bd f77a 5cbd
00000100: 2de0 7f3e bc39 603e 54dd 903d 5e3a 523e
00000110: 1b24 a3be 0b1b c0bc 3a64 0d3e 18dd 0fbd
00000120: 84c7 323e 9a51 6d3e b4e5 80bc cba8 953e
00000130: 19a4 b23d 4107 4c3e 0584 243e aaa3 eabe
00000140: 0d13 fcbb 54dc f93d 05b0 a2be bfed 63be
00000150: befd 373e 03c6 4c3e d4c0 163d c32e b73d
00000160: 152d c2bc 41f6 6f3d 4e17 dfba 1025 46bd
00000170: 6102 453e c018 a6bd c484 5ebe 3b7f 6fbc
00000180: caa7 90be 2e82 6ebd aab2 003e 3c95 473e
00000190: 63f9 1b3e 38e5 da3d cf85 24be 0ea5 5f3e
000001a0: 7aee 5dbc 8df2 50be cef6 0cbe 1ccf d73d
000001b0: 1865 8a3c dcb2 13be 2a8d c8bd 4a3b 4d3e
000001c0: e028 313d 82e2 7b3e bf61 103e 02a3 093e
000001d0: 2710 8cbd 1f60 b4bd e533 12be de66 6f3e
000001e0: 3bf9 bcbd 3e2f c73d f358 e53d 88d2 553e
000001f0: e9fb 343e 77d4 943d eed9 c2bd 3875 97bd
00000200: 5e62 003e c102 ec3d a9de 4dbe d775 71bd
00000210: 0512 c43d 2328 583e 6e57 953d 8f0b 213e
00000220: 4d6f 1ebe 19d3 1d3e 960c 303e 61b7 0ebe
00000230: 5d47 f93d afd9 36bd 7898 dc3d 2c0d 0ebe
00000240: 3709 64bd e8b2 1b3e 4e80 973d 7492 1f3e
00000250: 688d 2f3d 8b55 263e 1c8c 833d 8859 823d
00000260: 1b72 723e a9d3 0e3e dbf8 863c 7ac6 103e
00000270: 19e7 6a3d a735 b73d e288 0b3e 774c 393d
00000280: 638d 16bb b4b3 d43d 3316 5d3d a990 cfbe
00000290: a127 a9bd 39cb 4dbe d4cd e23d bcf2 c73d
000002a0: 8aff 72be d18c 32bd d4d6 d3bd e153 41bd
000002b0: eecc 263e 8840 9b3c 75c7 883e 5b45 663e
000002c0: 59bd d6bd 8acc 4fbe 592c 5d3e 9acd 2fbd
000002d0: 1cf6 3fbe 8d5d dabd 6b15 cf3d 6294 71be
000002e0: 0b40 913c 493c 8c3e 4902 bc3d ac0a 1cbe
000002f0: 7993 01be a784 0cbe 4ca1 8abd 9341 e93b
00000300: 93be 8d3e d012 703e 023d e73d 0b3b 873e
00000310: 8538 85be 89ec 85bd 9e29 823e 563d 863b
00000320: 819b 743e a435 613e ab47 e9bd a9af 8b3e
00000330: c5ee 0a3e 2126 673e 4251 3d3e 3144 fdbe
00000340: 8b49 9b3d 510c a73d 358f bbbe ecd4 6bbe
00000350: 5044 0a3e 3450 333e 490e 273e 4087 9d3c
00000360: e37e 80bd d16f f43d 35d6 91bd fbec 21be
00000370: ec85 a73d e3e9 65bb 1b2a 0fbe f03c f9bd
00000380: d4d1 5ebe 4996 d5b9 fec3 e63d fd76 543e
00000390: e04e 573e abc9 973d f5f0 f8bd 64f1 283e
000003a0: 5874 93bd f0ce 99be 71a5 0bbe 2f99 f63d
000003b0: a686 00bd 867c 3dbd 06ce 7dbd 52b2 743e
000003c0: 7a13 6abc 89d3 823e 2468 063e 470b 303d
000003d0: 6aca 8abd fd3d acbc 7dad 49bd b58b 373e
000003e0: 1738 69be 8b3b 953d e4ed 153e 5c84 823e
000003f0: 99dd 823e 9505 173d fd12 4eba 5056 5a3d

net.1.2.bias f4 [256]
0.13556339 0.2590047 -0.021093009 0.19295411 -0.07615763 0.10823018 0.22812542 0.15510863
-0.0748339 0.20558365 0.19407126 0.13978165 0.18869688 -0.020801513 0.17301956 0.0018748632
0.2541458 0.070731744 -0.021458426 -0.0728974 0.2569355 0.09385261 -0.047472533 0.22329158
-0.03557143 0.20930594 -0.033771805 0.003602136 -0.012237315 0.104296215 0.09733179 0.05670559
-0.04227378 0.18890771 -0.066896036 0.16857201 -0.08203958 -0.09533494 0.020102356 0.19715059
0.17330037 0.09784863 -0.008219952 -0.07178443 0.19563717 -0.02829101 0.24936308 0.1273606
0.09499544 0.23447274 0.27011085 0.0125693185 0.17008993 0.24759318 -0.05492901 0.22311965
-0.06983494 0.23054186 0.13404408 0.19137672 0.0038596292 -0.03523713 0.23996195 0.11340901
-0.095855586 -0.042138737 -0.011781313 0.17491366 0.253742 0.15519488 0.12125775 -0.062214117
-0.07040066 -0.07533991 0.057560917 -0.060619723 0.17817202 -0.017606094 0.007208819 0.21331331
0.26104593 0.17711514 0.014757141 0.21726428 0.17742838 -0.024955245 0.045142625 0.1573363
0.18686149 0.17484707 -0.07078799 0.025201371 0.25076866 0.16810225 0.07661379 0.26952824
-0.045697052 -0.06982496 0.2577874 -0.0154667655 0.06953417 -0.02858954 -0.0022718292 0.049026616
0.04967217 0.23020081 0.19912955 0.24886356 -0.053136718 0.21988788 -0.07658781 -0.08406103
-0.08040763 0.25255764 -0.037482332 0.21210793 0.0203393 0.0013856523 -0.026302319 0.21466674
0.26528877 0.2212341 0.106691 0.007838914 -0.08034122 0.2227063 -0.035944767 0.11400953
-0.032290448 -0.08448241 -0.123435855 -0.08916744 -0.019476349 0.19694151 -0.062143136 0.0983854
0.07059125 -0.024073904 0.06344374 0.25698552 -0.058389246 0.15957253 0.26714915 0.0056867343
0.12569009 -0.04674559 0.058821745 0.11221527 0.23698404 0.058156695 0.246137 0.23387273
0.12594837 0.2094295 0.22796576 0.10684521 -0.027569957 -0.018439967 0.04070673 0.13862404
-0.017390896 0.012156078 -0.014256121 0.22887647 -0.07191398 0.15475093 0.042860117 -0.079979576
0.22006437 -0.07201693 0.10623619 0.17397436 0.08748756 0.12999341 0.06547582 0.001240404
0.0322314 -0.04161654 0.14624801 0.18146281 -0.079055846 0.022667425 0.16015713 0.18859059
0.19065444 0.071923785 0.235165 -0.10057692 0.2169594 0.20869827 0.16787729 0.18945771
-0.03420413 0.110279374 -0.013075633 0.19055729 0.12474699 0.14423881 0.23542044 -0.01758692
0.1994384 -0.086763024 0.14043902 0.2225388 0.24021181 0.010086394 -0.08302854 0.23558486
0.03545316 0.13528503 0.22449335 0.23758908 0.12367038 0.05659417 0.2149783 0.22123528
0.070673764 -0.057088513 -0.046250604 -0.03592575 -0.06687968 0.1448949 0.10176863 0.053252827
-0.020085389 -0.019658605 0.16326232 0.012285801 -0.04571301 -0.05106592 0.21697454 -0.08293408
-0.013702964 -0.01670799 -0.017983053 -0.02314083 0.024789315 0.017547196 0.016929697 -0.07557398
0.19518563 0.23267774 -0.026056489 0.13870521 -0.066443935 0.048321918 0.20750289 0.055777945
0.16378844 -0.08276491 -0.06905133 0.007538665 0.22741519 0.06582643 0.2681123 -0.0060345866
00000000: 21d1 0a3e 449c 843e 3fcb acbc c395 453e
00000010: 88f8 9bbd c9a7 dd3d b699 693e ccd4 1e3e
00000020: 8442 99bd 8584 523e 9eba 463e ec22 0f3e
00000030: c139 413e ef67 aabc 0a2c 313e f8bd f53a
00000040: 661f 823e cedb 903d 95c9 afbc 3b4b 95bd
00000050: 0d8d 833e cc35 c03d 8f72 42bd 8ca6 643e
00000060: 59b3 11bd 4c54 563e 4e54 0abd d011 6c3b
00000070: 057f 48bc 4199 d53d e455 c73d 1f44 683d
00000080: 4527 2dbd 0671 413e ca00 89bd 249e 2c3e
00000090: 5e04 a8bd f73e c3bd b2ad a43c d8e1 493e
000000a0: a775 313e dd64 c83d faac 06bc b703 93bd
000000b0: 1c55 483e 8cc2 e7bc 0959 7f3e d16a 023e
000000c0: f88c c23d 9f19 703e f84b 8a3e 8bef 4d3c
000000d0: 0e2c 2e3e 1189 7d3e 3efd 60bd 7a79 643e
000000e0: 9f05 8fbd 2a13 6c3e da42 093e 42f8 433e
000000f0: d5f1 7c3b cf54 10bd 96b8 753e fc42 e83d
00000100: ef4f c4bd ab99 2cbd 6906 41bc 911c 333e
00000110: 79ea 813e 68eb 1e3e fc55 f83d 3bd4 7ebd
00000120: 392e 90bd d04b 9abd ffc4 6b3d 634c 78bd
00000130: ba72 363e a83a 90bc f537 ec3b ce6e 5a3e
00000140: d0a7 853e ac5d 353e efc7 713c 877a 5e3e
00000150: c9af 353e f16e ccbc 79e7 383d c41c 213e
00000160: 9e58 3f3e 1c0b 333e 4bf9 90bd 1b73 ce3c
00000170: c064 803e ff22 2c3e b1e7 9c3d 9bff 893e
00000180: d52c 3bbd 6300 8fbd b6fc 833e 5168 7dbc
00000190: ee67 8e3d 9c34 eabc f8e2 14bb 22d0 483d
000001a0: 0c75 4b3d c3b9 6b3e 9ee8 4b3e 17d6 7e3e
000001b0: e3a5 59bd 4a2a 613e 12da 9cbd 3028 acbd
000001c0: c1ac a4bd 3c4f 813e 1387 19bd d232 593e
000001d0: 9b9e a63c c79e b53a f677 d7bc 99d1 5b3e
000001e0: eed3 873e 318b 623e d080 da3d ca6e 003c
000001f0: f089 a4bd 1f0d 643e d23a 13bd d47d e93d
00000200: fd42 04bd 1d05 adbd f0cb fcbd 6b9d b6bd
00000210: dd8c 9fbc 09ab 493e cd89 7ebd 497e c93d
00000220: 2592 903d a336 c5bc cbee 813d 9b93 833e
00000230: 9029 6fbd fb66 233e c6c7 883e c957 ba3b
00000240: e7b4 003e 4e78 3fbd 12ef 703d 1fd1 e53d
00000250: f2ab 723e b735 6e3d 560b 7c3e 557c 6f3e
00000260: 9cf8 003e b074 563e db6f 693e a9d1 da3d
00000270: 64da e1bc 6a0f 97bc 1abc 263d 76f3 0d3e
00000280: 5a77 8ebc 492a 473c 8192 69bc 985e 6a3e
00000290: a347 93bd 0777 1e3e 178e 2f3d 55cc a3bd
000002a0: 8e58 613e 9d7d 93bd 5c92 d93d 5626 323e
000002b0: ae2c b33d fe1c 053e 3018 863d 0d95 a23a
000002c0: 1305 043d 1b76 2abd 0ac2 153e 63d1 393e
000002d0: 08e8 a1bd 09b1 b93c 3b00 243e e41d 413e
000002e0: eb3a 433e c74c 933d 18cf 703e 46fb cdbd
000002f0: 9b2a 5e3e 00b5 553e 06e8 2b3e 3401 423e
00000300: a119 0cbd 27da e13d 2e3b 56bc 7321 433e
00000310: 5a7b ff3d 57b3 133e 0e12 713e 7212 90bc
00000320: 9439 4c3e d0b0 b1bd 3fcf 0f3e 36e1 633e
00000330: 16fa 753e 6741 253c de0a aabd 283d 713e
00000340: 5537 113d 2988 0a3e 96e1 653e 8d4a 733e
00000350: e546 fd3d 4acf 673d 4523 5c3e 808b 623e
00000360: 68bd 903d a5d5 69bd 4671 3dbd e126 13bd
00000370: 37f8 88bd 545f 143e 126c d03d a31f 5a3d
00000380: 1d8a a4bc 150b a1bc 3d2e 273e 624a 493c
00000390: 913d 3bbd 802a 51bd 932e 5e3e 58d9 a9bd
000003a0: 6682 60bc 32df 88bc 3251 93bc d791 bdbc
000003b0: f612 cb3c 23bf 8f3c 26b0 8a3c 88c6 9abd
000003c0: bede 473e 1343 6e3e 6b74 d5bc bd08 0e3e
000003d0: c213 88bd 34ed 453d a37b 543e 6a77 643d
000003e0: 28b8 273e a680 a9bd c96a 8dbd e806 f73b
000003f0: 87df 683e 02d0 863d 0446 893e c8bd c5bb
