full_project/controllers/custom_controllers_dev/kostis_controller/best_model.pth (torch, 140070 bytes, 12 tensors)

fc.0.weight f4 [128, 4]
0	0x3e06dba5	0.13169725
1	0xbacf99df	-0.0015838704
2	0x3cb06051	0.021530302
3	0x3c8cb9f3	0.017178511
4	0x3e944b89	0.2896388
5	0xbe08ebae	-0.13371155
6	0xbd11cb69	-0.035594378
7	0xbd4327d6	-0.047645412
8	0xbe0ebebc	-0.13939947
9	0xbcacb540	-0.02108252
10	0x3d8145a9	0.06312115
11	0x3dad42a3	0.084599756
12	0x3e13d2fe	0.14435956
13	0x3e550199	0.2080139
14	0xbe97cde0	-0.29649258
15	0xbe9c5bc8	-0.30538774
16	0xbdd226f1	-0.10261334
17	0xbdca6d08	-0.09884077
18	0xbe521eca	-0.20519558
19	0xbeb1a7a7	-0.3469822
20	0xbde1e864	-0.11030653
21	0xbe979ec7	-0.29613325
22	0x3ce77d90	0.028258115
23	0x3de21635	0.11039392
24	0x3ecbe9a5	0.39826694
25	0xbe1f657b	-0.15566055
26	0x3e0771af	0.1322696
27	0x3e54fdf3	0.20799999
28	0xbf167e07	-0.5878605
29	0x3dfd71a1	0.123751886
30	0xbe00df40	-0.12585163
31	0x3e332ea0	0.17498255
32	0x3e8629bb	0.26203713
33	0x3df66469	0.120308705
34	0xbe57b28b	-0.21064202
35	0xbea9ccc3	-0.33164033
36	0x3e10b0c6	0.14129934
37	0x3d633caf	0.055477794
38	0x3e23372c	0.15939015
39	0x3cd75e59	0.026290106
40	0x3f1828f0	0.59437466
41	0xbe7aaea1	-0.24480678
42	0x3e40a447	0.18812667
43	0x3ec701ed	0.38868657
44	0x3e3c1b31	0.18369748
45	0xbe995e71	-0.29954866
46	0x3e3d3b9b	0.18479769
47	0x3eb5d3c2	0.3551312
48	0x3c17128e	0.009220732
49	0xbe9a5988	-0.30146432
50	0xbda82a86	-0.08211236
51	0x3c9cd8a3	0.01914627
52	0x3e6ac153	0.2292531
53	0xbec541e8	-0.38526845
54	0xbdc1a945	-0.09456114
55	0x3d2b8e92	0.041884013
56	0xbe0f4cde	-0.13994166
57	0x3ea53ef2	0.32274586
58	0x3e35ab9a	0.17741242
59	0xbeaee62f	-0.3415999
60	0xbdd0f82f	-0.10203587
61	0xbb9776d6	-0.0046223206
62	0xbd3ec228	-0.04657188
63	0xbd975fb4	-0.07391301
64	0xbf1e9ed9	-0.6196113
65	0x3e0f2a57	0.13980995
66	0x3e28739b	0.1645035
67	0x3e7963f5	0.24354537
68	0xbe28bb11	-0.1647761
69	0xbd72aff2	-0.059249826
70	0x3c3c93a6	0.0115098115
71	0x3ea95aac	0.3307699
72	0xbec466cc	-0.38359678
73	0x3c8ff9fa	0.017575253
74	0x3da15146	0.0787683
75	0x3d9e921b	0.07742711
76	0x3e828b56	0.2549693
77	0x3e6d9e26	0.2320486
78	0xbec1a46a	-0.3782075
79	0xbed5d2c4	-0.41762364
80	0xbeb4ef91	-0.35339025
81	0x3da94b41	0.08266307
82	0x3e9b6604	0.3035127
83	0x3f07e568	0.5308442
84	0x3d4b5096	0.0496374
85	0xbcdf26f1	-0.027240248
86	0xbb90ea79	-0.0044224826
87	0xbcb3dfca	-0.021957297
88	0x3eca3946	0.3949682
89	0xbdb653a6	-0.089026734
90	0xbd584883	-0.052803528
91	0xbd830099	-0.06396598
92	0x3ee0aeb5	0.4388329
93	0x3c65040e	0.0139780175
94	0x3dd2f551	0.10300697
95	0x3de18772	0.11012162
96	0xbe2d0ad5	-0.16898663
97	0x3e4025f2	0.18764475
98	0x3d92b8ed	0.07164178
99	0xbe2efa85	-0.17087753
100	0xbdcec626	-0.100963876
101	0xbd3b922e	-0.045793705
102	0xbe4d2453	-0.20033388
103	0xbe44668f	-0.19179748
104	0xbd9a73e1	-0.075416334
105	0xbddff15c	-0.109347075
106	0xbeb701fd	-0.35743704
107	0xbe5fd2ee	-0.21857807
108	0xbdf10341	-0.11768199
109	0x3e65b091	0.22430636
110	0x3dba8337	0.091070585
111	0x3e5a2f56	0.2130712
112	0xbf330abd	-0.6993826
113	0x3eae39db	0.34028515
114	0x3e18afe1	0.14910842
115	0xbcf20fb6	-0.029548507
116	0xbe81c440	-0.2534504
117	0x3e8c0bb9	0.27352694
118	0xbe84cd6e	-0.2593798
119	0xbd9946e3	-0.07484224
120	0x3ebf2863	0.373355
121	0x3e0b12a9	0.13581337
122	0x3ebf6b50	0.3738656
123	0x3ef49131	0.47767022
124	0xbe1ca593	-0.15297537
125	0x3c9070b9	0.017631875
126	0xbd9fd417	-0.07804125
127	0xbdcec57f	-0.10096263
128	0x3e3c4e62	0.18389276
129	0xbdf20ea4	-0.11819199
130	0xbd876490	-0.06610978
131	0xbe2e6694	-0.17031318
132	0x3e2f1c43	0.17100625
133	0x3d187c8a	0.037228145
134	0x3e4339b2	0.19064978
135	0x3ea747e5	0.3267204
136	0x3e308a31	0.17240216
137	0x3de5c64c	0.11219463
138	0xbd8597c0	-0.06523085
139	0xbe149dd9	-0.14513339
140	0xbe141bf4	-0.14463788
141	0x3e0f3d30	0.13988185
142	0x3ec2ef63	0.38073263
143	0x3e4748c6	0.19461355
144	0x3d446f82	0.047957905
145	0x3e5bec98	0.21476972
146	0xbd49ed4d	-0.049298573
147	0x3e20bd39	0.15697183
148	0x3e68dbde	0.22740123
149	0xbe4cc472	-0.19996813
150	0x3e19de48	0.150262
151	0x3e8ad82c	0.2711805
152	0x3ed05c36	0.4069535
153	0xbe87fe8c	-0.2656139
154	0xbe5c8921	-0.21536686
155	0xbef167f5	-0.47149625
156	0x3e7fdff9	0.24987783
157	0xbef5fe5a	-0.48045617
158	0xbe9de449	-0.3083823
159	0xbf0ba0aa	-0.5454203
160	0xbeec91aa	-0.46204883
161	0x3e1a45e9	0.15065731
162	0x3e033e86	0.1281682
163	0x3ec2cd48	0.38047242
164	0xbe1f6ba3	-0.15568404
165	0xbe394f6b	-0.18096702
166	0xbe0417cb	-0.12899701
167	0x3e93e154	0.2888285
168	0x3e98ea2b	0.29866156
169	0x3e2542d5	0.16138776
170	0x3e2c999a	0.1685547
171	0x3ee4e990	0.44709444
172	0x3e9b6fcf	0.3035874
173	0x3d0b505e	0.03401219
174	0x3dc04360	0.09387851
175	0xbdb5d2f2	-0.08878125
176	0x3c1a17b3	0.009405064
177	0x3ddc69d2	0.10762371
178	0xbea8921a	-0.32923967
179	0x3e0d9492	0.13826206
180	0xbeaf023a	-0.34181386
181	0x3eaddc4d	0.3395714
182	0xbd8338ce	-0.06407319
183	0x3e93df17	0.28881142
184	0xbf37166a	-0.71518576
185	0xbe5f620d	-0.21814747
186	0x3de541d2	0.11194195
187	0xbe98ca68	-0.29841924
188	0x3ec67aa4	0.38765442
189	0xbe093293	-0.13398199
190	0xbdd9ec66	-0.106407925
191	0x3dd70e1f	0.1050074
192	0x3e1708ce	0.14749452
193	0x3ec6151b	0.38687977
194	0x3dc25f19	0.09490795
195	0x3ea042f4	0.3130108
196	0x3e743c50	0.23851132
197	0xbe4124d7	-0.1886171
198	0xbd2fe496	-0.042942606
199	0xbe32684b	-0.17422597
200	0xbe9a9567	-0.3019211
201	0x3e9c56c3	0.30534944
202	0xbe18af0f	-0.1491053
203	0xbeb71c87	-0.35763952
204	0x3e9e970a	0.3097461
205	0xbe3c4041	-0.18383886
206	0x3e542cf3	0.20720272
207	0xbd1995af	-0.037496265
208	0xbde244dc	-0.1104829
209	0xbe844c34	-0.25839388
210	0xbe47914b	-0.19489019
211	0xbe2eee05	-0.17082985
212	0x3e13bcdb	0.14427511
213	0x3ddda660	0.10822749
214	0x3dd8a5ce	0.105785
215	0x3ea994bf	0.33121297
216	0x3f3053c5	0.6887782
217	0xbcd868a2	-0.02641708
218	0x3e11e6e3	0.14248233
219	0x3e8490f2	0.25891834
220	0xbc5127d4	-0.012765843
221	0x3e82e2a2	0.25563532
222	0xbe4ce511	-0.20009257
223	0xbeb8c37a	-0.36086637
224	0x3f03de8f	0.5151147
225	0x3ce083e8	0.027406648
226	0x3e641d6d	0.2227685
227	0x3e6fcdd2	0.23418358
228	0xbcc5d0fd	-0.024147505
229	0x3e030517	0.1279491
230	0x3efbdf00	0.49193573
231	0x3ed7dd50	0.42161036
232	0x3eadf027	0.33972284
233	0xbdc69bc2	-0.09697677
234	0xbda0f857	-0.07859867
235	0xbdcdafa3	-0.10043266
236	0x3f0df121	0.5544606
237	0x3da85ea9	0.0822118
238	0xbd801f32	-0.0625595
239	0x3e97c33a	0.29641134
240	0xbea123d5	-0.3147265
241	0xbc916cc1	-0.017752053
242	0x3e47b47a	0.1950244
243	0x3e83a784	0.25713742
244	0xbe9df6eb	-0.30852446
245	0xbe7fd9ad	-0.2498538
246	0xbe564073	-0.20923023
247	0xbe89498a	-0.26813918
248	0xbe89426a	-0.26808482
249	0xbd9633f9	-0.07334132
250	0x3eabd375	0.33559766
251	0xbe52e256	-0.20594153
252	0x3eb998df	0.36249444
253	0xbd98573e	-0.07438515
254	0xbb8bc7c9	-0.0042657596
255	0x3e8a152e	0.26969284

fc.0.bias f4 [128]
0	0xbd918ec4	-0.071073085
1	0xbe8e769f	-0.27824876
2	0xbddab1f5	-0.10678474
3	0x3eaf55af	0.3424506
4	0x3dce1cab	0.10064062
5	0x3ea128d8	0.31476474
6	0xbecf4d54	-0.40488684
7	0xbedb62f4	-0.42848933
8	0x3e264e6a	0.1624085
9	0x3eab6119	0.33472517
10	0xbeeece48	-0.46641755
11	0x3ee5a8d9	0.44855383
12	0x3ec3ba0a	0.38227874
13	0xbebd23c1	-0.3694134
14	0xbf12082a	-0.5704371
15	0xbd699346	-0.057025217
16	0xbe99b356	-0.30019635
17	0x3ec621cd	0.38697663
18	0xbe0cd93f	-0.13754748
19	0x3f0c2472	0.5474311
20	0xbdce25f8	-0.10065836
21	0xbd2c43a0	-0.04205668
22	0xbe96786c	-0.2938875
23	0xbea0d1f2	-0.31410176
24	0xbef4bc74	-0.47800028
25	0xbe311702	-0.17293933
26	0x3efd08d2	0.49420792
27	0x3e51e690	0.20498109
28	0xbecd6691	-0.40117314
29	0x3f1825bc	0.5943258
30	0x3eab9807	0.33514425
31	0xbd338a58	-0.043833107
32	0xbe4631eb	-0.1935498
33	0xbe22cb5a	-0.15897885
34	0xbe8c2ad1	-0.27376416
35	0x3ec16d44	0.37778676
36	0x3e9e3595	0.30900255
37	0xbecfa1e0	-0.40553188
38	0xbed5a2a8	-0.4172566
39	0x3ecc28af	0.3987479
40	0xbeb8ab9f	-0.36068437
41	0x3ecce0ed	0.40015355
42	0xbed56d91	-0.41685155
43	0xbed2504a	-0.4107688
44	0x3e91f1cb	0.28504786
45	0x3ef32ccc	0.47495115
46	0xbeb4142d	-0.35171643
47	0x3e3e588e	0.18588468
48	0x3eb3e0ec	0.3513254
49	0x3e5619a1	0.20908214
50	0xbf04d8c1	-0.5189324
51	0xbf0212ef	-0.5081014
52	0x3f02756b	0.50960416
53	0x3d936ca7	0.07198458
54	0xbeab49ea	-0.3345483
55	0xbec08839	-0.3760393
56	0x3ef8f087	0.48621008
57	0x3eb2d1bf	0.3492565
58	0xbe9f3b04	-0.31099713
59	0xbed09820	-0.40741062
60	0x3eb99e10	0.36253405
61	0x3f0c29eb	0.5475146
62	0xbe40da99	-0.18833388
63	0x3e01cae4	0.12675053
64	0x3f1d0766	0.61339414
65	0xbda4b2e1	-0.08041931
66	0x3efc7202	0.4930573
67	0xbec02924	-0.37531388
68	0xbea45e2d	-0.321031
69	0xbf090030	-0.5351591
70	0x3ea4026a	0.32033092
71	0xbea8d55b	-0.32975277
72	0xbef043ad	-0.46926633
73	0xbefc420c	-0.4926914
74	0x3e6f9f8b	0.23400705
75	0xbd93ffb5	-0.072265066
76	0x3edc3e2f	0.43016192
77	0x3e04ee2b	0.12981479
78	0x3e153fbf	0.14575098
79	0x3ec98e8f	0.39366576
80	0x3ec3aadf	0.38216302
81	0xbec3bfb0	-0.38232183
82	0xbdaa4933	-0.08314743
83	0xbeba6c5b	-0.36410794
84	0xbd8e6a02	-0.06953813
85	0xbebcf605	-0.36906448
86	0x3f0820cc	0.53175044
87	0x3eb1f19e	0.34754652
88	0x3e5d7f94	0.21630698
89	0x3e6daae8	0.23209727
90	0xbee3b7b0	-0.4447608
91	0xbe46fd19	-0.19432487
92	0xbf08ae95	-0.5339139
93	0xbe3302d7	-0.17481552
94	0xbec442f7	-0.3833234
95	0xbe80bb81	-0.25143054
96	0x3ef4ac74	0.4778782
97	0xbed60a38	-0.4180467
98	0x3e23fddd	0.1601481
99	0xbdb06535	-0.08613054
100	0x3e5bcd81	0.21465112
101	0x3f0524cf	0.5200929
102	0x3e8ec9c9	0.27888325
103	0xbea8f39b	-0.32998356
104	0xbdc94dfd	-0.09829328
105	0xbdcffd0b	-0.10155686
106	0x3f097021	0.5368672
107	0xbef81018	-0.4844978
108	0xbe6466f4	-0.22304899
109	0x3ea73c98	0.32663417
110	0xbeb7e41c	-0.3591622
111	0xbeff1622	-0.49821573
112	0xbea515b5	-0.32243124
113	0xbda69ae9	-0.081350155
114	0xbebe5e34	-0.37181246
115	0x3eab51e4	0.33460915
116	0xbdc7f3fd	-0.09763334
117	0x3efc4780	0.492733
118	0xbda6c217	-0.081424884
119	0xbeb482c8	-0.35256028
120	0xbf0f452e	-0.55964935
121	0xbd3cac6b	-0.046062868
122	0x3eefb236	0.46815652
123	0xbedb1795	-0.4279143
124	0xbef83161	-0.48475173
125	0xbe7bbe57	-0.24584328
126	0x3e1613fc	0.14656061
127	0xbecc736c	-0.3993181

fc.2.weight f4 [256, 128]
0	0x3beb0bb8	0.007173028
1	0x3d82df31	0.06390227
2	0x3d968464	0.0734947
3	0xbc9cce9f	-0.019141493
4	0xbdb6ac3e	-0.08919571
5	0xbd50c31f	-0.050967332
6	0xbd01146e	-0.031513624
7	0x3bcf9a25	0.006335514
8	0x3d41855b	0.04724632
9	0x3ceace87	0.028662933
10	0xbd32df7c	-0.043670163
11	0xbd839402	-0.064247146
12	0xbc84f4d2	-0.01623002
13	0xbcb241d7	-0.02175991
14	0xbdaad875	-0.08342067
15	0x3d3bc4c7	0.04584196
16	0x3d7723d0	0.060336888
17	0xbd7bb0a2	-0.061447747
18	0x3c5a062c	0.013307136
19	0xbcde720c	-0.027153991
20	0xbd616b89	-0.055034194
21	0xbdc40277	-0.09570783
22	0x3d8a635c	0.067572325
23	0xbb744c3c	-0.0037276885
24	0xbd7fc560	-0.06244409
25	0xbd9ef165	-0.07760886
26	0xbda1bfae	-0.07897888
27	0xbbe21b1d	-0.006900205
28	0xbd505d59	-0.050870273
29	0x3d1b2174	0.0378737
30	0xbcf56b56	-0.029958408
31	0xbd53027e	-0.05151605
32	0xbd645f4c	-0.055754945
33	0xbc0e5617	-0.008687518
34	0xbd2aa5b8	-0.041661948
35	0xbdb1fb85	-0.08690552
36	0x3c34d026	0.011035955
37	0x3d689c51	0.0567897
38	0xbc596f7b	-0.013271208
39	0x3d97eba4	0.07417992
40	0xbd88b98d	-0.06676016
41	0x3d12ae56	0.03581079
42	0xbd3527f3	-0.04422755
43	0xbdb181d0	-0.08667338
44	0xbd9a957f	-0.07548045
45	0x3c29fa65	0.01037464
46	0x3cf37629	0.02971943
47	0x3d943c8a	0.072381094
48	0x3d1d31a7	0.03837743
49	0x3c6b5c52	0.014365273
50	0x3ccda694	0.025103845
51	0x3dad2d65	0.08455924
52	0x3d8c6ec3	0.068570636
53	0xbca2841b	-0.019838383
54	0xbd8f6ccd	-0.07003174
55	0xbcde571c	-0.027141146
56	0xbd0cadfb	-0.03434561
57	0xbd9dd880	-0.0770731
58	0xbb957701	-0.0045613055
59	0xbb538845	-0.0032277268
60	0xbd8ad892	-0.06779589
61	0xbd6b2cd7	-0.05741581
62	0x3d002c65	0.031292338
63	0x3d03e3e1	0.032199744
64	0xbc4e31a0	-0.012585074
65	0xbcb733e2	-0.022363607
66	0xbd1bdb63	-0.03805102
67	0xbcc623fb	-0.024187079
68	0xbdaabe14	-0.08337036
69	0xbd3d7bf9	-0.046260808
70	0x3c0046e8	0.007829405
71	0x3caef111	0.021355184
72	0xbd8bacfb	-0.06820103
73	0xbd1225c7	-0.03568056
74	0xbd114f1d	-0.03547584
75	0xbdb1df8a	-0.08685215
76	0xbd962742	-0.073317066
77	0x3d9827ab	0.07429441
78	0x3d81750a	0.063211516
79	0xbd3f8a05	-0.046762485
80	0x3bfed5a9	0.007776935
81	0xbc98296e	-0.018574443
82	0xbc403f0d	-0.0117337825
83	0xbc3d1c87	-0.011542446
84	0x3d92eb95	0.0717384
85	0xbdc099a3	-0.09404304
86	0x3d9929a6	0.07478647
87	0x3c863790	0.016383916
88	0x3d7c4b66	0.061595343
89	0x3d5bc214	0.053651884
90	0xbd274f0c	-0.04084687
91	0xbd12e999	-0.035867307
92	0xbcc79d9f	-0.024367152
93	0x3d3cc66a	0.04608766
94	0xbb5e7839	-0.003394617
95	0x3d9f36d2	0.07774128
96	0xbd81470b	-0.063123785
97	0x3d74247e	0.059605114
98	0xbd433714	-0.04765995
99	0xbd678179	-0.05651996
100	0x3d6b3d4e	0.05743151
101	0xba4f6bab	-0.0007912467
102	0x3d45fb0c	0.04833512
103	0xbdbaad52	-0.091150895
104	0xbd189cd0	-0.037258923
105	0xbc8cafe8	-0.017173722
106	0x3c443222	0.011974843
107	0xbd5129ac	-0.051065132
108	0xbdb34e68	-0.08755189
109	0xbbd2eb71	-0.006436758
110	0x3cd971e6	0.026543569
111	0x3d9d5f0e	0.07684146
112	0xbd42bb1e	-0.04754173
113	0x3c4fab28	0.012675084
114	0xbd85a282	-0.065251365
115	0xbd7a5e9b	-0.06112538
116	0x3cb49c75	0.02204726
117	0xbdb5a922	-0.0887015
118	0x3d45187a	0.048119046
119	0x3cdf4af7	0.027257426
120	0x3d798723	0.060919892
121	0x3ca7d0c5	0.020485291
122	0x3d182928	0.037148625
123	0x3d89dd5c	0.06731674
124	0xbd71a661	-0.058996562
125	0xbd137f4f	-0.036010083
126	0x3c5d15c1	0.013493956
127	0x3d28c034	0.041198924
128	0xbdaea92c	-0.08528361
129	0xbd6db344	-0.05803229
130	0xbd9781bd	-0.073977925
131	0x3e2d11a0	0.16901255
132	0x3d93d6e7	0.07218724
133	0x3d83b8b7	0.06431716
134	0x3d10bc0c	0.035335585
135	0xbc0096f0	-0.007848486
136	0x3d881146	0.0664392
137	0x3e300a2f	0.17191385
138	0xbd407a5f	-0.046991702
139	0x3e574879	0.2102374
140	0x3e33492a	0.17508379
141	0x3b3557f4	0.0027670832
142	0xbd3f59de	-0.046716563
143	0xbabf7091	-0.0014605691
144	0xbd87f9f4	-0.06639472
145	0x3e14d5fa	0.1453475
146	0xbdb9064b	-0.090344034
147	0x3d981637	0.07426112
148	0xbcea12e0	-0.028573453
149	0x3d2d6aa4	0.04233803
150	0xbd39400e	-0.045227103
151	0x3ccb43b3	0.024812555
152	0x3c778d79	0.015109413
153	0xbdcbc444	-0.09949544
154	0x3d9dcfbd	0.077056386
155	0x3c833768	0.01601763
156	0xbe2f1fa0	-0.17101908
157	0x3e2ef4c4	0.17085558
158	0x3e275127	0.16339551
159	0x3d8a93b4	0.067664534
160	0xbd014cd1	-0.0315674
161	0xbcd8cb6d	-0.026464188
162	0xbd16a5a9	-0.03677908
163	0x3dacca93	0.084370755
164	0x3e2ec36d	0.17066737
165	0xbdad62c8	-0.08466107
166	0xbc1fd874	-0.009756196
167	0x3dd2944a	0.1028219
168	0xbb774e06	-0.0037735715
169	0x3e203076	0.15643486
170	0xbd3574f1	-0.044300977
171	0x3daba311	0.08380712
172	0x3cb74022	0.022369448
173	0x3d947f12	0.07250799
174	0xbe06cad9	-0.13163318
175	0x3cdca454	0.026933827
176	0x3e48c239	0.1960534
177	0x3e1c8ee9	0.15288891
178	0x3cc4d0f9	0.024025427
179	0xbc846e86	-0.016165983
180	0x3e509f30	0.20373225
181	0xbbcd6af9	-0.0062688556
182	0xbdac209c	-0.08404657
183	0xbd254c6c	-0.040356085
184	0x3dc99579	0.09842963
185	0x3da55f40	0.08074808
186	0x3cc8c4f8	0.024507985
187	0xbdb6ced0	-0.08926165
188	0x3e03f005	0.12884529
189	0x3e06a2a9	0.13147987
190	0xbd8a3e47	-0.0675016
191	0xbcbc5e7b	-0.02299427
192	0x3e2b590f	0.16733192
193	0xbdac67a5	-0.08418206
194	0x3e0116d8	0.1260637
195	0x3cb1b8ec	0.021694623
196	0x3d7f97be	0.062400572
197	0xbdaa5a8e	-0.08318053
198	0x3e1c7e4b	0.15282552
199	0xbbdc3220	-0.0067198426
200	0xbcab5ce8	-0.020918325
201	0xbcf15f9c	-0.029464535
202	0x3e327bee	0.17430088
203	0xbdc273d0	-0.09494746
204	0x3d9d7134	0.076876074
205	0x3bf78367	0.007553506
206	0x3da473fa	0.08029933
207	0x3d67b278	0.056566685
208	0x3deb1500	0.11478615
209	0x3d353ba4	0.04424633
210	0xbe299933	-0.16562347
211	0x3d24a09f	0.040192243
212	0xba4817cf	-0.0007632942
213	0x3dc2c52a	0.09510262
214	0x3e0d7d9a	0.13817444
215	0x3e26b44f	0.1627972
216	0x3e135cbc	0.14390844
217	0x3b95e2c2	0.004574151
218	0xbc34b28d	-0.011028898
219	0xbdb20a4a	-0.08693369
220	0xbcff846a	-0.03119107
221	0x3d85ba0f	0.065296285
222	0x3b288870	0.0025716089
223	0xbd95baef	-0.073110454
224	0x3e17e0b6	0.14831814
225	0x3cb43b89	0.022001045
226	0xbcc4fbe9	-0.024045901
227	0xbce922c7	-0.028458966
228	0x3dd3c0c0	0.103394985
229	0x3e5bddfd	0.214714
230	0x3d89b678	0.06724256
231	0xbc9f53f5	-0.019449214
232	0x3db87bcc	0.090079874
233	0xba26ce2a	-0.00063631183
234	0x3dc58ab2	0.09645595
235	0xbd270ab9	-0.04078171
236	0x3d8b138a	0.06790836
237	0x3d559e63	0.052153002
238	0xbcc21fab	-0.023696741
239	0xbd5fa610	-0.05460173
240	0xbca82e35	-0.020529846
241	0xbd26890b	-0.040658038
242	0x3d926d9e	0.07149814
243	0x3d3b2738	0.0456917
244	0x3d121fd6	0.035674892
245	0x3d7ef096	0.06224116
246	0xbd16737c	-0.03673123
247	0xbd3934c4	-0.045216337
248	0xbe2c7706	-0.16842279
249	0xbdc3c92b	-0.09559854
250	0x3e2b1821	0.16708423
251	0xbdd6b63e	-0.10483979
252	0xbd9677e4	-0.07347086
253	0xbc8d988b	-0.017284652
254	0x3de325eb	0.11091217
255	0xbd8672f2	-0.06564893

fc.2.bias f4 [256]
0	0x3bf05da9	0.007335384
1	0x3e929887	0.28631994
2	0xbd5ed14e	-0.054398827
3	0x3ca8edac	0.020621143
4	0x3c981914	0.018566646
5	0x3c264c63	0.010150048
6	0x3d5fe824	0.054664746
7	0xbcd41939	-0.025890933
8	0xbdccbb3b	-0.09996649
9	0x3e282152	0.1641896
10	0xbc637162	-0.013882013
11	0x3e981b2b	0.29708228
12	0x3da06893	0.07832446
13	0xbd532543	-0.051549207
14	0x3b1b2fd9	0.0023679642
15	0xbd85a859	-0.065262504
16	0x3e52a278	0.2056979
17	0xbd68f7ac	-0.056876823
18	0x3e1fceda	0.15606251
19	0x3e477b81	0.19480707
20	0x3e936597	0.28788444
21	0xbd071534	-0.032979205
22	0xbdc8255a	-0.09772749
23	0xbd985160	-0.07437396
24	0x3c307312	0.010769622
25	0x3ea5d505	0.32389084
26	0xbdbd4f9c	-0.092437
27	0x3d8bc4d8	0.06824654
28	0x3da696a1	0.08134199
29	0x3e775722	0.24154332
30	0x3e5102fb	0.20411293
31	0x3e56cfd8	0.20977724
32	0x3e05e775	0.13076575
33	0xbc50d6f9	-0.012746566
34	0x3e977089	0.29578045
35	0x3e8134bc	0.25235546
36	0x3e329c7d	0.17442508
37	0x3e7969ff	0.2435684
38	0xbb1c3883	-0.0023837395
39	0x3e778c5e	0.2417464
40	0x3e24e45a	0.16102734
41	0xbd91b956	-0.07115428
42	0xbd99d0de	-0.075105414
43	0x3e1a503e	0.15069672
44	0x3e87ab79	0.2649801
45	0xbdd96088	-0.10614115
46	0x3d56bdf3	0.052427243
47	0x3df78db2	0.12087573
48	0xbdcada84	-0.0990496
49	0x3e8df92a	0.2772916
50	0xbd72baf5	-0.059260327
51	0x3d3064be	0.043064825
52	0x3e3253ce	0.17414781
53	0x3b924041	0.004463226
54	0x3e85f06a	0.26159984
55	0xbbd7cd59	-0.0065857586
56	0x3e997e72	0.29979283
57	0x3dd64b5a	0.10463591
58	0x3e8e5c2e	0.27804703
59	0x3ea24877	0.3169591
60	0x3b97d647	0.004633698
61	0x3e386eae	0.18010971
62	0x3ad18868	0.0015986087
63	0x3e913bcc	0.28365934
64	0xbdd54350	-0.104132295
65	0x3c200698	0.009767197
66	0x3d02a3e4	0.03189458
67	0x3e1f23ec	0.15541047
68	0xbd1e6f34	-0.03868027
69	0xbbba5a34	-0.0056870226
70	0x3d18abcd	0.037273217
71	0xbd6dded8	-0.05807385
72	0xbca64a02	-0.020298962
73	0x3e5393b3	0.20661812
74	0x3e7eaf84	0.24871641
75	0x3e817c35	0.25290075
76	0xbc155688	-0.009114869
77	0xbd62788a	-0.055290736
78	0x3e8676ae	0.2626242
79	0x3ea0b9d1	0.31391767
80	0x3e4a1b3a	0.19736949
81	0x3e9ab7a5	0.30218235
82	0x3e23bc93	0.15989904
83	0x3e84aa23	0.25911054
84	0xbb778f54	-0.003777464
85	0x3e302f38	0.17205513
86	0x3e894ca1	0.26816276
87	0x3e6fc985	0.23416717
88	0xbdbb276a	-0.09138377
89	0xbdadd53b	-0.08487936
90	0xbc9e8b02	-0.019353393
91	0xbd0a33e7	-0.033740904
92	0xbda34eb3	-0.07973995
93	0x3ea7f43c	0.32803524
94	0x3da3295c	0.07966873
95	0xbc8ec209	-0.017426508
96	0xbda64bfe	-0.08119963
97	0x3e911d15	0.283425
98	0x3c502af4	0.012705553
99	0x3e725dbf	0.23668574
100	0x3c38f855	0.011289676
101	0x3e162c28	0.14665282
102	0xbd628373	-0.05530114
103	0x3d842f54	0.064543396
104	0xbd1e0f94	-0.038589075
105	0x3e75579c	0.23959202
106	0xbd6d1efe	-0.057890885
107	0x3e40b9b1	0.18820836
108	0x3e8184af	0.25296542
109	0x3e9ddaeb	0.30831084
110	0xbd8c56de	-0.06852506
111	0x3e237746	0.15963468
112	0x3cb7877d	0.022403473
113	0x3b9af6a2	0.004729108
114	0xbd8a437c	-0.06751153
115	0x3cab9502	0.020945076
116	0xbd3a5750	-0.045493424
117	0xbd9a4ed7	-0.07534569
118	0x3e5a6a7b	0.21329682
119	0x3e16cf88	0.14727604
120	0x3e8b0cd2	0.2715822
121	0x3e323fab	0.174071
122	0x3d12563f	0.035726782
123	0x3e0b22cc	0.13587493
124	0x3e36f60b	0.17867295
125	0x3e72eb28	0.23722517
126	0xbc2c5fd8	-0.010520898
127	0x3e19afa0	0.15008402
128	0xbd887057	-0.06662052
129	0xbdcef242	-0.10104801
130	0x3e945429	0.2897046
131	0x3c470457	0.012147031
132	0x3d1760ab	0.036957424
133	0xbd11b5b5	-0.03557368
134	0x3ea528da	0.3225773
135	0x3e499289	0.19684805
136	0x3c9f70d8	0.019462988
137	0x3e80c609	0.2515109
138	0xbd7d0860	-0.061775565
139	0x3e1fd84c	0.15609854
140	0x3de5438b	0.111945234
141	0x3e61cf0d	0.2205164
142	0xbd96034e	-0.07324849
143	0xbd4443e4	-0.047916308
144	0xbc16482a	-0.009172479
145	0x3e7df1f5	0.2479933
146	0xbd80c3b9	-0.06287331
147	0x3e5e9301	0.21735765
148	0xbcf9aa57	-0.030476732
149	0xbd94ff2e	-0.07275234
150	0x3ea9bc06	0.33151263
151	0x3d56f992	0.052484103
152	0x3e11e3c8	0.14247048
153	0x3dc47e31	0.095943816
154	0x3c9996ea	0.01874872
155	0x3d71bf4c	0.059020326
156	0x3d4e2654	0.05032952
157	0x3ce21246	0.027596604
158	0xbdb235a8	-0.0870164
159	0xbd0a4926	-0.033761166
160	0xbd1812fb	-0.037127476
161	0xbc022392	-0.007943051
162	0x38c1cf96	9.241623e-05
163	0x3ea743cd	0.32668915
164	0x3cc433be	0.023950454
165	0x3e804dab	0.25059256
166	0x3e1e993b	0.1548814
167	0x3e9f60a6	0.31128424
168	0x3e94e8c0	0.29083824
169	0xbd1c0b49	-0.0380967
170	0x3e8d92a7	0.2765095
171	0x3e9030c5	0.28162208
172	0x3cb13d65	0.02163572
173	0x3e9af9a5	0.3026859
174	0x3bc8c1e1	0.006126628
175	0x3e8d5116	0.27600926
176	0x3e2d43c8	0.16920388
177	0x3e3087d8	0.1723932
178	0xbd101752	-0.03517849
179	0xbc924f0f	-0.017859964
180	0x3bbf5aad	0.005839667
181	0x3dd410dc	0.10354778
182	0x3e962ce7	0.29331133
183	0xbc90cc3b	-0.01767551
184	0x3e705067	0.23468171
185	0x3e42e257	0.19031654
186	0x3e4bfe74	0.19921285
187	0xbd86caa0	-0.065816164
188	0xbdfa4e35	-0.12221948
189	0x3e872fa9	0.2640355
190	0x3e27f2d5	0.16401227
191	0x3e1d2271	0.1534517
192	0x3e8bec08	0.27328515
193	0x3e022f4a	0.12713352
194	0x3dbbfa5b	0.09178611
195	0x3d23602f	0.03988665
196	0x3e83298a	0.2561763
197	0xbc84e75e	-0.016223606
198	0x3e45bf2c	0.19311208
199	0x3e934a80	0.28767776
200	0xbc5bba37	-0.013411096
201	0x3e2927c7	0.1651908
202	0x3cab4674	0.020907618
203	0xbdb25a71	-0.087086566
204	0x3e9cbe4e	0.3061394
205	0xbc868bb8	-0.016424045
206	0xbe0c5a8e	-0.13706419
207	0xbd8ff9c4	-0.07030061
208	0x3d8dd2c2	0.069249645
209	0x3dfff6b2	0.12498225
210	0x3d5a6d15	0.053326685
211	0x3e9a307b	0.30115113
212	0x3e6f5bc0	0.23374844
213	0xbd5e3010	-0.054245055
214	0x3d466ac7	0.048441675
215	0x3e8795f8	0.26481605
216	0x3ea00713	0.31255397
217	0xbd37bccc	-0.044857785
218	0x3e8e7f68	0.27831578
219	0x3e46a3e6	0.1939846
220	0xbdd8966a	-0.10575564
221	0xbd5324fc	-0.051548943
222	0x3d8d0ff3	0.06887808
223	0x3d5352ef	0.051592764
224	0x3c85725c	0.016289882
225	0x3e357d43	0.17723565
226	0x3e07dbe3	0.13267474
227	0x3d112649	0.035436902
228	0x3d2178b5	0.039421756
229	0x3e96a427	0.29422113
230	0x3da9f664	0.082989484
231	0xbd2ba23a	-0.04190276
232	0x3e0f541d	0.1399693
233	0x3e7fe0b0	0.24988055
234	0x3d2d83f0	0.042362154
235	0x3e71f99f	0.23630379
236	0x3e8993e3	0.2687064
237	0xbdb93508	-0.09043318
238	0x3e61025b	0.21973555
239	0xbd7fa30c	-0.062411353
240	0xbd7ec53a	-0.06219981
241	0x3e31a89a	0.17349473
242	0x3e8611c4	0.2618543
243	0x3cc6c92b	0.024265846
244	0x3eabfc0d	0.33590737
245	0x3ea29198	0.31751704
246	0x3d840153	0.06445565
247	0x3bc4d0e0	0.006006345
248	0x3d3f050b	0.04663567
249	0x3e7c0535	0.24611361
250	0xbd80fb94	-0.06297985
251	0xbcc09cc6	-0.023512255
252	0xbd860dfe	-0.065456375
253	0x3dd55187	0.10415941
254	0xbdc0fe5b	-0.094235145
255	0x3e8d4adb	0.27596173

fc.4.weight f4 [2, 256]
0	0xbd4f1568	-0.050557524
1	0x3dbdcff7	0.09268182
2	0xbcb5edbe	-0.02220809
3	0xbd2aca71	-0.04169697
4	0x3ca11547	0.019663466
5	0x3c8dd8ce	0.017315295
6	0xbd222b3e	-0.03959202
7	0x3d103ef6	0.035216294
8	0xbd4271d9	-0.047471855
9	0x3cb71dc9	0.02235307
10	0x3d6ea4d0	0.058262646
11	0x3e2f9b68	0.17149127
12	0x3b9f6e83	0.004865469
13	0xbcc92d04	-0.024557598
14	0xbd2327ad	-0.03983276
15	0xbd5b73c5	-0.053577203
16	0x3e3808ce	0.17972109
17	0xbca2ed40	-0.01988852
18	0x3d4c89e2	0.049936183
19	0x3e0f1708	0.1397363
20	0x3e23e835	0.16006549
21	0xbd2860ea	-0.04110805
22	0xbd0b1c22	-0.033962376
23	0xbd4655a2	-0.04842151
24	0x3bf9c1ce	0.0076219803
25	0x3e1c9cd3	0.15294199
26	0x3cb523f7	0.022111876
27	0xbc812e48	-0.015769139
28	0x3d123fde	0.03570544
29	0x3e0295e7	0.12752496
30	0x3e45e22f	0.19324563
31	0x3e0703f3	0.131851
32	0x3dcc365b	0.09971305
33	0xbc93a1e4	-0.018021531
34	0x3e3daf63	0.18523936
35	0x3deab321	0.114599474
36	0x3e143da6	0.14476642
37	0x3e22c60c	0.15895861
38	0xbb8f3b08	-0.0043710507
39	0x3df73934	0.120714575
40	0x3dfa1872	0.12211694
41	0xbbe93d7b	-0.0071179247
42	0xbd6f460f	-0.058416422
43	0x3e2e5d98	0.1702789
44	0x3e1239a4	0.142798
45	0x3c246422	0.010033639
46	0xbd518e08	-0.051160842
47	0xbb6b3848	-0.00358917
48	0xbc011464	-0.007878397
49	0x3e412e46	0.18865308
50	0xbc972de4	-0.0184545
51	0x3b34c1b7	0.0027581283
52	0x3e250e68	0.16118777
53	0x3cf8bef3	0.03036449
54	0x3e2e91e0	0.17047834
55	0xbcaa6272	-0.020798896
56	0x3e3af42b	0.18257205
57	0x3c63ded2	0.013908105
58	0x3df10d47	0.117701106
59	0x3e1f780d	0.1557314
60	0xbc7eb3d0	-0.0155458
61	0x3e373b7c	0.17893785
62	0xbb8a0cd3	-0.0042129545
63	0x3dc155a6	0.09440164
64	0xbc5bb040	-0.0134087205
65	0x3c10cf3a	0.008838469
66	0xbd024b26	-0.03180995
67	0x3df27fce	0.11840783
68	0x3ca7280c	0.020404838
69	0x3c1506b6	0.009095838
70	0xbca1bdc8	-0.019743815
71	0xbcc1e5ab	-0.023669085
72	0x3c21c03b	0.0098724915
73	0x3e2c0605	0.16799171
74	0x3e351650	0.17684293
75	0x3e127544	0.14302546
76	0xbcb53353	-0.0221192
77	0x3d06ca18	0.032907575
78	0x3d3fb49e	0.04680311
79	0x3e013552	0.12617996
80	0x3e091cde	0.13389918
81	0x3dff2ea9	0.124600716
82	0x3e29655e	0.16542575
83	0x3e29d98e	0.16586897
84	0xbc1bb1f4	-0.009502877
85	0x3d671c7a	0.05642364
86	0x3e0b71f0	0.13617682
87	0x3e081ad8	0.1329149
88	0xbd29a38e	-0.041415744
89	0x3d03fce6	0.032223605
90	0xbd05290d	-0.032509852
91	0xbd0f34db	-0.034962516
92	0x3ca3880f	0.019962339
93	0x3e44033a	0.19141856
94	0x3ce02cf0	0.027365178
95	0x3bc5f1ac	0.0060407724
96	0x3d0fc252	0.035097428
97	0x3e393c98	0.18089521
98	0x3b985862	0.004649208
99	0x3e1dc324	0.15406471
100	0x3cd4c308	0.025971904
101	0x3d933301	0.071874626
102	0x3cb58c5c	0.022161655
103	0xbd204f2f	-0.039138015
104	0x3c108a6f	0.008822068
105	0x3e311e58	0.17296731
106	0x3c9bede8	0.019034341
107	0x3d91ff7c	0.07128808
108	0x3e269cd9	0.1627077
109	0x3e2ceb2a	0.16886583
110	0x3e1145b7	0.1418675
111	0x3e3793a6	0.17927417
112	0xbd2c37f2	-0.04204554
113	0xbd31e8b6	-0.04343482
114	0x3d084a04	0.03327371
115	0xbd3db6f4	-0.046317056
116	0xbb568985	-0.0032735777
117	0x3c2c126d	0.01050244
118	0x3d88f96a	0.06688197
119	0x3e1c2c14	0.1525119
120	0x3e529c66	0.20567474
121	0x3e0f782c	0.14010686
122	0xbc8baf85	-0.017051468
123	0xbc8d42b9	-0.01724373
124	0x3e32ed86	0.1747342
125	0x3dfe8246	0.124271914
126	0xbb93eb63	-0.0045141443
127	0x3df8b062	0.12143017
128	0xbcc9da11	-0.024640115
129	0xbcb22ffd	-0.021751398
130	0x3e51e11d	0.2049603
131	0xbc373206	-0.01118136
132	0x3b8cfad4	0.004302362
133	0x3caa5090	0.020790368
134	0x3e286bd0	0.16447377
135	0x3e36b9d7	0.1784433
136	0xbbdb9484	-0.006701054
137	0x3df4ef12	0.119596615
138	0xbb1bc9f0	-0.0023771487
139	0x3d83b8fa	0.06431766
140	0x3d113c0f	0.035457667
141	0x3e12de51	0.1434262
142	0xbd30a5de	-0.043126933
143	0xbca7175c	-0.02039688
144	0x39666b3a	0.00021974454
145	0x3e2ee6d6	0.17080244
146	0xbd761521	-0.060078744
147	0x3e270f1d	0.16314359
148	0x3d1917dd	0.037376273
149	0xbc170544	-0.009217564
150	0x3e2fd019	0.17169227
151	0x3cfcc0b5	0.030853609
152	0x3e0899bb	0.13339894
153	0x3d2ddae3	0.042445075
154	0xbc78f2f8	-0.015194647
155	0x3cb8dbe1	0.022565784
156	0xbd53c752	-0.05170376
157	0xbc61525e	-0.013752548
158	0xbc1fccf6	-0.009753456
159	0x3bcbb1d4	0.006216267
160	0x3e266be5	0.16252096
161	0xbc0a3cef	-0.008437379
162	0xbc6adb7f	-0.0143345585
163	0x3e0d8b7e	0.13822743
164	0x39d3286d	0.00040275176
165	0x3d9b95a2	0.075968996
166	0x3e164a14	0.14676696
167	0x3e0c8284	0.13721663
168	0x3dfa13af	0.122107856
169	0xbd3a6e99	-0.04551563
170	0x3e24bb68	0.16087115
171	0x3e0059ba	0.12534228
172	0x3b9e1338	0.0048240684
173	0x3e0f6dee	0.14006779
174	0xbcf52671	-0.029925557
175	0x3e11d68e	0.14242002
176	0x3d369295	0.044573385
177	0x3e27db62	0.16392282
178	0x3c789013	0.015171069
179	0x3b2b694a	0.0026155286
180	0xbb629440	-0.0034573227
181	0xbc844028	-0.016143873
182	0x3e069dbd	0.1314611
183	0x3b210e88	0.0024575312
184	0x3dd93373	0.10605516
185	0x3de39b34	0.11113587
186	0x3dd4564c	0.10368022
187	0x3bc82408	0.006107811
188	0x3d781606	0.06056788
189	0x3d5b6ae3	0.053568732
190	0x3d6ec71a	0.058295347
191	0x3e03ff58	0.12890375
192	0x3e120c97	0.14262615
193	0x3d83a3eb	0.06427749
194	0x3b53cf01	0.003231943
195	0x3b48a192	0.0030613882
196	0x3e0f6577	0.1400355
197	0xbd3c5162	-0.04597605
198	0x3e2e6c7f	0.17033575
199	0x3df082d5	0.11743704
200	0x3c75dc93	0.015006202
201	0x3dd29df8	0.102840364
202	0x3cb913d4	0.022592463
203	0xbcc2f557	-0.023798628
204	0x3e0c3e2f	0.13695596
205	0x3d1d0f67	0.038344767
206	0x3cf04368	0.029329017
207	0xbcc99f07	-0.024611963
208	0x3db866d2	0.090039864
209	0x3df225b0	0.118235946
210	0x3cd0ced2	0.025489245
211	0x3e0b3901	0.13595964
212	0x3e35d42a	0.17756715
213	0xbd7c9cff	-0.06167316
214	0xba463cb2	-0.0007562145
215	0x3e1f0994	0.15530998
216	0x3e257c51	0.16160704
217	0xbd08069c	-0.03320943
218	0x3e2ca49c	0.16859668
219	0x3e4454e5	0.1917301
220	0xbcdf2146	-0.027237546
221	0xbd6fa10e	-0.058503203
222	0xbb298f90	-0.0025872923
223	0x3cbc27a1	0.022968115
224	0xbbb7eb70	-0.005612783
225	0x3e0b2f24	0.13592201
226	0x3e1ce0da	0.15320149
227	0xbcf40d9a	-0.029791642
228	0x3aae329c	0.0013290229
229	0x3e1f6990	0.15567613
230	0xbc55ad78	-0.013041846
231	0x3d5efade	0.054438464
232	0xbcafeba0	-0.02147466
233	0x3e033232	0.12812117
234	0xbc1929b8	-0.009348325
235	0x3e229d81	0.15880395
236	0x3e41bde4	0.18920094
237	0xbd3dcaec	-0.0463361
238	0x3e02bd6e	0.12767574
239	0x3cd103b0	0.025514454
240	0xbcb933a6	-0.022607636
241	0x3e28af3c	0.16473097
242	0x3e2e38f6	0.17013916
243	0xbbd9877a	-0.0066384645
244	0x3e3c710f	0.18402503
245	0x3e0b61fd	0.13611598
246	0xbca33356	-0.01992194
247	0xbc7269be	-0.014795719
248	0x3cd39624	0.025828429
249	0x3da03986	0.07823472
250	0x3d247751	0.04015285
251	0xbc935c0e	-0.017988231
252	0x3a5cf900	0.0008429438
253	0x3d84bff8	0.06481928
254	0xbc1d4722	-0.009599479
255	0x3e12a88b	0.14322107

fc.4.bias f4 [2]
0	0x3ec23830	0.37933493
1	0x3ed74838	0.42047286

net.1.0.weight f4 [128, 4]
0	0x3e06dba5	0.13169725
1	0xbacf99df	-0.0015838704
2	0x3cb06051	0.021530302
3	0x3c8cb9f3	0.017178511
4	0x3e944b89	0.2896388
5	0xbe08ebae	-0.13371155
6	0xbd11cb69	-0.035594378
7	0xbd4327d6	-0.047645412
8	0xbe0ebebc	-0.13939947
9	0xbcacb540	-0.02108252
10	0x3d8145a9	0.06312115
11	0x3dad42a3	0.084599756
12	0x3e13d2fe	0.14435956
13	0x3e550199	0.2080139
14	0xbe97cde0	-0.29649258
15	0xbe9c5bc8	-0.30538774
16	0xbdd226f1	-0.10261334
17	0xbdca6d08	-0.09884077
18	0xbe521eca	-0.20519558
19	0xbeb1a7a7	-0.3469822
20	0xbde1e864	-0.11030653
21	0xbe979ec7	-0.29613325
22	0x3ce77d90	0.028258115
23	0x3de21635	0.11039392
24	0x3ecbe9a5	0.39826694
25	0xbe1f657b	-0.15566055
26	0x3e0771af	0.1322696
27	0x3e54fdf3	0.20799999
28	0xbf167e07	-0.5878605
29	0x3dfd71a1	0.123751886
30	0xbe00df40	-0.12585163
31	0x3e332ea0	0.17498255
32	0x3e8629bb	0.26203713
33	0x3df66469	0.120308705
34	0xbe57b28b	-0.21064202
35	0xbea9ccc3	-0.33164033
36	0x3e10b0c6	0.14129934
37	0x3d633caf	0.055477794
38	0x3e23372c	0.15939015
39	0x3cd75e59	0.026290106
40	0x3f1828f0	0.59437466
41	0xbe7aaea1	-0.24480678
42	0x3e40a447	0.18812667
43	0x3ec701ed	0.38868657
44	0x3e3c1b31	0.18369748
45	0xbe995e71	-0.29954866
46	0x3e3d3b9b	0.18479769
47	0x3eb5d3c2	0.3551312
48	0x3c17128e	0.009220732
49	0xbe9a5988	-0.30146432
50	0xbda82a86	-0.08211236
51	0x3c9cd8a3	0.01914627
52	0x3e6ac153	0.2292531
53	0xbec541e8	-0.38526845
54	0xbdc1a945	-0.09456114
55	0x3d2b8e92	0.041884013
56	0xbe0f4cde	-0.13994166
57	0x3ea53ef2	0.32274586
58	0x3e35ab9a	0.17741242
59	0xbeaee62f	-0.3415999
60	0xbdd0f82f	-0.10203587
61	0xbb9776d6	-0.0046223206
62	0xbd3ec228	-0.04657188
63	0xbd975fb4	-0.07391301
64	0xbf1e9ed9	-0.6196113
65	0x3e0f2a57	0.13980995
66	0x3e28739b	0.1645035
67	0x3e7963f5	0.24354537
68	0xbe28bb11	-0.1647761
69	0xbd72aff2	-0.059249826
70	0x3c3c93a6	0.0115098115
71	0x3ea95aac	0.3307699
72	0xbec466cc	-0.38359678
73	0x3c8ff9fa	0.017575253
74	0x3da15146	0.0787683
75	0x3d9e921b	0.07742711
76	0x3e828b56	0.2549693
77	0x3e6d9e26	0.2320486
78	0xbec1a46a	-0.3782075
79	0xbed5d2c4	-0.41762364
80	0xbeb4ef91	-0.35339025
81	0x3da94b41	0.08266307
82	0x3e9b6604	0.3035127
83	0x3f07e568	0.5308442
84	0x3d4b5096	0.0496374
85	0xbcdf26f1	-0.027240248
86	0xbb90ea79	-0.0044224826
87	0xbcb3dfca	-0.021957297
88	0x3eca3946	0.3949682
89	0xbdb653a6	-0.089026734
90	0xbd584883	-0.052803528
91	0xbd830099	-0.06396598
92	0x3ee0aeb5	0.4388329
93	0x3c65040e	0.0139780175
94	0x3dd2f551	0.10300697
95	0x3de18772	0.11012162
96	0xbe2d0ad5	-0.16898663
97	0x3e4025f2	0.18764475
98	0x3d92b8ed	0.07164178
99	0xbe2efa85	-0.17087753
100	0xbdcec626	-0.100963876
101	0xbd3b922e	-0.045793705
102	0xbe4d2453	-0.20033388
103	0xbe44668f	-0.19179748
104	0xbd9a73e1	-0.075416334
105	0xbddff15c	-0.109347075
106	0xbeb701fd	-0.35743704
107	0xbe5fd2ee	-0.21857807
108	0xbdf10341	-0.11768199
109	0x3e65b091	0.22430636
110	0x3dba8337	0.091070585
111	0x3e5a2f56	0.2130712
112	0xbf330abd	-0.6993826
113	0x3eae39db	0.34028515
114	0x3e18afe1	0.14910842
115	0xbcf20fb6	-0.029548507
116	0xbe81c440	-0.2534504
117	0x3e8c0bb9	0.27352694
118	0xbe84cd6e	-0.2593798
119	0xbd9946e3	-0.07484224
120	0x3ebf2863	0.373355
121	0x3e0b12a9	0.13581337
122	0x3ebf6b50	0.3738656
123	0x3ef49131	0.47767022
124	0xbe1ca593	-0.15297537
125	0x3c9070b9	0.017631875
126	0xbd9fd417	-0.07804125
127	0xbdcec57f	-0.10096263
128	0x3e3c4e62	0.18389276
129	0xbdf20ea4	-0.11819199
130	0xbd876490	-0.06610978
131	0xbe2e6694	-0.17031318
132	0x3e2f1c43	0.17100625
133	0x3d187c8a	0.037228145
134	0x3e4339b2	0.19064978
135	0x3ea747e5	0.3267204
136	0x3e308a31	0.17240216
137	0x3de5c64c	0.11219463
138	0xbd8597c0	-0.06523085
139	0xbe149dd9	-0.14513339
140	0xbe141bf4	-0.14463788
141	0x3e0f3d30	0.13988185
142	0x3ec2ef63	0.38073263
143	0x3e4748c6	0.19461355
144	0x3d446f82	0.047957905
145	0x3e5bec98	0.21476972
146	0xbd49ed4d	-0.049298573
147	0x3e20bd39	0.15697183
148	0x3e68dbde	0.22740123
149	0xbe4cc472	-0.19996813
150	0x3e19de48	0.150262
151	0x3e8ad82c	0.2711805
152	0x3ed05c36	0.4069535
153	0xbe87fe8c	-0.2656139
154	0xbe5c8921	-0.21536686
155	0xbef167f5	-0.47149625
156	0x3e7fdff9	0.24987783
157	0xbef5fe5a	-0.48045617
158	0xbe9de449	-0.3083823
159	0xbf0ba0aa	-0.5454203
160	0xbeec91aa	-0.46204883
161	0x3e1a45e9	0.15065731
162	0x3e033e86	0.1281682
163	0x3ec2cd48	0.38047242
164	0xbe1f6ba3	-0.15568404
165	0xbe394f6b	-0.18096702
166	0xbe0417cb	-0.12899701
167	0x3e93e154	0.2888285
168	0x3e98ea2b	0.29866156
169	0x3e2542d5	0.16138776
170	0x3e2c999a	0.1685547
171	0x3ee4e990	0.44709444
172	0x3e9b6fcf	0.3035874
173	0x3d0b505e	0.03401219
174	0x3dc04360	0.09387851
175	0xbdb5d2f2	-0.08878125
176	0x3c1a17b3	0.009405064
177	0x3ddc69d2	0.10762371
178	0xbea8921a	-0.32923967
179	0x3e0d9492	0.13826206
180	0xbeaf023a	-0.34181386
181	0x3eaddc4d	0.3395714
182	0xbd8338ce	-0.06407319
183	0x3e93df17	0.28881142
184	0xbf37166a	-0.71518576
185	0xbe5f620d	-0.21814747
186	0x3de541d2	0.11194195
187	0xbe98ca68	-0.29841924
188	0x3ec67aa4	0.38765442
189	0xbe093293	-0.13398199
190	0xbdd9ec66	-0.106407925
191	0x3dd70e1f	0.1050074
192	0x3e1708ce	0.14749452
193	0x3ec6151b	0.38687977
194	0x3dc25f19	0.09490795
195	0x3ea042f4	0.3130108
196	0x3e743c50	0.23851132
197	0xbe4124d7	-0.1886171
198	0xbd2fe496	-0.042942606
199	0xbe32684b	-0.17422597
200	0xbe9a9567	-0.3019211
201	0x3e9c56c3	0.30534944
202	0xbe18af0f	-0.1491053
203	0xbeb71c87	-0.35763952
204	0x3e9e970a	0.3097461
205	0xbe3c4041	-0.18383886
206	0x3e542cf3	0.20720272
207	0xbd1995af	-0.037496265
208	0xbde244dc	-0.1104829
209	0xbe844c34	-0.25839388
210	0xbe47914b	-0.19489019
211	0xbe2eee05	-0.17082985
212	0x3e13bcdb	0.14427511
213	0x3ddda660	0.10822749
214	0x3dd8a5ce	0.105785
215	0x3ea994bf	0.33121297
216	0x3f3053c5	0.6887782
217	0xbcd868a2	-0.02641708
218	0x3e11e6e3	0.14248233
219	0x3e8490f2	0.25891834
220	0xbc5127d4	-0.012765843
221	0x3e82e2a2	0.25563532
222	0xbe4ce511	-0.20009257
223	0xbeb8c37a	-0.36086637
224	0x3f03de8f	0.5151147
225	0x3ce083e8	0.027406648
226	0x3e641d6d	0.2227685
227	0x3e6fcdd2	0.23418358
228	0xbcc5d0fd	-0.024147505
229	0x3e030517	0.1279491
230	0x3efbdf00	0.49193573
231	0x3ed7dd50	0.42161036
232	0x3eadf027	0.33972284
233	0xbdc69bc2	-0.09697677
234	0xbda0f857	-0.07859867
235	0xbdcdafa3	-0.10043266
236	0x3f0df121	0.5544606
237	0x3da85ea9	0.0822118
238	0xbd801f32	-0.0625595
239	0x3e97c33a	0.29641134
240	0xbea123d5	-0.3147265
241	0xbc916cc1	-0.017752053
242	0x3e47b47a	0.1950244
243	0x3e83a784	0.25713742
244	0xbe9df6eb	-0.30852446
245	0xbe7fd9ad	-0.2498538
246	0xbe564073	-0.20923023
247	0xbe89498a	-0.26813918
248	0xbe89426a	-0.26808482
249	0xbd9633f9	-0.07334132
250	0x3eabd375	0.33559766
251	0xbe52e256	-0.20594153
252	0x3eb998df	0.36249444
253	0xbd98573e	-0.07438515
254	0xbb8bc7c9	-0.0042657596
255	0x3e8a152e	0.26969284

net.1.0.bias f4 [128]
0	0xbd918ec4	-0.071073085
1	0xbe8e769f	-0.27824876
2	0xbddab1f5	-0.10678474
3	0x3eaf55af	0.3424506
4	0x3dce1cab	0.10064062
5	0x3ea128d8	0.31476474
6	0xbecf4d54	-0.40488684
7	0xbedb62f4	-0.42848933
8	0x3e264e6a	0.1624085
9	0x3eab6119	0.33472517
10	0xbeeece48	-0.46641755
11	0x3ee5a8d9	0.44855383
12	0x3ec3ba0a	0.38227874
13	0xbebd23c1	-0.3694134
14	0xbf12082a	-0.5704371
15	0xbd699346	-0.057025217
16	0xbe99b356	-0.30019635
17	0x3ec621cd	0.38697663
18	0xbe0cd93f	-0.13754748
19	0x3f0c2472	0.5474311
20	0xbdce25f8	-0.10065836
21	0xbd2c43a0	-0.04205668
22	0xbe96786c	-0.2938875
23	0xbea0d1f2	-0.31410176
24	0xbef4bc74	-0.47800028
25	0xbe311702	-0.17293933
26	0x3efd08d2	0.49420792
27	0x3e51e690	0.20498109
28	0xbecd6691	-0.40117314
29	0x3f1825bc	0.5943258
30	0x3eab9807	0.33514425
31	0xbd338a58	-0.043833107
32	0xbe4631eb	-0.1935498
33	0xbe22cb5a	-0.15897885
34	0xbe8c2ad1	-0.27376416
35	0x3ec16d44	0.37778676
36	0x3e9e3595	0.30900255
37	0xbecfa1e0	-0.40553188
38	0xbed5a2a8	-0.4172566
39	0x3ecc28af	0.3987479
40	0xbeb8ab9f	-0.36068437
41	0x3ecce0ed	0.40015355
42	0xbed56d91	-0.41685155
43	0xbed2504a	-0.4107688
44	0x3e91f1cb	0.28504786
45	0x3ef32ccc	0.47495115
46	0xbeb4142d	-0.35171643
47	0x3e3e588e	0.18588468
48	0x3eb3e0ec	0.3513254
49	0x3e5619a1	0.20908214
50	0xbf04d8c1	-0.5189324
51	0xbf0212ef	-0.5081014
52	0x3f02756b	0.50960416
53	0x3d936ca7	0.07198458
54	0xbeab49ea	-0.3345483
55	0xbec08839	-0.3760393
56	0x3ef8f087	0.48621008
57	0x3eb2d1bf	0.3492565
58	0xbe9f3b04	-0.31099713
59	0xbed09820	-0.40741062
60	0x3eb99e10	0.36253405
61	0x3f0c29eb	0.5475146
62	0xbe40da99	-0.18833388
63	0x3e01cae4	0.12675053
64	0x3f1d0766	0.61339414
65	0xbda4b2e1	-0.08041931
66	0x3efc7202	0.4930573
67	0xbec02924	-0.37531388
68	0xbea45e2d	-0.321031
69	0xbf090030	-0.5351591
70	0x3ea4026a	0.32033092
71	0xbea8d55b	-0.32975277
72	0xbef043ad	-0.46926633
73	0xbefc420c	-0.4926914
74	0x3e6f9f8b	0.23400705
75	0xbd93ffb5	-0.072265066
76	0x3edc3e2f	0.43016192
77	0x3e04ee2b	0.12981479
78	0x3e153fbf	0.14575098
79	0x3ec98e8f	0.39366576
80	0x3ec3aadf	0.38216302
81	0xbec3bfb0	-0.38232183
82	0xbdaa4933	-0.08314743
83	0xbeba6c5b	-0.36410794
84	0xbd8e6a02	-0.06953813
85	0xbebcf605	-0.36906448
86	0x3f0820cc	0.53175044
87	0x3eb1f19e	0.34754652
88	0x3e5d7f94	0.21630698
89	0x3e6daae8	0.23209727
90	0xbee3b7b0	-0.4447608
91	0xbe46fd19	-0.19432487
92	0xbf08ae95	-0.5339139
93	0xbe3302d7	-0.17481552
94	0xbec442f7	-0.3833234
95	0xbe80bb81	-0.25143054
96	0x3ef4ac74	0.4778782
97	0xbed60a38	-0.4180467
98	0x3e23fddd	0.1601481
99	0xbdb06535	-0.08613054
100	0x3e5bcd81	0.21465112
101	0x3f0524cf	0.5200929
102	0x3e8ec9c9	0.27888325
103	0xbea8f39b	-0.32998356
104	0xbdc94dfd	-0.09829328
105	0xbdcffd0b	-0.10155686
106	0x3f097021	0.5368672
107	0xbef81018	-0.4844978
108	0xbe6466f4	-0.22304899
109	0x3ea73c98	0.32663417
110	0xbeb7e41c	-0.3591622
111	0xbeff1622	-0.49821573
112	0xbea515b5	-0.32243124
113	0xbda69ae9	-0.081350155
114	0xbebe5e34	-0.37181246
115	0x3eab51e4	0.33460915
116	0xbdc7f3fd	-0.09763334
117	0x3efc4780	0.492733
118	0xbda6c217	-0.081424884
119	0xbeb482c8	-0.35256028
120	0xbf0f452e	-0.55964935
121	0xbd3cac6b	-0.046062868
122	0x3eefb236	0.46815652
123	0xbedb1795	-0.4279143
124	0xbef83161	-0.48475173
125	0xbe7bbe57	-0.24584328
126	0x3e1613fc	0.14656061
127	0xbecc736c	-0.3993181

net.1.2.weight f4 [256, 128]
0	0x3beb0bb8	0.007173028
1	0x3d82df31	0.06390227
2	0x3d968464	0.0734947
3	0xbc9cce9f	-0.019141493
4	0xbdb6ac3e	-0.08919571
5	0xbd50c31f	-0.050967332
6	0xbd01146e	-0.031513624
7	0x3bcf9a25	0.006335514
8	0x3d41855b	0.04724632
9	0x3ceace87	0.028662933
10	0xbd32df7c	-0.043670163
11	0xbd839402	-0.064247146
12	0xbc84f4d2	-0.01623002
13	0xbcb241d7	-0.02175991
14	0xbdaad875	-0.08342067
15	0x3d3bc4c7	0.04584196
16	0x3d7723d0	0.060336888
17	0xbd7bb0a2	-0.061447747
18	0x3c5a062c	0.013307136
19	0xbcde720c	-0.027153991
20	0xbd616b89	-0.055034194
21	0xbdc40277	-0.09570783
22	0x3d8a635c	0.067572325
23	0xbb744c3c	-0.0037276885
24	0xbd7fc560	-0.06244409
25	0xbd9ef165	-0.07760886
26	0xbda1bfae	-0.07897888
27	0xbbe21b1d	-0.006900205
28	0xbd505d59	-0.050870273
29	0x3d1b2174	0.0378737
30	0xbcf56b56	-0.029958408
31	0xbd53027e	-0.05151605
32	0xbd645f4c	-0.055754945
33	0xbc0e5617	-0.008687518
34	0xbd2aa5b8	-0.041661948
35	0xbdb1fb85	-0.08690552
36	0x3c34d026	0.011035955
37	0x3d689c51	0.0567897
38	0xbc596f7b	-0.013271208
39	0x3d97eba4	0.07417992
40	0xbd88b98d	-0.06676016
41	0x3d12ae56	0.03581079
42	0xbd3527f3	-0.04422755
43	0xbdb181d0	-0.08667338
44	0xbd9a957f	-0.07548045
45	0x3c29fa65	0.01037464
46	0x3cf37629	0.02971943
47	0x3d943c8a	0.072381094
48	0x3d1d31a7	0.03837743
49	0x3c6b5c52	0.014365273
50	0x3ccda694	0.025103845
51	0x3dad2d65	0.08455924
52	0x3d8c6ec3	0.068570636
53	0xbca2841b	-0.019838383
54	0xbd8f6ccd	-0.07003174
55	0xbcde571c	-0.027141146
56	0xbd0cadfb	-0.03434561
57	0xbd9dd880	-0.0770731
58	0xbb957701	-0.0045613055
59	0xbb538845	-0.0032277268
60	0xbd8ad892	-0.06779589
61	0xbd6b2cd7	-0.05741581
62	0x3d002c65	0.031292338
63	0x3d03e3e1	0.032199744
64	0xbc4e31a0	-0.012585074
65	0xbcb733e2	-0.022363607
66	0xbd1bdb63	-0.03805102
67	0xbcc623fb	-0.024187079
68	0xbdaabe14	-0.08337036
69	0xbd3d7bf9	-0.046260808
70	0x3c0046e8	0.007829405
71	0x3caef111	0.021355184
72	0xbd8bacfb	-0.06820103
73	0xbd1225c7	-0.03568056
74	0xbd114f1d	-0.03547584
75	0xbdb1df8a	-0.08685215
76	0xbd962742	-0.073317066
77	0x3d9827ab	0.07429441
78	0x3d81750a	0.063211516
79	0xbd3f8a05	-0.046762485
80	0x3bfed5a9	0.007776935
81	0xbc98296e	-0.018574443
82	0xbc403f0d	-0.0117337825
83	0xbc3d1c87	-0.011542446
84	0x3d92eb95	0.0717384
85	0xbdc099a3	-0.09404304
86	0x3d9929a6	0.07478647
87	0x3c863790	0.016383916
88	0x3d7c4b66	0.061595343
89	0x3d5bc214	0.053651884
90	0xbd274f0c	-0.04084687
91	0xbd12e999	-0.035867307
92	0xbcc79d9f	-0.024367152
93	0x3d3cc66a	0.04608766
94	0xbb5e7839	-0.003394617
95	0x3d9f36d2	0.07774128
96	0xbd81470b	-0.063123785
97	0x3d74247e	0.059605114
98	0xbd433714	-0.04765995
99	0xbd678179	-0.05651996
100	0x3d6b3d4e	0.05743151
101	0xba4f6bab	-0.0007912467
102	0x3d45fb0c	0.04833512
103	0xbdbaad52	-0.091150895
104	0xbd189cd0	-0.037258923
105	0xbc8cafe8	-0.017173722
106	0x3c443222	0.011974843
107	0xbd5129ac	-0.051065132
108	0xbdb34e68	-0.08755189
109	0xbbd2eb71	-0.006436758
110	0x3cd971e6	0.026543569
111	0x3d9d5f0e	0.07684146
112	0xbd42bb1e	-0.04754173
113	0x3c4fab28	0.012675084
114	0xbd85a282	-0.065251365
115	0xbd7a5e9b	-0.06112538
116	0x3cb49c75	0.02204726
117	0xbdb5a922	-0.0887015
118	0x3d45187a	0.048119046
119	0x3cdf4af7	0.027257426
120	0x3d798723	0.060919892
121	0x3ca7d0c5	0.020485291
122	0x3d182928	0.037148625
123	0x3d89dd5c	0.06731674
124	0xbd71a661	-0.058996562
125	0xbd137f4f	-0.036010083
126	0x3c5d15c1	0.013493956
127	0x3d28c034	0.041198924
128	0xbdaea92c	-0.08528361
129	0xbd6db344	-0.05803229
130	0xbd9781bd	-0.073977925
131	0x3e2d11a0	0.16901255
132	0x3d93d6e7	0.07218724
133	0x3d83b8b7	0.06431716
134	0x3d10bc0c	0.035335585
135	0xbc0096f0	-0.007848486
136	0x3d881146	0.0664392
137	0x3e300a2f	0.17191385
138	0xbd407a5f	-0.046991702
139	0x3e574879	0.2102374
140	0x3e33492a	0.17508379
141	0x3b3557f4	0.0027670832
142	0xbd3f59de	-0.046716563
143	0xbabf7091	-0.0014605691
144	0xbd87f9f4	-0.06639472
145	0x3e14d5fa	0.1453475
146	0xbdb9064b	-0.090344034
147	0x3d981637	0.07426112
148	0xbcea12e0	-0.028573453
149	0x3d2d6aa4	0.04233803
150	0xbd39400e	-0.045227103
151	0x3ccb43b3	0.024812555
152	0x3c778d79	0.015109413
153	0xbdcbc444	-0.09949544
154	0x3d9dcfbd	0.077056386
155	0x3c833768	0.01601763
156	0xbe2f1fa0	-0.17101908
157	0x3e2ef4c4	0.17085558
158	0x3e275127	0.16339551
159	0x3d8a93b4	0.067664534
160	0xbd014cd1	-0.0315674
161	0xbcd8cb6d	-0.026464188
162	0xbd16a5a9	-0.03677908
163	0x3dacca93	0.084370755
164	0x3e2ec36d	0.17066737
165	0xbdad62c8	-0.08466107
166	0xbc1fd874	-0.009756196
167	0x3dd2944a	0.1028219
168	0xbb774e06	-0.0037735715
169	0x3e203076	0.15643486
170	0xbd3574f1	-0.044300977
171	0x3daba311	0.08380712
172	0x3cb74022	0.022369448
173	0x3d947f12	0.07250799
174	0xbe06cad9	-0.13163318
175	0x3cdca454	0.026933827
176	0x3e48c239	0.1960534
177	0x3e1c8ee9	0.15288891
178	0x3cc4d0f9	0.024025427
179	0xbc846e86	-0.016165983
180	0x3e509f30	0.20373225
181	0xbbcd6af9	-0.0062688556
182	0xbdac209c	-0.08404657
183	0xbd254c6c	-0.040356085
184	0x3dc99579	0.09842963
185	0x3da55f40	0.08074808
186	0x3cc8c4f8	0.024507985
187	0xbdb6ced0	-0.08926165
188	0x3e03f005	0.12884529
189	0x3e06a2a9	0.13147987
190	0xbd8a3e47	-0.0675016
191	0xbcbc5e7b	-0.02299427
192	0x3e2b590f	0.16733192
193	0xbdac67a5	-0.08418206
194	0x3e0116d8	0.1260637
195	0x3cb1b8ec	0.021694623
196	0x3d7f97be	0.062400572
197	0xbdaa5a8e	-0.08318053
198	0x3e1c7e4b	0.15282552
199	0xbbdc3220	-0.0067198426
200	0xbcab5ce8	-0.020918325
201	0xbcf15f9c	-0.029464535
202	0x3e327bee	0.17430088
203	0xbdc273d0	-0.09494746
204	0x3d9d7134	0.076876074
205	0x3bf78367	0.007553506
206	0x3da473fa	0.08029933
207	0x3d67b278	0.056566685
208	0x3deb1500	0.11478615
209	0x3d353ba4	0.04424633
210	0xbe299933	-0.16562347
211	0x3d24a09f	0.040192243
212	0xba4817cf	-0.0007632942
213	0x3dc2c52a	0.09510262
214	0x3e0d7d9a	0.13817444
215	0x3e26b44f	0.1627972
216	0x3e135cbc	0.14390844
217	0x3b95e2c2	0.004574151
218	0xbc34b28d	-0.011028898
219	0xbdb20a4a	-0.08693369
220	0xbcff846a	-0.03119107
221	0x3d85ba0f	0.065296285
222	0x3b288870	0.0025716089
223	0xbd95baef	-0.073110454
224	0x3e17e0b6	0.14831814
225	0x3cb43b89	0.022001045
226	0xbcc4fbe9	-0.024045901
227	0xbce922c7	-0.028458966
228	0x3dd3c0c0	0.103394985
229	0x3e5bddfd	0.214714
230	0x3d89b678	0.06724256
231	0xbc9f53f5	-0.019449214
232	0x3db87bcc	0.090079874
233	0xba26ce2a	-0.00063631183
234	0x3dc58ab2	0.09645595
235	0xbd270ab9	-0.04078171
236	0x3d8b138a	0.06790836
237	0x3d559e63	0.052153002
238	0xbcc21fab	-0.023696741
239	0xbd5fa610	-0.05460173
240	0xbca82e35	-0.020529846
241	0xbd26890b	-0.040658038
242	0x3d926d9e	0.07149814
243	0x3d3b2738	0.0456917
244	0x3d121fd6	0.035674892
245	0x3d7ef096	0.06224116
246	0xbd16737c	-0.03673123
247	0xbd3934c4	-0.045216337
248	0xbe2c7706	-0.16842279
249	0xbdc3c92b	-0.09559854
250	0x3e2b1821	0.16708423
251	0xbdd6b63e	-0.10483979
252	0xbd9677e4	-0.07347086
253	0xbc8d988b	-0.017284652
254	0x3de325eb	0.11091217
255	0xbd8672f2	-0.06564893
