full_project/controllers/robot_supervisor_controller/Trained_Lift_Off.pth (torch, 5698 bytes, 11 tensors)

fc1.weight f4 [10, 4]
00000000: 1a0f 21bf 2f90 d93e 77f1 f43d 97c4 25bf
00000010: 93ac 84be 3c51 5b3f 253c 3fbf 5172 9b3c
00000020: 74b9 103d 18e4 0d3e eab7 27bf cbe4 693d
00000030: eafe 00bf 9041 123e beb7 30bf 237f f7be
00000040: 1a84 f6be 8fb3 103f e4f5 20bf 6fbc 0e3c
00000050: b746 d4be 9281 cf3e 9a5e 79be f7ef 3ebf
00000060: bd83 853f b35a 7cbe 3b3c 3c3e 94a8 5d3f
00000070: 5160 d1be cd96 e83e 4a5f 963e dd6f bcbe
00000080: b28f 483e 1cb9 14bf 1bf2 1bbf 0c7c b8be
00000090: d00b 953f 5e67 9a3e 2053 04be 05d9 443f
-0.6291367 0.42492816 0.11960118 -0.647531 -0.25912914 0.8567083 -0.7470115 0.018975409
0.035333112 0.13856542 -0.65515006 0.05710296 -0.5038897 0.14282823 -0.6903037 -0.48339185
-0.4814766 0.56523985 -0.628752 0.008711918 -0.414602 0.40528542 -0.24352494 -0.7458491
1.0430828 -0.24643974 0.18382351 0.86585355 -0.40893796 0.45427552 0.29369575 -0.36804095
0.19586065 -0.58094954 -0.609163 -0.3603214 1.164423 0.30156988 -0.12922335 0.76893646

fc1.bias f4 [10]
00000000: 4385 3c3f 7ab7 453f 31a1 8dbe 9870 6e3f
00000010: a8c3 023f a41f 4b3f b7f8 a63d 7824 103f
00000020: 5af1 6dbe e370 95bd
0.7364084 0.7723309 -0.27662042 0.93140554 0.510798 0.79345155 0.08152907 0.56305647
-0.232366 -0.07296922

fc2.weight f4 [10, 10]
00000000: 0b98 bf3f e80a 603f c6b4 033f d261 a53f
00000010: aca1 683f 2b58 8a3f dd86 fbbe 457b a63f
00000020: 8bbd b93e 18d9 81be 2a86 5c3e 6263 a2be
00000030: ff24 853d 4652 5f3e 4433 1abe 3448 29be
00000040: 2a32 933d 96a3 8bbe c92a 10bc fb34 b6bc
00000050: 767c afbd a805 00be 75aa 5bbe e988 f2bd
00000060: 602e 0abe 2540 70be b0b7 f13c b029 fc3d
00000070: 895c 9b3e 8f4a 1f3d 7d6b 7b3e 956d c838
00000080: 0061 93bd 73c9 103e eb61 e03d b378 9ebe
00000090: d600 cf3d 9dfe b2bd a672 9fbe 7b57 383d
000000a0: 61f8 a1be 5073 b1bd 116a c1be 82e9 3bbd
000000b0: 7f8b 653e 02b2 c9bd 0cce a8be c04b 8a3c
000000c0: a7de 81be 8479 66be e2d0 64bf cf94 cfbc
000000d0: 17df a5bd 2cea 123d b8fd 56be 6b2f 08bf
000000e0: dbf8 4f3f 58b3 24bf 1387 50be 80fe 823f
000000f0: d5d7 8abf 2d8f 083e 062e f6be d3d6 96bd
00000100: b3e5 9abe f81e 02bf 25d3 d93e fea9 f8be
00000110: 1cb3 a8be 36c6 c13e 9508 88bc 55a2 8c3e
00000120: d257 923c da21 62be 18d2 3bbe abab f7ba
00000130: 3ab0 0abe 988b 243d d277 d6bd 8046 013d
00000140: 12ab a23f 2410 833f 079d 443f 5944 973f
00000150: e786 373f 26d9 923f a133 093f 06d9 133f
00000160: 3c24 093f fa59 6f3e dbf2 84bf b257 3dbe
00000170: e0a7 09bf c544 d7be 9d2d 10bf 0f78 91be
00000180: 3b08 873f c870 23bf c0ee aebe 4cb3 193f
1.4968275 0.8751664 0.51447713 1.2920477 0.9087169 1.0808157 -0.4912633 1.3006369
0.36277422 -0.25360942 0.21535555 -0.31716448 0.06501197 0.21808729 -0.15058619 -0.1653145
0.071873024 -0.27273244 -0.008799263 -0.02224206 -0.08568661 -0.12502158 -0.21451743 -0.1184252
-0.13494253 -0.23461969 0.029506534 0.12312639 0.30344036 0.038889464 0.24552722 9.5571544e-05
-0.07196236 0.14139347 0.10956176 -0.3095146 0.10107581 -0.0873997 -0.31142157 0.045005303
-0.3163481 -0.08664572 -0.37776235 -0.045876987 0.22416495 -0.098484054 -0.329697 0.016881824
-0.25365183 -0.22507292 -0.8938123 -0.025339512 -0.08099192 0.035867855 -0.20995224 -0.53197354
0.812391 -0.64336157 -0.20364027 1.0233917 -1.0847117 0.13335867 -0.48081988 -0.07365193
-0.30253372 -0.50828505 0.42543903 -0.48567194 -0.3294915 0.37846535 -0.016605655 0.274676
0.017864142 -0.22083226 -0.18341863 -0.0018895766 -0.13543788 0.04017219 -0.10472073 0.031561375
1.2708457 1.0239301 0.76802105 1.1817733 0.7169022 1.1472518 0.53594404 0.57753026
0.53570914 0.23374167 -1.0386614 -0.18490484 -0.5377178 -0.42044654 -0.563196 -0.2841191
1.0549387 -0.63843966 -0.34166527 0.6003921

fc2.bias f4 [10]
00000000: a061 fe3e f166 dcbd 5be2 84be 6fc5 a3be
00000010: c431 e03d 506e d23e 9934 e1bd 6ccf 4cbe
00000020: bfef c73e 5462 e23e
0.49683857 -0.10761822 -0.25953946 -0.31986567 0.10946992 0.41099787 -0.1099636 -0.20001
0.390501 0.44215643

action_head.weight f4 [5, 10]
00000000: 5a74 b83f 0c69 f53d 2c5b 5e3e 3f48 7cbd
00000010: ec43 3f3e 9fa2 14bf 5802 5ebf 075a c83d
00000020: 6fd8 883f ea58 54bf ca04 3bbf 3bfb 80be
00000030: 09d2 313e 268e 8b3d 7b4f 35be 141b 663f
00000040: fda4 303f 2e6c 66be 98e7 f43d 60cb 6c3f
00000050: a4b5 433e cdca 2fbe 5404 07bb b963 6a3d
00000060: 377c ddbd ae3b 4f3e 80e1 abbd 4fb9 7e3e
00000070: 29e6 b03e 797e d1bc 6b45 13bf 4922 cb3d
00000080: d34d 92be 35ec 8cbe 973b 58be fd6a f9be
00000090: 692d a0bd 2b9f 053e 4ad3 6bbf 0d68 cdbe
000000a0: 79d6 36bf cf8c 14be 90f8 cc3d ae5b ba3c
000000b0: 9d84 073e ca9c 42bf 33bb 2cbf 462d 52be
000000c0: 7bcd 5bbf ba8f d0be
1.4410508 0.11982927 0.21714467 -0.061592337 0.18678254 -0.5806064 -0.86722326 0.09782796
1.069105 -0.8294817 -0.7305418 -0.25191674 0.17365278 0.06814222 -0.177061 0.8988507
0.6900175 -0.22502205 0.119582355 0.92497826 0.19112259 -0.17167206 -0.0020601945 0.05722401
-0.10814708 0.2023761 -0.0839262 0.24875377 0.34550598 -0.025573002 -0.575278 0.09918649
-0.28575 -0.27523962 -0.21116482 -0.48714438 -0.07821161 0.13048999 -0.92119277 -0.40118447
-0.7142101 -0.14506839 0.10008347 0.022748794 0.13234182 -0.7602049 -0.67473143 -0.20525083
-0.85860413 -0.40734655

action_head.bias f4 [5]
00000000: 7963 133f a927 38bd b528 21be 046f 3cbf
00000010: 38f3 b4be
0.5757366 -0.044959698 -0.15738185 -0.73606896 -0.3534181

fc1.weight f4 [10, 4]
00000000: f747 d93f 2018 cebf dc7c 43c0 9707 5c40
00000010: 6058 fc3f 7631 f0bf b7cc 53c0 4b59 7740
00000020: a2a8 afbe 06d9 823e 380b a8bd b830 1b3e
00000030: 2ede bcbf 340d 8ec0 7a24 e7bf 7756 8140
00000040: c6ce 9b3e 4e14 05c0 268c 5fc0 85ff 6440
00000050: 505d 7abe bc66 a33e 501d bcbd f019 5d3e
00000060: 1234 0440 d105 c2c0 76c4 92c0 3edc 9cbe
00000070: 1bd5 1bbf 5ec6 643e 17bc bebe 8f82 56be
00000080: 609d 033f f7d9 fabf b78e 99c0 0899 9640
00000090: dc48 723f f60f 5fc0 6220 a8c0 f3c9 9540
1.6975087 -1.6101112 -3.0544958 3.4379632 1.971447 -1.8765094 -3.3093698 3.864825
-0.34308344 0.255562 -0.08205265 0.15155303 -1.4755304 -4.4391117 -1.8058007 4.041805
0.30431193 -2.0793643 -3.492929 3.5780957 -0.24449658 0.31914318 -0.091852784 0.21591926
2.0656781 -6.06321 -4.586482 -0.3063678 -0.6087205 0.22341296 -0.37252876 -0.20948242
0.5141201 -1.9597768 -4.7986712 4.7061806 0.94642425 -3.4853492 -5.253953 4.680902

fc1.bias f4 [10]
00000000: 7a41 1140 a835 5d40 e273 a4be 3ff8 e43f
00000010: f484 1440 d6ab b7be 045c 09c0 2b3a 01bf
00000020: 4a43 6340 3c6a 9a40
2.2696214 3.4564 -0.32119662 1.7888259 2.3206148 -0.35873288 -2.1462412 -0.5047938
3.550982 4.825468

fc2.weight f4 [10, 10]
00000000: 1602 8f40 1191 7340 45fc 91bd ce11 83c0
00000010: 55b4 7c40 0d27 923e cc6b a4c0 7bbb 3b3d
00000020: 90b1 9940 1760 9040 7aeb 8e40 83a6 8340
00000030: ec33 63be ddfd 6ec0 188e 8a40 fc61 83bd
00000040: b035 b1c0 f175 c6bc e9d8 9940 991e a540
00000050: 4bae 483e 0141 8a3f 4d29 523e c531 8b40
00000060: 84e6 9c3f d220 8bbe 51ed 8e40 98c7 8e3e
00000070: ee9e 9f3f 8101 c43f ec60 603f c99c 3f3f
00000080: ca04 fc3d 2fa6 8d40 2899 893f 1e33 a2bd
00000090: fe24 a640 9b44 913c b9ec a93f 6314 be3f
000000a0: af3f ec3e b586 683f fc88 6bbe b770 9540
000000b0: 1ca4 533f 96b5 a63d c82e aa40 d212 3d3e
000000c0: 9631 8d3f db38 d43f 64e5 043f de79 6b3f
000000d0: 2802 453e e30a 9440 24b5 823f 1506 c7bd
000000e0: 1760 aa40 3de8 ce3d 28eb b13f 292c af3f
000000f0: 9809 a5be 8f42 a3be 90a8 50bc d21d 1dbe
00000100: 7746 793e 8a88 9a3e 6a0f 4c3e 0e89 833e
00000110: 9752 adbe 5a25 a83d dc40 213e 5cbd 5e3f
00000120: d5dd b73d 6b7c 8640 9da8 8b3f 8cdc 913e
00000130: 8e93 a140 c2b1 52be 5844 ec3f 286a a93f
00000140: 3ead 8440 db54 8b40 b4a9 473e 22f2 76c0
00000150: 035b 8740 f312 f7bd cf14 b1c0 270a e0bc
00000160: d97f 9d40 2848 9a40 7730 5a3f c319 713f
00000170: 4f02 443e 1ca8 8740 d1e4 5e3f 6c1f 54bd
00000180: 0f07 a840 db2d 703e ba4d 953f 2f63 ca3f
4.4690046 3.8057292 -0.07128195 -4.0959234 3.9485066 0.28545418 -5.138159 0.045833092
4.802925 4.5117297 4.4662447 4.114076 -0.22187775 -3.7342446 4.3298454 -0.064151734
-5.5378036 -0.02422616 4.8077283 5.159985 0.19597737 1.0801088 0.20523567 4.3498254
1.2257848 -0.27173477 4.4664693 0.27886653 1.2470376 1.5312959 0.8764789 0.7484861
0.12305601 4.426536 1.0749865 -0.07919906 5.1920156 0.017732909 1.3275367 1.4849972
0.46142337 0.90830547 -0.23001474 4.670009 0.82672286 0.081401035 5.3182106 0.1846421
1.1030757 1.6579851 0.5191252 0.9198283 0.19239104 4.626329 1.021153 -0.09717957
5.3242297 0.1010289 1.3899889 1.3685352 -0.32233882 -0.31886718 -0.012735501 -0.15343407
0.24343286 0.30182296 0.19927755 0.25690502 -0.33852074 0.08210249 0.15747398 0.8700769
0.08977858 4.2026877 1.0910832 0.28488576 5.049262 -0.20575622 1.8458357 1.3235521
4.1461477 4.3541083 0.1949833 -3.8585286 4.22986 -0.12064161 -5.53379 -0.027348591
4.9218564 4.821308 0.852302 0.94179934 0.19141506 4.239271 0.87067896 -0.05178778
5.2508616 0.23454992 1.1664345 1.5811518

fc2.bias f4 [10]
00000000: 4d53 0540 b9b5 e93f 06f9 353f 898f f93e
00000010: b9da 813e e93f 083f 772f 09be b3b4 383f
00000020: 0aea e03f 7572 063f
2.0832093 1.8258582 0.71083105 0.4874232 0.25362185 0.5322252 -0.13397013 0.72150725
1.7571423 0.525184

state_value.weight f4 [1, 10]
00000000: b791 a640 7973 b040 ec2f 90c0 ae19 94c0
00000010: ecce c7c0 e2b8 91c0 5d0f 2cb9 56e2 9ac0
00000020: 0cd9 b040 d5ff 97c0
5.2052875 5.514096 -4.50585 -4.6281347 -6.244009 -4.5538187 -0.00016408922 -4.840129
5.526495 -4.7499795
