full_project/controllers/robot_supervisor_controller/weights-to-6000.pth (torch, 5682 bytes, 11 tensors)

fc1.weight f4 [10, 4]
-0.6089464 0.2181933 -0.077529676 -0.36616993 -0.34348637 0.8101614 -0.6487197 0.17088747
0.005360342 0.20095694 -0.47742343 -0.16760522 -0.5742105 0.087598726 -0.5857113 -0.32059917
-0.46734437 0.59204835 -0.49954665 0.16966753 -0.48381883 0.315914 -0.1924712 -0.56503594
1.0232574 -0.16942646 0.08701376 0.6630501 -0.37297735 0.27675048 0.11028605 -0.07989183
0.15751885 -0.5681978 -0.47390097 -0.28917167 1.1460828 0.37469298 -0.22613823 0.5701817
00000000: e9e3 1bbf 106e 5f3e e1c7 9ebd a07a bbbe
00000010: 72dd afbe bd66 4f3f 7f12 26bf 20fd 2e3e
00000020: cfa5 af3b a8c7 4d3e d870 f4be b4a0 2bbe
00000030: 76ff 12bf f666 b33d 2df1 15bf 9325 a4be
00000040: c347 efbe 7b90 173f 94c4 ffbe 53bd 2d3e
00000050: 1ab7 f7be 7bbf a13e 2c17 45be 32a6 10bf
00000060: 19fa 823f 217e 2dbe 4534 b23d a7bd 293f
00000070: e3f6 bebe 3db2 8d3e a7dd e13d 549e a3bd
00000080: 9f4c 213e 6975 11bf 26a3 f2be 4f0e 94be
00000090: d7b2 923f c2d7 bf3e c890 67be 6ef7 113f

fc1.bias f4 [10]
0.7318466 0.7051599 -0.23225556 0.8821617 0.55079716 0.74427915 0.033541996 0.5763047
-0.24308905 -0.11842918
00000000: 4c5a 3b3f 5c85 343f 67d4 6dbe 59d5 613f
00000010: 0b01 0d3f 1489 3e3f 5563 093d b488 133f
00000020: 56ec 78be ff8a f2bd

fc2.weight f4 [10, 10]
1.1616852 0.814789 0.27698955 1.1841868 0.8385595 0.9509184 -0.50495803 1.1369903
0.22177461 -0.2863684 0.21535555 -0.31716448 0.06501197 0.21808729 -0.15058619 -0.1653145
0.071873024 -0.27273244 -0.008799263 -0.02224206 -0.08568661 -0.12502158 -0.21451743 -0.1184252
-0.13494253 -0.23461969 0.029506534 0.12312639 0.30344036 0.038889464 0.24552722 9.5571544e-05
-0.07196236 0.14139347 0.10956176 -0.3095146 0.10107581 -0.0873997 -0.31142157 0.045005303
-0.3163481 -0.08664572 -0.37776235 -0.045876987 0.22416495 -0.098484054 -0.329697 0.016881824
-0.25365183 -0.22507292 -0.6364752 -0.04883008 0.15911986 0.061464615 -0.17991753 -0.50723267
0.71406305 -0.5686644 -0.06503506 0.9533371 -0.8209889 0.16894172 -0.22935481 0.018974053
-0.25484878 -0.40799668 0.3926034 -0.3906828 -0.17702563 0.3743949 -0.016605655 0.274676
0.017864142 -0.22083226 -0.18341863 -0.0018895766 -0.13543788 0.04017219 -0.10472073 0.031561375
0.87215936 0.86083347 0.53572875 0.9729881 0.6027724 0.8850547 0.37379727 0.32095948
0.39117453 0.06521053 -0.74887925 -0.16715077 -0.2953036 -0.3542175 -0.5183956 -0.21107501
1.0105546 -0.5253774 -0.1968766 0.5815342
00000000: 1ab2 943f 0396 503f 93d1 8d3e 6f93 973f
00000010: d6ab 563f 636f 733f ee44 01bf e688 913f
00000020: e218 633e e19e 92be 2a86 5c3e 6263 a2be
00000030: ff24 853d 4652 5f3e 4433 1abe 3448 29be
00000040: 2a32 933d 96a3 8bbe c92a 10bc fb34 b6bc
00000050: 767c afbd a805 00be 75aa 5bbe e988 f2bd
00000060: 602e 0abe 2540 70be b0b7 f13c b029 fc3d
00000070: 895c 9b3e 8f4a 1f3d 7d6b 7b3e 956d c838
00000080: 0061 93bd 73c9 103e eb61 e03d b378 9ebe
00000090: d600 cf3d 9dfe b2bd a672 9fbe 7b57 383d
000000a0: 61f8 a1be 5073 b1bd 116a c1be 82e9 3bbd
000000b0: 7f8b 653e 02b2 c9bd 0cce a8be c04b 8a3c
000000c0: a7de 81be 8479 66be 0af0 22bf 0d02 48bd
000000d0: 51f0 223e 52c2 7b3d 4d3c 38be 00da 01bf
000000e0: d6cc 363f fd93 11bf 1a31 85bd e60d 743f
000000f0: 542c 52bf 0fff 2c3e fddb 6abe 796f 9b3c
00000100: 8a7b 82be f1e4 d0be 5003 c93e 9307 c8be
00000110: 3546 35be b0b0 bf3e 9508 88bc 55a2 8c3e
00000120: d257 923c da21 62be 18d2 3bbe abab f7ba
00000130: 3ab0 0abe 988b 243d d277 d6bd 8046 013d
00000140: d645 5f3f 955f 5c3f 8525 093f c015 793f
00000150: 4b4f 1a3f f292 623f 5b62 bf3e cd54 a43e
00000160: 0748 c83e 198d 853d 8db6 3fbf 9229 2bbe
00000170: 0932 97be ff5b b5be 93b5 04bf 0c24 58be
00000180: da59 813f 227f 06bf 059a 49be 6ddf 143f

fc2.bias f4 [10]
0.46348432 -0.10761822 -0.25953946 -0.31986567 0.10946992 0.3276722 -0.12201789 -0.20001
0.20564255 0.4117688
00000000: d14d ed3e f166 dcbd 5be2 84be 6fc5 a3be
00000010: c431 e03d a7c4 a73e 84e4 f9bd 6ccf 4cbe
00000020: f693 523e 5cd3 d23e

action_head.weight f4 [5, 10]
1.2974389 0.11982927 0.21714467 -0.061592337 0.18678254 -0.5469449 -0.67488724 0.09782796
0.99792343 -0.76038 -0.62354034 -0.25191674 0.17365278 0.06814222 -0.177061 0.83449185
0.5012236 -0.22502205 0.1526547 0.8212883 0.032274917 -0.17167206 -0.0020601945 0.05722401
-0.10814708 0.0053597675 -0.28408313 0.24875377 0.15848385 -0.22492665 -0.12480254 0.09918649
-0.28575 -0.27523962 -0.21116482 -0.048973214 0.26670724 0.13048999 -0.41928723 0.026503973
-0.5253207 -0.14506839 0.10008347 0.022748794 0.13234182 -0.6075623 -0.5678121 -0.20525083
-0.6606807 -0.26624897
00000000: 7a12 a63f 0c69 f53d 2c5b 5e3e 3f48 7cbd
00000010: ec43 3f3e 9504 0cbf 69c5 2cbf 075a c83d
00000020: e977 7f3f 44a8 42bf 57a0 1fbf 3bfb 80be
00000030: 09d2 313e 268e 8b3d 7b4f 35be 42a1 553f
00000040: 3150 003f 2e6c 66be 8451 1c3e f33f 523f
00000050: b432 043d cdca 2fbe 5404 07bb b963 6a3d
00000060: 377c ddbd fda0 af3b 5873 91be 4fb9 7e3e
00000070: 9749 223e 2c53 66be 7998 ffbd 4922 cb3d
00000080: d34d 92be 35ec 8cbe 973b 58be 2398 48bd
00000090: da8d 883e 2b9f 053e d1ac d6be dc1e d93c
000000a0: 6b7b 06bf cf8c 14be 90f8 cc3d ae5b ba3c
000000b0: 9d84 073e 3489 1bbf 225c 11bf 462d 52be
000000c0: 5f22 29bf c951 88be

action_head.bias f4 [5]
0.5670727 -0.092545435 -0.33339936 -0.3070948 -0.20673236
00000000: ad2b 113f 7688 bdbd 52b3 aabe 883b 9dbe
00000010: a6b1 53be

fc1.weight f4 [10, 4]
2.1499677 -2.0620666 -1.4405589 5.8300085 2.3756201 -2.4575717 -1.9558351 6.1785927
-0.34308344 0.255562 -0.08205265 0.15155303 -1.297855 -2.9259007 -3.2202508 1.1268575
0.87300384 -2.6482155 -1.5977869 5.733668 -0.24449658 0.31914318 -0.091852784 0.21591926
1.9922554 -3.7481236 -5.7467694 1.2012357 -0.6087205 0.22341296 -0.37252876 -0.20948242
1.0878032 -2.523559 -2.848725 6.8712134 1.4961226 -4.0384407 -3.4293725 6.8428755
00000000: 1299 0940 e6f8 03c0 3c64 b8bf 6e8f ba40
00000010: 290a 1840 db48 1dc0 ce58 fabf 08b7 c540
00000020: a2a8 afbe 06d9 823e 380b a8bd b830 1b3e
00000030: 1d20 a6bf f541 3bc0 9718 4ec0 de3c 903f
00000040: 2e7d 5f3f 5d7c 29c0 4884 ccbf 357a b740
00000050: 505d 7abe bc66 a33e 501d bcbd f019 5d3e
00000060: 3a02 ff3f 42e1 6fc0 89e5 b7c0 17c2 993f
00000070: 1bd5 1bbf 5ec6 643e 17bc bebe 8f82 56be
00000080: 233d 8b3f fe81 21c0 8351 36c0 fbe0 db40
00000090: f280 bf3f e83a 81c0 d77a 5bc0 d6f8 da40

fc1.bias f4 [10]
3.1594224 4.2629766 -0.32119662 1.4945742 3.285282 -0.35873288 -3.2305992 -0.5047938
4.5137873 5.743536
00000000: fa33 4a40 4e6a 8840 e273 a4be 354e bf3f
00000010: 0f42 5240 d6ab b7be 23c2 4ec0 2b3a 01bf
00000020: f270 9040 0ccb b740

fc2.weight f4 [10, 10]
5.3224936 4.6354966 -0.07128195 -3.1874287 4.832923 0.28545418 -6.7666817 0.045833092
5.6031904 5.2805867 5.320799 4.944856 -0.22187775 -2.8249576 5.215695 -0.064151734
-7.168374 -0.02422616 5.6091304 5.9298186 -0.7025752 0.2055434 0.20523567 3.403409
0.28891423 -0.27173477 6.149253 0.27886653 0.4008277 0.7197307 -0.019149538 -0.1233831
0.12305601 3.482638 0.14216918 -0.07919906 6.867278 0.017732909 0.48449716 0.67598593
-0.42819667 0.04260867 -0.23001474 3.731269 -0.09974262 0.081401035 6.989817 0.1846421
0.26597074 0.8548516 -0.3758125 0.048558146 0.19239104 3.6829455 0.08956039 -0.09717957
6.9966173 0.1010289 0.54780203 0.56013066 -0.32233882 -0.31886718 -0.012735501 -0.15343407
0.24343286 0.30182296 0.19927755 0.25690502 -0.33852074 0.08210249 -0.737268 -0.000827117
0.08977858 3.259102 0.1590069 0.28488576 6.7244925 -0.20575622 1.0035461 0.5154038
5.000727 5.1849284 0.1949833 -2.9491713 5.115756 -0.12064161 -7.16442 -0.027348591
5.7232985 5.5911784 -0.042551916 0.07063322 0.19141506 3.2964 -0.061208982 -0.05178778
6.9244413 0.23454992 0.32416007 0.77274805
00000000: de51 aa40 fd55 9440 45fc 91bd d5fe 4bc0
00000010: 4ea7 9a40 0d27 923e a888 d8c0 7bbb 3b3d
00000020: 564d b340 91fa a840 fc43 aa40 433c 9e40
00000030: ec33 63be 1bcc 34c0 f9e6 a640 fc61 83bd
00000040: 5263 e5c0 f175 c6bc ff7d b340 13c1 bd40
00000050: f8db 33bf f879 523e 4d29 523e 74d1 5940
00000060: 91ec 933e d220 8bbe aec6 c440 98c7 8e3e
00000070: 4a39 cd3e 4540 383f 7edf 9cbc 47b0 fcbd
00000080: ca04 fc3d 8ae3 5e40 cc94 113e 1e33 a2bd
00000090: bec0 db40 9b44 913c 0310 f83e 6a0d 2d3f
000000a0: 983c dbbe 6e86 2e3d fc88 6bbe 1ccd 6e40
000000b0: dc45 ccbd 96b5 a63d 95ac df40 d212 3d3e
000000c0: 512d 883e 8ed7 5a3f 7f6a c0be e8e4 463d
000000d0: 2802 453e 61b5 6b40 706b b73d 1506 c7bd
000000e0: 4ae4 df40 3de8 ce3d c13c 0c3f b964 0f3f
000000f0: 9809 a5be 8f42 a3be 90a8 50bc d21d 1dbe
00000100: 7746 793e 8a88 9a3e 6a0f 4c3e 0e89 833e
00000110: 9752 adbe 5a25 a83d 98bd 3cbf e2d2 58ba
00000120: d5dd b73d 2195 5040 b4d2 223e 8cdc 913e
00000130: 0b2f d740 c2b1 52be 3374 803f 81f1 033f
00000140: f505 a040 efea a540 b4a9 473e 39bf 3cc0
00000150: 46b4 a340 f312 f7bd ee42 e5c0 270a e0bc
00000160: 4325 b740 efea b240 eb4a 2ebd 26a8 903d
00000170: 4f02 443e 38f8 5240 45b6 7abd 6c1f 54bd
00000180: 0695 dd40 db2d 703e 4ff8 a53e d1d2 453f

fc2.bias f4 [10]
2.9650626 2.708924 -0.2243568 -0.4449704 -0.671188 -0.39951453 -0.13397013 -0.20950834
2.6402571 -0.40670064
00000000: 96c3 3d40 035f 2d40 cabd 65be 29d3 e3be
00000010: fad2 2bbf 2b8d ccbe 772f 09be 5b89 56be
00000020: f9f9 2840 113b d0be

state_value.weight f4 [1, 10]
6.1890564 6.5005555 -4.273171 -4.490691 -6.179352 -4.46042 -0.00016408922 -4.711679
6.515434 -4.628076
00000000: c00c c640 8d04 d040 d1bd 88c0 beb3 8fc0
00000010: 40bd c5c0 c3bb 8ec0 5d0f 2cb9 13c6 96c0
00000020: 6f7e d040 3319 94c0
