full_project/controllers/robot_supervisor_controller/weights-to-3000.pth (torch, 5490 bytes, 11 tensors)

fc1.weight f4 [10, 4]
00000000: 0cea 88bd 06ff 77be 1092 773e 56c3 953e
00000010: 95f0 8a3c cd8f 4f3f de81 e8bd a944 fc3e
00000020: 63de 24bf 47bb 97bc 58b9 673e 412a edbe
00000030: e7d4 e6be b276 9ebe 683b ca3e e430 96be
00000040: 04a7 d63e 9c43 a93d 324c b73d c7de b73e
00000050: 0055 cebe c635 1cbe e954 a13e 9d1c 4bbf
00000060: 72fe 793f fe91 b7be 0084 963e 4628 2e3f
00000070: ed64 e1be 7266 903e 7b88 b33e c56d b0be
00000080: e6df 993e 3edd 85be db6a f7bc d6b7 983e
00000090: a00c 14be c40e 6f3d 7089 c6be 2bb3 90be
-0.06685266 -0.24218377 0.24176812 0.29250592 0.016960422 0.810788 -0.11352895 0.49271134
-0.64401835 -0.018521918 0.22629297 -0.463213 -0.45084307 -0.30949932 0.39498448 -0.29334176
0.41924298 0.082648486 0.0895008 0.35912153 -0.40299225 -0.15254888 0.31510094 -0.79340535
0.9765388 -0.3585357 0.29397583 0.680302 -0.44022313 0.2820316 0.35065064 -0.34458748
0.30053633 -0.26145357 -0.03020232 0.29827756 -0.14457941 0.05836369 -0.38776731 -0.28261694

fc1.bias f4 [10]
00000000: beaa f0be 79aa 85be 24b5 4d3f 6770 203f
00000010: 2390 3d3e cd1e 303f fab9 dabd 8a5a d8bd
00000020: 00ef fd3e 08d5 b33e
-0.47005266 -0.26106623 0.80354524 0.6267151 0.18512015 0.68797 -0.106800035 -0.10564144
0.49596405 0.35123467

fc2.weight f4 [10, 10]
00000000: 2ad4 033d e858 c4be 16dd 693e 58f3 ee3e
00000010: 3b8b cd3e 8a72 103e 6e0d c43e c77f d1bd
00000020: 14d6 6f3e d557 2cbd 8db0 50be ce04 613e
00000030: 85df e03c a636 01be 460f 61be 2910 843e
00000040: 10ff 923d 2516 24bd 9a5b aabd b00d 9ebe
00000050: 535f 753e 00e7 3abe 4dcd 7dbe 2c8c 90be
00000060: 4271 88be 4248 943e 4b8b 42be d86b 913e
00000070: c7f9 5fbe a9a0 82be 08aa da3e 3fae 96be
00000080: 9ffb 3b3e ef03 c03e 296c d13d 8908 d63e
00000090: 380b 7ebe 5dd9 263e aaef d03d 1233 8f3e
000000a0: 720b 933d 6945 80bd d017 25bd 5bd9 42be
000000b0: f14e 5fbe 718d 86be 1b53 293e 3209 ae3d
000000c0: 6fd4 023e 76c1 02be 6503 80be 87d4 7d3e
000000d0: 835d 123e b2c1 a5bd 679c 41be 0b9c 7fbe
000000e0: 471b 113b 035f 87be 8cca 9cbe d79f afbd
000000f0: 57a2 31bb 5389 68be ccac 7d3f d662 063f
00000100: 427a 28be 040e 7c3f 5666 1cbf f16c a8bc
00000110: 705b 10be 6660 b73e 5185 a4bd 0274 68bd
00000120: fe29 c9be 16f1 f43d aabe 0d3f 0d95 c0be
00000130: 04b0 f83e d830 b7bd 193a d63e 66c4 41bd
00000140: da6d 7b3c c7d9 103e 0b6f 373f da04 0e3f
00000150: fd03 abbe 5372 613f 7b13 7cbe 490f 98be
00000160: 09eb 813e f6cf acbc 2106 3cbe dfe3 f73d
00000170: 0b93 573e 2b4f d13c 8b2a b43e 4a29 b63e
00000180: a111 2cbe 9071 0f3e dff2 383d 0e9e 603d
0.032184757 -0.3834908 0.22838244 0.46670032 0.40145287 0.14106193 0.38291496 -0.1022945
0.23421508 -0.04207595 -0.20379849 0.21974489 0.027450332 -0.12618503 -0.21978483 0.2579358
0.071775556 -0.04006018 -0.08318253 -0.30869818 0.23962145 -0.18252182 -0.24785347 -0.28231943
-0.2664891 0.28961378 -0.18998449 0.2840259 -0.21872626 -0.255132 0.4270785 -0.29429814
0.18357705 0.37503 0.10225708 0.41803387 -0.24808967 0.16293855 0.10201962 0.2796865
0.071799174 -0.06263239 -0.040305912 -0.19028227 -0.21807458 -0.26279786 0.16535608 0.084978476
0.1277635 -0.12769112 -0.2500259 0.24788104 0.14293484 -0.08093585 -0.18907319 -0.2496187
0.0022141503 -0.26439676 -0.3062328 -0.08575409 -0.0027104819 -0.22708635 0.9909179 0.5249456
-0.16452888 0.98458886 -0.6109365 -0.02055976 -0.1409738 0.35815734 -0.080332406 -0.05675126
-0.3928985 0.11960046 0.55369055 -0.37613717 0.4857179 -0.08944863 0.418412 -0.04730644
0.015346015 0.14145575 0.71653813 0.5547615 -0.3340148 0.8806507 -0.24616806 -0.29699162
0.2537463 -0.021095257 -0.18361713 0.1210401 0.21052186 0.025550446 0.35188708 0.35578376
-0.168036 0.14008164 0.045153495 0.054838233

fc2.bias f4 [10]
00000000: 76b6 e23e 7bf2 e4bc e022 4ebe dfb9 08be
00000010: feeb 13be 86ac 48be 172c 213f bc45 8c3e
00000020: 72cf 5e3d ea43 d93e
0.44279832 -0.027947655 -0.20130491 -0.13352154 -0.14445493 -0.19597062 0.629579 0.27396953
0.054397054 0.42434627

action_head.weight f4 [5, 10]
00000000: 90e4 e1bd 227c 5e3e e061 2bbd efee 9c3e
00000010: ef35 78be 08b9 443e d0e2 8e3f 85c6 a4bd
00000020: 673f 343f d5ed 203e 6f29 293d bc1f 6a3e
00000030: c78a 5abe 0800 6bbe 3e99 34be e19d 4b3c
00000040: d335 5dbe 2460 183f ca04 3fbe df83 f93d
00000050: f13e 10bf 4e8e 43be a0b2 96be 29f7 a9be
00000060: 6ce1 893e 4c0a 90be 92f7 9abe caca debd
00000070: cb26 8fbe 3f6a d8be 686a 0ebe c11d 883e
00000080: 6359 2b3e 5ee3 563d 63e8 60be 5638 1abe
00000090: 18bd 0cbf 121c 453e 55be 253e 9f77 333d
000000a0: 5773 c33d 2bf0 1cbe 5375 2b3d 92c4 7d3e
000000b0: f546 4cbe 2055 5ebd fb8b 43bf caa7 b73e
000000c0: 3bf3 bcbd 2c72 713e
-0.11029923 0.2172704 -0.041841388 0.30651042 -0.24239324 0.19211209 1.1162968 -0.08045677
0.70409244 0.15715726 0.04129928 0.22863668 -0.21342002 -0.2294923 -0.17636582 0.012427778
-0.21602564 0.595217 -0.1865417 0.121833555 -0.5634604 -0.19097254 -0.29433155 -0.3319638
0.26929796 -0.28132856 -0.30267006 -0.10878523 -0.27959284 -0.4226856 -0.13907778 0.265852
0.16733317 0.052462928 -0.21963648 -0.15060553 -0.54976034 0.19248989 0.16185887 0.04381525
0.09543484 -0.15325992 0.041859936 0.24782017 -0.19948943 -0.0542804 -0.7638547 0.358702
-0.0922608 0.2357871

action_head.bias f4 [5]
00000000: a23d eebd 7f17 e13e 98a9 a5be 363a c93d
00000010: 767a 2fbe
-0.11632849 0.4396324 -0.32355952 0.09825556 -0.17136559

fc1.weight f4 [10, 4]
00000000: ba50 69c0 43bc 00c0 480d 5d3e d321 0740
00000010: 2fba 95c0 1831 a2be f847 b43e b382 f8be
00000020: 56e2 5cc0 e9ac e3bf 2f28 7f3e e051 db3f
00000030: 69e1 62c0 e2b8 57bf 2394 873d b386 0240
00000040: 38f3 93c0 3395 abbd 8112 833e 1f3d b4bf
00000050: 7945 7bbe 4cf1 7c3e ebfc 55be 54f3 b23e
00000060: 8356 97bf 358e 32c0 7bec 0cbf 0d18 4b40
00000070: 38a6 7bbe 20b3 b0bd 6032 7bbd 9e68 d03e
00000080: 1a8e 8dc0 653a 26bf 52e7 c73e c479 77bf
00000090: 6e69 5dc0 2223 82bf 119c 3f3e 5dc9 e03f
-3.6455522 -2.0114906 0.21587098 2.1114395 -4.6789775 -0.3167808 0.35211158 -0.48537216
-3.4513144 -1.7787143 0.24917673 1.7134361 -3.545008 -0.84266484 0.06620052 2.0394714
-4.62344 -0.08378067 0.25600055 -1.4081153 -0.2453822 0.24701422 -0.20897262 0.3495127
-1.1823276 -2.7899296 -0.5504834 3.173343 -0.24575126 -0.086279154 -0.06132734 0.40704817
-4.4235964 -0.64932853 0.3904367 -0.96670175 -3.45956 -1.0166972 0.18711878 1.7561451

fc1.bias f4 [10]
00000000: dea8 9a40 a776 6d40 d371 a140 c33a 9640
00000010: 041c 7e40 f787 e4be b688 2140 d4b3 d2be
00000020: 0238 6b40 5d61 a740
4.8331137 3.710367 5.0451446 4.694673 3.97046 -0.44634983 2.5239692 -0.41152823
3.6752934 5.230635

fc2.weight f4 [10, 10]
00000000: 396e ae3e e1ee 5740 44b6 593f 869c 653f
00000010: a0cc 7940 3b76 4bbd 956e 51c0 c60b d7bd
00000020: a5a9 8540 d062 863f 38f1 b540 6a3e a3c0
00000030: e021 d440 36b1 bc40 ce46 d0c0 6394 96be
00000040: f6bb 1940 c100 333e 9c6d d0c0 143b d140
00000050: f0bb ed3e 1ce5 2b40 ca1b 643f bd25 3e3f
00000060: a33f 6a40 e954 c7bd d168 3ec0 75e2 69be
00000070: 7fab 6840 349d 273f 89d5 bb40 f04a a3c0
00000080: e21e d840 fab9 c940 896f bac0 2aca 883e
00000090: 4112 0d40 3ae0 dbbc bedd bfc0 93fa de40
000000a0: dae4 d340 3b84 b4c0 7881 e240 d7c3 cb40
000000b0: 74b3 e1c0 2ab7 8bbe 29e9 ee3f 4e16 84be
000000c0: 8a9d dac0 18bc e840 a2b3 2d3f 72ef 7040
000000d0: 31bd 793f 36aa c53e 98aa 8640 9fd9 bb3e
000000e0: 951f 4cc0 056e a3bd c808 8e40 e27a 8a3f
000000f0: 19e1 be40 de61 a2c0 120c cf40 a1d3 c840
00000100: 49e6 d4c0 34c3 383e 0c7f fa3f 0b5f 473d
00000110: 2e97 d0c0 c09f dd40 b0bf ba3d 7804 43be
00000120: d01c e4bd 4a3c 243e 97d3 08be baf2 c8bd
00000130: 032d 56be 2da9 83be d9f5 013c a85b 0fbe
00000140: 5329 5e3f ff77 8b40 8356 8a3f aa4b ef3e
00000150: fe41 a840 563b 22bd df64 5ec0 4537 acbd
00000160: 2a5e a040 2c24 833f d695 52bd 6e84 6b3e
00000170: 452b 2dbe 9834 41be d3bc d1bd 70d3 9d3e
00000180: e405 d7bc 0176 0b3e ea00 4f3e fbd5 b3be
0.34068468 3.373955 0.8504374 0.8969196 3.9031143 -0.0496733 -3.2723744 -0.105002925
4.1769586 1.0498905 5.6856956 -5.101369 6.629135 5.896632 -6.508643 -0.29410085
2.4020972 0.17480756 -6.51338 6.5384617 0.46432447 2.6858587 0.891049 0.74276334
3.660134 -0.09732992 -2.9751475 -0.22840293 3.6354673 0.6547425 5.8698163 -5.1028976
6.75377 6.303952 -5.826115 0.2671674 2.2042391 -0.026840318 -5.995818 6.9680877
6.621686 -5.6411414 7.0783043 6.367656 -7.053156 -0.2728818 1.8664905 -0.25798267
-6.831731 7.2729607 0.6785222 3.7646146 0.9755431 0.38606423 4.2083244 0.3668947
-3.1894276 -0.07979969 4.438572 1.0818751 5.9649777 -5.0744467 6.4702234 6.2758336
-6.653111 0.18043214 1.9570022 0.048674624 -6.5184546 6.9257507 0.09118593 -0.19044673
-0.11138308 0.16038623 -0.13361965 -0.098119214 -0.20915608 -0.25715008 0.00793215 -0.13999808
0.86781806 4.358398 1.0807651 0.46737415 5.2580557 -0.03960737 -3.4749067 -0.08408979
5.0114946 1.0245414 -0.051412426 0.22999737 -0.16911037 -0.18867719 -0.102410935 0.30825377
-0.026247926 0.13619234 0.20215192 -0.35124192

fc2.bias f4 [10]
00000000: 3f7a 36bd ce38 753f 76bb 8a3e 8a48 a63f
00000010: 9a46 d73f d696 8abe 5df2 a73f eb36 43be
00000020: ca3b babe 58f5 1cbe
-0.044550177 0.957898 0.27096146 1.2990887 1.6818421 -0.27068204 1.3120838 -0.19063918
-0.3637374 -0.15327966

state_value.weight f4 [1, 10]
00000000: 66e4 58c0 252d db40 e4f2 31c0 1d85 d240
00000010: 187e f440 a19a 38c0 51ef ea40 9d34 2b3d
00000020: 1ad1 73c0 38bd 1fbe
-3.3889403 6.849261 -2.7804499 6.578749 7.6403923 -2.8844378 7.3417134 0.041798223
-3.8096375 -0.15599525
