full_project/controllers/robot_supervisor_controller/weights-to-4000.pth (torch, 5490 bytes, 11 tensors)

fc1.weight f4 [10, 4]
00000000: b114 19bf 4253 273e 7cba 51be b89b e2be
00000010: bf9a 94be a9fb 2a3f b0bf 4dbf a209 de3d
00000020: d859 233e 2584 82bd c312 23bf 5191 cbbd
00000030: 629c 05bf 20ec ef37 e53c 39bf 3e13 c6be
00000040: 2a8b e5be 6dc4 fc3e 7cc0 21bf 9d4c d53d
00000050: f731 e0be 0013 813e b700 a2be ddf0 20bf
00000060: 45a8 7f3f 773a ccbd 5fcc 503e 6ec8 3d3f
00000070: ae7c ecbe 9221 be3e 8e30 de3d 5fe1 24be
00000080: ee20 833e 6458 4bbf 8c16 1ebf c3b0 6bbe
00000090: 2718 8f3f 3b18 e33e 5185 dbbd 2f2c 263f
-0.597972 0.16340354 -0.20481294 -0.4425943 -0.29024312 0.6679025 -0.80370617 0.10841681
0.15952241 -0.06372861 -0.63700503 -0.09939826 -0.52191746 2.8600974e-05 -0.7235854 -0.38686556
-0.44832736 0.4936861 -0.6318433 0.104150034 -0.4378812 0.25209808 -0.3164117 -0.6286753
0.99866134 -0.09972089 0.20390461 0.74133956 -0.46188873 0.37134987 0.10849105 -0.16101597
0.2561106 -0.7943175 -0.61753154 -0.23016648 1.1179246 0.44354424 -0.107187875 0.6491117

fc1.bias f4 [10]
00000000: 5877 353f bdd4 363f 2222 97bd 4146 643f
00000010: 0c37 063f 6dc3 3e3f 3be2 5a3d 5772 ec3e
00000020: 6e39 07be 1309 cabd
0.7088523 0.7141836 -0.07379557 0.891697 0.52427745 0.74516946 0.053438406 0.46180984
-0.13205501 -0.09865012

fc2.weight f4 [10, 10]
00000000: f0d5 943f 0c92 583f 9f7d d03e f7c4 9c3f
00000010: c542 5b3f 33e7 7b3f 664a ffbe ae73 853f
00000020: 0b7a b43e 4e3c 85be 2a86 5c3e 6263 a2be
00000030: ff24 853d 4652 5f3e 4433 1abe 3448 29be
00000040: 2a32 933d 96a3 8bbe c92a 10bc fb34 b6bc
00000050: 767c afbd a805 00be 75aa 5bbe e988 f2bd
00000060: 602e 0abe 2540 70be b0b7 f13c b029 fc3d
00000070: 895c 9b3e 8f4a 1f3d 7d6b 7b3e 956d c838
00000080: 0061 93bd 73c9 103e eb61 e03d b378 9ebe
00000090: d600 cf3d 9dfe b2bd a672 9fbe 7b57 383d
000000a0: 61f8 a1be 5073 b1bd 116a c1be 82e9 3bbd
000000b0: 7f8b 653e 02b2 c9bd 0cce a8be c04b 8a3c
000000c0: a7de 81be 8479 66be b533 1bbf 9bc6 89bd
000000d0: 4486 da3c 2b74 113d 6b6a 3cbe 3491 06bf
000000e0: 31ed 383f 506c e1be 869e 47be e1ac 703f
000000f0: 828d 48bf 8287 1a3e a1d9 b2be da16 d8bb
00000100: c04b 83be 7874 ddbe a963 c83e 63dc 84be
00000110: 44d8 96be ee18 b53e 9508 88bc 55a2 8c3e
00000120: d257 923c da21 62be 18d2 3bbe abab f7ba
00000130: 3ab0 0abe 988b 243d d277 d6bd 8046 013d
00000140: fae5 6c3f 5dcd 683f bf43 253f 14c2 863f
00000150: 763d 203f ac22 753f 34ff d73e f522 993e
00000160: 616c 013f 0fb6 063e 4d58 36bf 6a75 3ebe
00000170: bbbe d7be 08ab c1be 9f15 07bf 5cbd 67be
00000180: a87a 823f 870d cebe 8bda a3be 40f1 113f
1.1627789 0.8459785 0.4072084 1.2247609 0.8564876 0.98399657 -0.4986145 1.0425928
0.3524936 -0.2602257 0.21535555 -0.31716448 0.06501197 0.21808729 -0.15058619 -0.1653145
0.071873024 -0.27273244 -0.008799263 -0.02224206 -0.08568661 -0.12502158 -0.21451743 -0.1184252
-0.13494253 -0.23461969 0.029506534 0.12312639 0.30344036 0.038889464 0.24552722 9.5571544e-05
-0.07196236 0.14139347 0.10956176 -0.3095146 0.10107581 -0.0873997 -0.31142157 0.045005303
-0.3163481 -0.08664572 -0.37776235 -0.045876987 0.22416495 -0.098484054 -0.329697 0.016881824
-0.25365183 -0.22507292 -0.60625774 -0.06727334 0.026675351 0.035511177 -0.1839997 -0.5256531
0.72236925 -0.44027948 -0.19494066 0.9401379 -0.78340924 0.15090755 -0.34931663 -0.006594521
-0.2564373 -0.4325292 0.39138535 -0.25949392 -0.29461873 0.35370582 -0.016605655 0.274676
0.017864142 -0.22083226 -0.18341863 -0.0018895766 -0.13543788 0.04017219 -0.10472073 0.031561375
0.92538416 0.9093836 0.645565 1.0527978 0.6259378 0.9575603 0.42186892 0.29909483
0.50556 0.13155387 -0.71228486 -0.18599477 -0.42137703 -0.378258 -0.52767366 -0.22630829
1.0193682 -0.40244696 -0.32002673 0.57008743

fc2.bias f4 [10]
00000000: 1873 eb3e f166 dcbd 5be2 84be 6fc5 a3be
00000010: c431 e03d 43f2 b13e 0679 e3bd 6ccf 4cbe
00000020: 7864 833e 913f dd3e
0.45986247 -0.10761822 -0.25953946 -0.31986567 0.10946992 0.34755144 -0.11107068 -0.20001
0.2566259 0.4321256

action_head.weight f4 [5, 10]
00000000: 6500 ac3f 0c69 f53d 2c5b 5e3e 3f48 7cbd
00000010: ec43 3f3e 8e15 03bf 00ff 2bbf 075a c83d
00000020: f686 863f 0a59 3dbf 9e81 20bf 3bfb 80be
00000030: 09d2 313e 268e 8b3d 7b4f 35be 1e39 593f
00000040: e6b8 083f 2e6c 66be 63b4 113e 777b 5b3f
00000050: 1a0e 313c cdca 2fbe 5404 07bb b963 6a3d
00000060: 377c ddbd 0e93 0dbc 9b50 9bbe 4fb9 7e3e
00000070: dbcf 0f3e 01a8 7bbe fcb3 87be 4922 cb3d
00000080: d34d 92be 35ec 8cbe 973b 58be 3181 38be
00000090: 7838 023e 2b9f 053e da1c 0abf 0388 debd
000000a0: b8e4 fabe cf8c 14be 90f8 cc3d ae5b ba3c
000000b0: 9d84 073e da64 03bf 4bc9 ddbe 462d 52be
000000c0: 0ce1 19bf ef48 25be
1.343762 0.11982927 0.21714467 -0.061592337 0.18678254 -0.51204765 -0.67185974 0.09782796
1.0509937 -0.7396399 -0.6269778 -0.25191674 0.17365278 0.06814222 -0.177061 0.8485278
0.5340713 -0.22502205 0.14228968 0.8573527 0.010806585 -0.17167206 -0.0020601945 0.05722401
-0.10814708 -0.008641018 -0.30334935 0.24875377 0.14044134 -0.24575807 -0.26504505 0.09918649
-0.28575 -0.27523962 -0.21116482 -0.18018033 0.12716854 0.13048999 -0.53950274 -0.10865786
-0.49002624 -0.14506839 0.10008347 0.022748794 0.13234182 -0.5132576 -0.43317637 -0.20525083
-0.6010902 -0.16141103

action_head.bias f4 [5]
00000000: 9e67 163f 93e3 73bd ff38 b3be eba9 ebbe
00000010: e883 02be
0.5875186 -0.059543204 -0.35004422 -0.46028075 -0.1274563

fc1.weight f4 [10, 4]
00000000: a432 d13f b7ae b1bf 6a78 b8bf cc0f 6b40
00000010: 6742 ea3f 1726 efbf bb80 00c0 efbc 7c40
00000020: a2a8 afbe 06d9 823e 380b a8bd b830 1b3e
00000030: 52c7 adbf a0f2 6bc0 53e0 48c0 b6c6 573e
00000040: 66af b43e f6c6 03c0 9d49 d0bf e38e 6140
00000050: 505d 7abe bc66 a33e 501d bcbd f019 5d3e
00000060: a954 1c40 6365 78c0 dd43 a9c0 8396 f33f
00000070: 1bd5 1bbf 5ec6 643e 17bc bebe 8f82 56be
00000080: b7ba 033f 7508 fabf f8df 38c0 240a 9440
00000090: f813 673f 0cc5 60c0 c747 5fc0 b22c 9240
1.6343579 -1.3881444 -1.4411747 3.6728392 1.8301514 -1.8683499 -2.007857 3.9490316
-0.34308344 0.255562 -0.08205265 0.15155303 -1.3576453 -3.6866837 -3.1386917 0.21071896
0.35290068 -2.0590186 -1.6272465 3.524346 -0.24449658 0.31914318 -0.091852784 0.21591926
2.4426672 -3.8811882 -5.289534 1.9030308 -0.6087205 0.22341296 -0.37252876 -0.20948242
0.5145678 -1.9533831 -2.88867 4.626238 0.90264845 -3.5120268 -3.488756 4.567956

fc1.bias f4 [10]
00000000: d1b3 1a40 7d99 5b40 e273 a4be c981 c83f
00000010: ec1c 2040 d6ab b7be f497 19c0 2b3a 01bf
00000020: a4b6 6940 817e 9a40
2.4172251 3.4312432 -0.32119662 1.5664607 2.5017653 -0.35873288 -2.3998995 -0.5047938
3.6517725 4.8279424

fc2.weight f4 [10, 10]
00000000: 4f0f 7340 4576 4d40 45fc 91bd ed33 8cc0
00000010: 6250 4d40 0d27 923e c1e4 c0c0 7bbb 3b3d
00000020: 8f42 8140 40db 7640 9445 7340 2a93 6140
00000030: ec33 63be 3e87 80c0 b428 6640 fc61 83bd
00000040: e1d5 cdc0 f175 c6bc 3c9e 8140 ce5c 9040
00000050: 12b4 52bf 715c e73d 4d29 523e 5e4a 7e40
00000060: 259a d93d d220 8bbe f991 ae40 98c7 8e3e
00000070: bb02 863e c853 223f 6509 23be 0112 74be
00000080: ca04 fc3d 0881 8040 735b 6ebd 1e33 a2bd
00000090: 8baf c540 9b44 913c aad2 a53e aaca 103f
000000a0: f907 01bf bc18 a4bb fc88 6bbe 48d4 8940
000000b0: c67c 77be 96b5 a63d d365 c940 d212 3d3e
000000c0: 2f51 2d3e 841c 503f 43ea f1be 7cb8 b0bc
000000d0: 2802 453e 9ee3 8740 3d36 8fbd 1506 c7bd
000000e0: dfb7 c940 3de8 ce3d 4f92 dc3e 12ad fd3e
000000f0: 9809 a5be 8f42 a3be 90a8 50bc d21d 1dbe
00000100: 7746 793e 8a88 9a3e 6a0f 4c3e 0e89 833e
00000110: 9752 adbe 5a25 a83d 964c 58bf 6944 a8bd
00000120: d5dd b73d 81c5 7440 7753 28bc 8cdc 913e
00000130: 0007 c140 c2b1 52be fa50 603f 0c33 e13e
00000140: 16cb 5e40 cef1 7040 b4a9 473e 8480 84c0
00000150: ccc4 5f40 f312 f7bd f2b5 cdc0 270a e0bc
00000160: 3d46 8540 5f87 8540 0a5e 47be 6658 66bd
00000170: 4f02 443e 057a 7440 2008 8cbe 6c1f 54bd
00000180: d97d c740 db2d 703e 32d8 1a3e 2678 263f
3.7978094 3.2103436 -0.07128195 -4.3813386 3.2080312 0.28545418 -6.027924 0.045833092
4.039375 3.857132 3.8011217 3.5246072 -0.22187775 -4.016509 3.5962343 -0.064151734
-6.4323583 -0.02422616 4.0505657 4.5113287 -0.82306015 0.11296929 0.20523567 3.973289
0.10625104 -0.27173477 5.455319 0.27886653 0.26173958 0.6340909 -0.15921552 -0.23834993
0.12305601 4.015751 -0.05819268 -0.07919906 6.1776786 0.017732909 0.32387286 0.5655924
-0.5040279 -0.0050078314 -0.23001474 4.3071632 -0.24168691 0.081401035 6.2936797 0.1846421
0.169255 0.8129351 -0.4724904 -0.021572344 0.19239104 4.2465353 -0.06992767 -0.09717957
6.303695 0.1010289 0.43080375 0.49546105 -0.32233882 -0.31886718 -0.012735501 -0.15343407
0.24343286 0.30182296 0.19927755 0.25690502 -0.33852074 0.08210249 -0.8449186 -0.08216173
0.08977858 3.8245547 -0.010273806 0.28488576 6.0321045 -0.20575622 0.8762356 0.43984258
3.4811454 3.7647586 0.1949833 -4.140688 3.4963865 -0.12064161 -6.42846 -0.027348591
4.164824 4.172775 -0.19469467 -0.056236647 0.19141506 3.8199475 -0.2734995 -0.05178778
6.2341123 0.23454992 0.15121534 0.6502708

fc2.bias f4 [10]
00000000: d06f 1040 a357 0040 9fb3 acbe f069 16bf
00000010: 9539 3fbf 0fc0 ffbe 772f 09be 3660 a4be
00000020: 2be8 f73f 44e3 0dbf
2.2568245 2.005349 -0.3373079 -0.587554 -0.7469724 -0.49951217 -0.13397013 -0.32104653
1.9367727 -0.55424905

state_value.weight f4 [1, 10]
00000000: 0b40 9440 7374 9e40 cae4 78c0 4fb2 81c0
00000010: 8268 bcc0 15cf 83c0 5d0f 2cb9 424f 8ac0
00000020: 9fd5 9e40 4b9b 85c0
4.6328177 4.951715 -3.8889642 -4.053016 -5.8877573 -4.1190286 -0.00016408922 -4.322175
4.963577 -4.1752067
