full_project/controllers/ppo_controller/pretrained.pth (torch, 5234 bytes, 11 tensors)

fc1.weight f4 [10, 1]
00000000: ba31 493f f57b 623d 78cf 7fbe 4266 4abf
00000010: 5c79 e73e aabb 5cbf bec6 363f acf0 fabe
00000020: 708e a83e ea3a ad3d
0.785915 0.055293996 -0.24981487 -0.79062283 0.45209777 -0.8622385 0.71397007 -0.49011743
0.3292117 0.084585026

fc1.bias f4 [10]
00000000: a8b2 c9be 4ff7 9f3e 10d3 113e c051 8abd
00000010: 97ee 3a3f 7c6d 80be 93fb 01be feae 433f
00000020: 20c8 46bf d401 35be
-0.39394116 0.3124337 0.1424067 -0.06753874 0.7302031 -0.2508353 -0.12693624 0.7643889
-0.77649117 -0.17676479

fc2.weight f4 [10, 10]
00000000: 7f8b 863e 5f82 41be 3a57 893e d2ce 3cbe
00000010: a8ba 953e 98c6 f53d c629 d6bd f6b9 0fbe
00000020: 338d 97be 859e 91bd 8aa4 19be bd63 85be
00000030: da9e dcbd 6f3b 30be ae53 c73d e05c e83d
00000040: 77a3 ca3d c202 60be ecb6 7abe eab4 a03b
00000050: 481d 483e 491d 843e a4be f739 bb2e 663e
00000060: 4bc5 bcbd 1976 4f3e c49b 42be ea9e b9bd
00000070: 334b 913e cf15 d63d a6ef 03bc ec4d 0e3e
00000080: b60a 0abe 872a 953e 6c88 25be c38a 613e
00000090: e6f8 373e 4475 03bd 63bb aebd f78f 9f3e
000000a0: a28e 873e 9ceb 4c3e 84e7 41be 5482 b5bd
000000b0: f6c3 67be d7af 0d3e b664 283c 7bf4 9dbe
000000c0: 92a1 0d3e 3dd5 49be 46bc 843e e0bf fabd
000000d0: 8725 a1be 167c bfbd 08d7 11be f548 fcbd
000000e0: 4412 3ebd d551 23be 37e8 d23d 3b76 97be
000000f0: d21e 483d 4332 003e 792b 33be a65e c4bd
00000100: b3e5 27be 30a8 96be 7b17 7cbe 312c 713d
00000110: 2454 553d fb3f 153e 398a 1ebe 84ad 2dbe
00000120: 405b c33e 2fdf 623d 5019 853e b22b 97be
00000130: 51ad 14bf 1e8d 1b3f e2e8 6dbe 5d1f 0e3e
00000140: 9a40 c83d 9a27 9fbe ece0 3e3e 2ff6 913e
00000150: 6147 9c3d fe0f 97be fe46 89be 627d 923e
00000160: a7fb 77be dc69 4c3e 8a5a 44bd 0817 8dbe
00000170: cb39 62bd b0c3 583d 61db f7bd 290f 013e
00000180: e221 823d 7b02 93be 0127 41be 4c9d 1b3e
0.26278302 -0.18897389 0.2682436 -0.1843827 0.2924397 0.120007694 -0.104571864 -0.14035782
-0.29599914 -0.07110313 -0.15004173 -0.26052657 -0.10772486 -0.17210172 0.097327575 0.113458395
0.0989446 -0.21876052 -0.24483842 0.004904379 0.1954242 0.25803593 0.0004725355 0.22478764
-0.09217318 0.20259894 -0.19004732 -0.090635136 0.28377685 0.104533784 -0.008052742 0.13896912
-0.13480648 0.29134008 -0.16165322 0.2202559 0.17966041 -0.032094255 -0.08531835 0.31164524
0.26476008 0.20011753 -0.18935972 -0.08862749 -0.22633347 0.13836609 0.010277918 -0.30850586
0.13831165 -0.1971025 0.2592489 -0.122436285 -0.31473944 -0.093498394 -0.14242184 -0.12318603
-0.04640414 -0.15949185 0.10298198 -0.2958239 0.048857518 0.12519173 -0.17497052 -0.09588365
-0.16396217 -0.29425192 -0.24618332 0.058880035 0.052082196 0.14575188 -0.15482415 -0.16960722
0.38155556 0.055388626 0.25995874 -0.29525524 -0.5807696 0.607622 -0.23233369 0.13879152
0.09777947 -0.310849 0.18640488 0.28508136 0.07630802 -0.2950439 -0.26811975 0.28611284
-0.24217092 0.19962257 -0.047937907 -0.27556634 -0.055230897 0.052920997 -0.1210239 0.1260344
0.06354119 -0.2871283 -0.18862535 0.15196723

fc2.bias f4 [10]
00000000: 5835 883d 261a 68be a796 c6bd dd1f 7bbe
00000010: 292a eabd f34e 2c3d c80e ef3c 9f8f 793e
00000020: 3895 5b3e ed23 dabd
0.066507995 -0.22666225 -0.096967034 -0.24523874 -0.11433823 0.04206748 0.029181853 0.24371193
0.21443641 -0.106513835

action_head.weight f4 [3, 10]
00000000: f68b b5bc 270b 25bd 538e 8b3e cce7 fcbd
00000010: dfff ff3d 367b 4bbd 40ee bdbd f7da f93e
00000020: c690 a33d 0fb5 debd 5b66 da3e 1e78 9e3e
00000030: 4003 66be 7a3e 6cbe e014 b9bd 85e6 a53e
00000040: 92de de3d a9ba 2bbd 8eca 2abe 578f 68be
00000050: daa5 71be ce91 15bc 99cc a43d b934 56bd
00000060: 338c bdbc 1a45 663e bd66 993e 54a9 e33d
00000070: 3b86 2a3e 85fb 8dbe
-0.022161465 -0.04029384 0.27257022 -0.12348899 0.124999754 -0.04967805 -0.09273958 0.4879987
0.07986598 -0.10874378 0.42656216 0.30951017 -0.22462177 -0.23070708 -0.09037185 0.32402435
0.10882296 -0.04192606 -0.16678831 -0.2271093 -0.23598424 -0.009129001 0.080468364 -0.052296374
-0.023138141 0.22487298 0.29961196 0.11116281 0.16652767 -0.27730957

action_head.bias f4 [3]
00000000: c517 3d3b d539 f5bd ef57 643e
0.002885328 -0.11973921 0.22299169

fc1.weight f4 [10, 1]
00000000: 70dc 14be b27e 4fbf 9186 4640 4a17 f13f
00000010: 744e 0dbf c06e 83be 6ca1 83bf 5a75 3abf
00000020: b446 1740 e80d 8ebe
-0.14537215 -0.81052697 3.1019633 1.8835232 -0.55197835 -0.25670433 -1.0283637 -0.72835314
2.3636904 -0.27744985

fc1.bias f4 [10]
00000000: f6ad 16bf 8044 19bd 7137 16c0 1771 3c40
00000010: a8fc 0dbe 100c 1bbf bc3c 7b3e 604a 3cbe
00000020: e9b4 2640 a05b 1ebd
-0.58859193 -0.037418842 -2.3471339 2.9444025 -0.13865912 -0.6056528 0.24534887 -0.18387747
2.6047919 -0.0386616

fc2.weight f4 [10, 10]
00000000: 46e0 8cbd 635b 85be 3584 cb3d 8594 1bbd
00000010: ebff d3bd 1e72 c13d 4a24 ab3d b406 8c3e
00000020: 670e a53c fe05 82be bf14 233d 0873 60be
00000030: 7816 0abe f442 63bd bec8 2cbe 8c90 78be
00000040: 7175 f83d aff5 38be fc1b 88be c526 28be
00000050: 0c2b de3d 6df0 67bd f2ac 96c0 5c45 3b40
00000060: bbaf 1fbe 5ec4 3ebe 2f27 3abf ddc2 69be
00000070: 27e2 3540 bbbf a7bb 3a8f 0dbd 2112 30be
00000080: f68d 8cc0 9021 3440 c45d 653d 5f85 9ebd
00000090: 2135 c5be ede6 143e 52b1 2d40 cbf8 cb3d
000000a0: f7d5 343e b088 92be efcd 8b3f ceb5 a5be
000000b0: 43e0 123e 120a e6bd 4126 ed3e a5c4 49bd
000000c0: 4dfc eabd 7acf 92be 5888 33be f74d d7bd
000000d0: 6f18 91c0 8baa 4540 3c16 e13d 1663 49bc
000000e0: a6b4 ebbe 2fed a03e 7533 3540 169f 7a3e
000000f0: daed 943e 4a86 3b3e 05dd dabd 8faf fd3c
00000100: 8391 1f3c f5d4 6ebe 135b 4abe 4093 9fbc
00000110: 87d4 a7bd 9f6b 903e 63cb 16be b041 8c3e
00000120: f5d7 98c0 73bd 4640 185c 033e b279 afbd
00000130: da58 d5be ca96 0dbe 015c 4240 f74b 093e
00000140: 2a9a 0bbb f78c 4c3e 55f4 93c0 d04f 5a40
00000150: 69a7 bf3d 6fed f93d 27fb 1c3c 3b8f e1bd
00000160: c755 5c40 e519 42bd 4db1 223e 9347 e6bc
00000170: 8c3e 93c0 ac26 2b40 f754 613d ea9a 80be
00000180: d343 46be ecca 583c 00b4 3e40 e7f0 e4bd
-0.06878714 -0.26046285 0.09937326 -0.037983436 -0.10351547 0.09445594 0.08356531 0.27348864
0.02014847 -0.25395197 0.039814707 -0.21918881 -0.13485134 -0.055483773 -0.16873452 -0.2427389
0.12131775 -0.18062471 -0.2658385 -0.1642104 0.10848054 -0.056625772 -4.7086115 2.9261084
-0.1559438 -0.18629596 -0.7271604 -0.2282824 2.8419282 -0.0051192916 -0.03456042 -0.17194416
-4.392329 2.8145485 0.055997625 -0.07740282 -0.38517097 0.14541216 2.7139478 0.09959563
0.17659746 -0.2861991 1.0922221 -0.32365268 0.14343362 -0.112323895 0.46318248 -0.0492598
-0.11473904 -0.28673917 -0.1753248 -0.105129175 -4.5342326 3.088534 0.10990569 -0.01229169
-0.4603626 0.31430957 2.8312657 0.24474749 0.29087716 0.18312946 -0.106866874 0.030967502
0.009739283 -0.23323424 -0.19761305 -0.019479394 -0.08194833 0.28207108 -0.14726023 0.27393866
-4.776362 3.105313 0.128281 -0.085681334 -0.4166935 -0.13827053 3.0368655 0.13407885
-0.0021301606 0.19975649 -4.6235757 3.4111214 0.09358103 0.1220349 0.009581364 -0.11013647
3.4427354 -0.047387976 0.15887947 -0.028110301 -4.601385 2.6742353 0.05501267 -0.2511819
-0.1936181 0.013231974 2.9797363 -0.11178761

fc2.bias f4 [10]
00000000: 5676 c3be fd47 85be 82c3 de3f 8acd d53f
00000010: e19e 19bd 489c bf3f 0ac1 e7bc 6544 1040
00000020: d7fe 2540 4c4a d63f
-0.3817622 -0.26031485 1.7403414 1.670335 -0.037505034 1.4969568 -0.02829029 2.2541745
2.5936792 1.6741424

state_value.weight f4 [1, 10]
00000000: 0764 353e 9414 9bbd 64e2 4240 3f91 3f40
00000010: 4f24 5cbf 932f 4340 b687 97bd 7efc 2b40
00000020: 0996 3f40 3616 4d40
0.17713939 -0.07572284 3.0450678 2.99324 -0.859929 3.0497787 -0.07398932 2.687286
2.9935324 3.2044806
